ppo_ant_v2/ppo_ant_v2_s0/pyt_save/model.pt (torch_old, 97333 bytes, 12 tensors)

log_std f4 [8]
000000 cb c0 48 bf 2c 35 50 bf ce 48 50 bf d1 ff 4d bf
       -0.7841918 -0.81331134 -0.8136109 -0.8046847
000010 1f 5f 50 bf c0 cb 52 bf cd b7 48 bf 23 af 49 bf
       -0.81395143 -0.8234215 -0.7840546 -0.7878286

weight f4 [64, 111]
000000 67 71 64 bc f9 58 26 3e 58 42 14 be 1d ef 8c bd
       -0.013943053 0.16244878 -0.14478433 -0.06881545
000010 57 77 37 bb df 46 bc ba ff 5c ad bb e2 5a 27 3d
       -0.0027994716 -0.0014364383 -0.005290627 0.040858157
000020 23 a2 3b 3d e7 aa 08 3e 5c e5 09 bc 1c 62 17 bd
       0.045808922 0.13346444 -0.0084165 -0.0369588
000030 5d 5c 62 bd c4 a1 68 bd c2 2c 84 bc b1 57 a3 bd
       -0.055263866 -0.056794897 -0.016134623 -0.0797571
000040 22 6a 09 3c a9 75 36 3c 27 b0 1f bc 40 d2 12 bd
       0.00838712 0.011136451 -0.009746588 -0.03584504
000050 68 42 57 3d d5 1a 4e 3d 8f b2 54 bd 30 d3 9c 3d
       0.052553564 0.050318558 -0.0519281 0.07657468
000060 1a a5 ee bd 79 fc 51 3d 89 a2 0c 3e dc 53 b4 bd
       -0.116525844 0.051266167 0.13733877 -0.088050574
000070 aa bf 74 bd 44 d9 c4 bc 66 8b 17 bd 75 f3 a7 3d
       -0.059753098 -0.024029382 -0.036998175 0.082007326
000080 02 ff 7b bd 49 f7 32 bd 98 ce 87 bd 49 0e b6 bd
       -0.06152249 -0.04369286 -0.066312015 -0.088894434
000090 9b f1 62 bd 5d 18 a7 3d 86 7a 2d 3d ba 6d 3c 3d
       -0.055406194 0.08158944 0.042353176 0.04600308
0000a0 00 92 a3 3b 8f 51 47 bd b0 8c 83 3c a7 7f b5 bd
       0.00499177 -0.048661765 0.016058296 -0.088622384
0000b0 38 75 8c bd dc 6c 48 bd fe 4a 75 3d 76 f2 63 3d
       -0.06858295 -0.04893194 0.05988597 0.05565115
0000c0 7a 6b 2c bd 60 72 60 bb 32 a5 78 3d 43 3f c1 3d
       -0.042094685 -0.003424786 0.060704418 0.09435894
0000d0 46 4c 1a 3d 40 15 52 3c 8f 55 82 3d 65 e9 64 bd
       0.037670396 0.012822449 0.06363975 -0.055886645
0000e0 50 e4 90 3c b2 b5 96 bd 32 ba 86 bd b8 d5 48 bd
       0.017686993 -0.073588744 -0.06578483 -0.049031943
0000f0 06 e9 2f 3d 96 59 1c 3d bb 4a 66 bd 48 e7 ea 3c
       0.042946838 0.038171373 -0.056223612 0.028674737
000100 3a 6d 55 3d d8 47 44 bc 20 81 6d 3b 7c 29 b4 3c
       0.05210612 -0.0119800195 0.0036240295 0.021992438
000110 de 2f 71 3d 59 a6 ba 3d b5 cc 95 bd 6d 79 0e bd
       0.05888354 0.091137595 -0.073144354 -0.03478377
000120 de ca 18 3d 47 0f a1 3d 51 28 a9 3d e9 84 ab 3d
       0.037302844 0.07864242 0.08259643 0.0837496
000130 6c be 9a 3c 3a 09 a9 bd c0 0e 0f 3c 44 38 73 bd
       0.018889628 -0.08253713 0.008731544 -0.05937983
000140 09 29 b5 bd 3d b6 ac 3d f3 cd 93 3d 33 e8 c1 bd
       -0.088457175 0.08433197 0.07217016 -0.094681166
000150 20 89 91 3c 74 fc 82 bc c0 e8 7f bc e8 f6 31 bd
       0.017765582 -0.01598952 -0.015619457 -0.04344836
000160 82 81 15 3d db 45 66 bd 86 85 0e 3d 52 9b 44 3d
       0.03650046 -0.056218963 0.034795307 0.047999687
000170 13 28 8b 3d 0a 5e 11 3d 68 64 c0 bd 7d 32 7c bd
       0.06794753 0.035490073 -0.09394151 -0.061571587
000180 0a 1f 42 3d 08 be a2 3c 7d a3 97 bd 42 dd 5f bd
       0.047392882 0.019866005 -0.0740423 -0.054654367
000190 b5 de b6 3d 57 fb 82 3d 07 84 29 bd 94 b2 c3 bc
       0.08929197 0.063955955 -0.041385677 -0.023888864
0001a0 58 2c b9 bd c0 9c df ba a2 62 92 bd 30 f1 95 bd
       -0.09041661 -0.0017060265 -0.07147719 -0.073213935
0001b0 f0 5e ab bb 98 7d 69 3c 16 37 1f bd f7 22 79 3d
       -0.0052298233 0.014251135 -0.038870893 0.06082436
0001c0 f1 99 00 bd 6a 32 f3 3d 9a 67 0b 3d 51 6c d8 bd
       -0.03139681 0.1187485 0.03403435 -0.10567535
0001d0 7c 54 a9 bc b1 22 07 bc 3c 57 99 3b ed 59 e6 3c
       -0.020670168 -0.008248017 0.0046795886 0.028119052
0001e0 b7 43 a4 3d 03 0f 28 3d ab a6 25 bd 82 b7 32 3d
       0.08020728 0.04102994 -0.04044215 0.043632038
0001f0 6c b4 5e bd 0e df 9e ba f6 a0 e6 bc 0f bc e5 bc
       -0.054371282 -0.0012120919 -0.028152924 -0.028043775
000200 c6 51 cd bd a2 eb ad bd dc b7 ac bc 32 fa 7b 3b
       -0.10025363 -0.08492209 -0.021083765 0.0038448689
000210 d8 02 1c bd 1a f3 97 bb 52 fd e2 3c d6 9f 25 bc
       -0.03808865 -0.0046371343 0.027708683 -0.010108909
000220 02 8c 04 3c d7 b5 47 bc 98 5c 9d 3c d6 32 77 3d
       0.008090021 -0.01218935 0.019209191 0.060351215
000230 05 22 b8 3d da e4 76 3d df 8d b8 3d 50 ef e0 bb
       0.08990864 0.060276844 0.09011435 -0.006864466
000240 5e 9f ae bd 37 4f 38 bd 09 5c 84 3d 80 4b 21 ba
       -0.08526491 -0.04499742 0.06462867 -0.0006152913
000250 40 3d 41 bd 23 f6 94 bd 02 eb b5 bd 90 10 a4 bd
       -0.047177553 -0.07273509 -0.08882715 -0.080109715
000260 3c b7 9d bc e6 34 55 3d 12 30 52 3d 3b 79 bb bd
       -0.019252412 0.0520524 0.051315375 -0.09153982
000270 ce 82 72 3d 30 1c 98 bd d4 61 a4 bc 3e a3 1d bd
       0.059206776 -0.07427251 -0.02006618 -0.038485758
000280 a0 c4 95 bc 94 aa 98 bc 05 6f ae bd 72 d7 a7 bd
       -0.018282235 -0.018636025 -0.08517269 -0.0819539
000290 60 57 73 bc 00 e3 a0 3a 5c 9c 30 bd 86 73 12 3d
       -0.014852375 0.0012274683 -0.043117866 0.035754703
0002a0 cc f5 ae bd 20 e6 d1 bb bd f2 aa 3d 09 94 1e bd
       -0.08542976 -0.006405607 0.0834708 -0.038715396
0002b0 57 88 af 3d de cb 0c 3d 5c 6d af bd 1a fa 75 3d
       0.08570927 0.03437411 -0.085657805 0.06005297
0002c0 30 73 33 bc 47 8d 2d bd 51 71 9b 3d 6a 15 9d bd
       -0.010952756 -0.04237106 0.07589973 -0.076701
0002d0 b8 de 26 3c 70 cb a2 bc 8b d0 8a 3d 84 0c d9 3c
       0.010184936 -0.019872397 0.06778058 0.026495226
0002e0 fa ce 3a 3d a6 4c 09 3d 2c fb ba bc e8 85 a3 bc
       0.045607544 0.033520363 -0.022824846 -0.019961312
0002f0 f1 30 a0 bd ce a7 52 3d e7 56 9a 3d 3b 01 85 3d
       -0.07821835 0.051429562 0.075361066 0.06494375
000300 e4 1d 89 bd f0 b6 8a 3b ca 07 89 bd ba 03 56 bd
       -0.06695154 0.0042332336 -0.06690939 -0.052249648
000310 99 8a 62 bd aa dc 04 3d 1c ad 67 bd 40 b6 07 bb
       -0.05530796 0.032437004 -0.056561574 -0.0020707995
000320 20 d7 82 3b 06 9d 7a 3d 03 f1 92 bd 0e 73 85 bd
       0.00399293 0.061184905 -0.071748756 -0.065160856
000330 2b bf 61 bd ef 0e 88 3d 45 c0 0b bd b5 f6 a3 3d
       -0.055113953 0.06643473 -0.03411891 0.0800604
000340 82 95 0c 3d 88 ea 44 3c 00 38 39 ba 14 b5 99 bc
       0.03432227 0.012018807 -0.00070655346 -0.018763103
000350 e0 1c 43 3c a8 8c b1 bc 00 d4 2e ba 88 6b 46 3c
       0.01190874 -0.021673515 -0.00066691637 0.012110598
000360 0a 0d 98 bd ee c4 4b bd 6f f7 9c 3d 2c c1 9d bd
       -0.07424362 -0.049748354 0.07664382 -0.0770286
000370 f0 54 df bb b3 4b c0 3d df 25 94 3d ba 54 5c ba
       -0.0068155453 0.093894385 0.07233786 -0.0008404959
000380 7e ea ad bc 34 b8 a5 3d 00 72 93 bd e7 4d 91 bb
       -0.021229979 0.080917746 -0.07199478 -0.0044343355
000390 78 0f 80 bc 82 02 67 3c 4f 20 47 3d 0d 51 36 bc
       -0.015632376 0.014099719 0.048614796 -0.011127722
0003a0 1d a5 83 3c 21 29 bd 3d f3 30 55 3d 8a ac e2 bd
       0.016069943 0.0923636 0.052048635 -0.110680655
0003b0 6b 8a 5b 3d 61 53 1e bd f9 c7 70 bd 57 a6 e8 3c
       0.053598803 -0.038653735 -0.05878446 0.02839963
0003c0 7f d5 77 3c 4c 43 a8 3d f5 c9 9d bd 7e 65 23 3b
       0.015126585 0.08215961 -0.07704536 0.002493232
0003d0 70 84 5e 3d 3d 68 2b bd 37 b2 fd 3d 69 6b cf bd
       0.05432552 -0.041847456 0.123875074 -0.10127909
0003e0 36 5d 19 3d 54 32 84 bc e1 c1 4c bd 08 8a 4d 3c
       0.03744241 -0.01613728 -0.049989585 0.012545116
0003f0 23 be a0 3d 0c 4b e3 bc 41 d0 66 bd bd c8 0f bd
       0.07848766 -0.027745746 -0.05635095 -0.03510355

bias f4 [64]
000000 9e 08 56 bd c5 95 71 bd 1e 49 ae 3c f5 ef 87 bd
       -0.05225431 -0.058980722 0.0212751 -0.06637565
000010 07 f8 08 bc 22 bf 97 bb c9 11 7f 3d 22 d4 2c bd
       -0.008359916 -0.004630939 0.06227282 -0.042194493
000020 1d 62 6d 3d 01 a9 8f 3d f1 c1 b1 3d dd d1 2a 3d
       0.057954896 0.07014657 0.086795695 0.041704047
000030 3a 83 c1 3d f1 0d 82 bd 8b b7 bb 3c 2d 49 d3 bd
       0.094488576 -0.06350315 0.022914669 -0.103166915
000040 b0 12 33 3d ce 0c f6 bc 47 cb 6b bd c1 cb d9 3d
       0.043718994 -0.030035403 -0.057566907 0.10634566
000050 ab 11 47 3d 48 57 5e 3c 06 b8 69 bd 84 65 3b 3d
       0.048600834 0.013570614 -0.057060264 0.04575111
000060 d2 a7 aa 3c b6 74 7b bd b2 e5 b1 bd d9 c3 c4 3d
       0.020831976 -0.0613906 -0.08686389 0.096076675
000070 4a de 0b 3d 88 76 bd bc 8f 35 69 bd 22 c9 3c 3d
       0.03414754 -0.02312781 -0.056935843 0.046090253
000080 75 74 08 be 72 14 07 bd e3 b5 d0 3b 92 e9 9a 3d
       -0.13325675 -0.032978483 0.006369339 0.07564081
000090 1a 9a 0f 3d 26 32 5d 3c 55 95 cc 3d 8c 33 66 3d
       0.035059072 0.013500726 0.0998942 0.056201503
0000a0 4e ce d9 3d 4e cc 0c bd 84 55 9e 3d ff 4b 86 bc
       0.106350526 -0.034374528 0.077311546 -0.01639366
0000b0 37 fd 55 3c 3b 7c 2d 3c 3b e2 08 3e 55 62 c0 bc
       0.013060859 0.010588701 0.1336755 -0.023484388
0000c0 83 28 c0 3b 6f 11 91 bc d9 2e 4b bd 0b c1 0a 3d
       0.0058642044 -0.017708508 -0.049605224 0.033875506
0000d0 52 0b 01 3b 1e 46 0b bd bd cc 38 3d 9d b2 dc 3c
       0.0019690585 -0.034002416 0.04511713 0.026940638
0000e0 17 cf 0b 3c bd a1 8b 3d c8 25 77 3d 59 a2 9f 3c
       0.008533261 0.068179585 0.060338765 0.019486593
0000f0 6c 92 4a bd 17 6f 80 bc 14 39 bf 3d 64 e5 af bc
       -0.049456045 -0.015677972 0.09337059 -0.021471687

weight f4 [64, 64]
000000 46 1a 1a be 94 11 72 bc 27 cb a3 bb 86 10 b3 bb
       -0.15049085 -0.014774699 -0.004998583 -0.005464616
000010 c7 b3 f6 3d 0f 34 29 3d f7 93 10 bd 16 a4 ab 3d
       0.120460086 0.041309413 -0.03529736 0.08380906
000020 00 3f 80 3c 02 ba 13 3c 62 b4 20 bd 1e 5d 5c bd
       0.01565504 0.009016516 -0.039234526 -0.05379974
000030 66 de cb bd 1a a1 1a bc 91 a0 a8 bd 53 03 c6 3d
       -0.099545285 -0.009437824 -0.082337506 0.09668603
000040 f1 69 88 bd 39 22 92 bd f9 ae 3f bc 1f 45 cc bd
       -0.06660832 -0.07135434 -0.011699432 -0.09974121
000050 39 a6 c3 bd 63 90 c6 3d 70 70 3a 3c cb f2 92 ba
       -0.09553189 0.09695508 0.011379346 -0.0011211274
000060 a1 e8 82 3d a1 05 de bc 90 ff 93 3c a7 c2 c3 3d
       0.06392027 -0.027102293 0.018066198 0.09558611
000070 fd 42 8a bd 4b e4 2a 3d 4e 98 cf 3d f2 5c a8 bc
       -0.06751058 0.041721623 0.10136472 -0.020552132
000080 08 79 dc 3d ed 27 13 bd 7b 06 75 bd 80 23 54 3c
       0.107652724 -0.035926748 -0.059820633 0.012947917
000090 38 64 b8 bc 42 7f 31 bd a8 4d ed bc ee 70 aa 3c
       -0.022508726 -0.043334253 -0.028967693 0.020805802
0000a0 7d 5e 9c bd ad a1 ab bd 3c f8 cb bd f2 60 b2 3d
       -0.0763521 -0.083804466 -0.09959456 0.08709897
0000b0 c9 39 ef bc 88 b1 46 3d e8 ad eb bd 32 00 a1 3b
       -0.029202359 0.04850915 -0.11507779 0.0049133534
0000c0 b0 f3 bd bd 41 2a 3b bc 9f a2 6a 3d bf f4 a2 3d
       -0.09274995 -0.011423648 0.057283994 0.07956838
0000d0 91 ec ba bc 13 30 97 bd 3c 65 27 be cc de 96 bd
       -0.022817882 -0.07382216 -0.16347212 -0.07366714
0000e0 03 84 26 3d c4 d7 67 bd e6 99 db 3d 8a da 51 bd
       0.04065324 -0.056602255 0.10722713 -0.051233806
0000f0 99 81 03 3e 51 57 b0 bc 61 a7 05 bc 4e 64 ae 3d
       0.12842406 -0.02152601 -0.008157582 0.08515225
000100 1a d8 97 3d da 25 ac 3d a5 52 c1 3d b6 8c f3 bd
       0.07414265 0.08405657 0.09439591 -0.11892073
000110 8d 8c a8 3d b5 b6 de bc f3 26 d1 3d 6a a2 ae 3d
       0.08229933 -0.02718673 0.10212507 0.08527072
000120 46 86 6f bc 70 3c 17 3d d4 e5 0d 3c f0 e0 03 3d
       -0.014619416 0.036922872 0.008660752 0.03219694
000130 7e 1f 94 3d da 24 4b 3d 6d 54 01 bd c7 e1 a8 3c
       0.07232569 0.04959569 -0.031574655 0.020615472
000140 bd 07 4c bc 67 86 d0 bd 7a b4 8a 3d d3 46 1b bd
       -0.012453017 -0.10181885 0.067727044 -0.03790934
000150 b8 7a ae 3d 68 78 e4 3d 62 e2 2b 3a 61 31 ad 3d
       0.085195005 0.11155778 0.0006556866 0.08456684
000160 0e b1 a0 bb 9f a3 8d 3d 70 66 82 3d 4f 43 96 bd
       -0.004903919 0.06915974 0.06367195 -0.07337057
000170 2f f3 d9 bd 51 6b 06 bd 50 10 17 3d ac 32 54 bd
       -0.10642087 -0.03281719 0.03688079 -0.051806137
000180 31 67 15 bd ef 16 9b 3d a3 57 ec 3d 72 ae 50 3d
       -0.036475364 0.075727336 0.11540153 0.050947614
000190 21 97 18 3c 78 d4 8f 3d 51 34 40 3c 7a e6 cb bd
       0.009313376 0.07022947 0.011731223 -0.09956069
0001a0 cc d0 0c be a7 bc d8 bd 40 46 e5 bd ac a7 a8 3d
       -0.13751525 -0.105828576 -0.1119504 0.08235106
0001b0 8b 80 a4 bc 04 ca ab bd 6b ab f1 3b a5 e8 26 bd
       -0.020080825 -0.08388141 0.007375171 -0.04074921
0001c0 47 68 35 bd 70 84 0f be 67 1b 7a 3c 4d b9 a8 3b
       -0.0442889 -0.14015365 0.015265322 0.0051490427
0001d0 65 1d b3 bc 31 ff 84 bd 2e cb 5f bd 1c c9 c0 3d
       -0.021864602 -0.064939864 -0.054637127 0.094133586
0001e0 8b 0d cf bd 40 33 19 bd 9a 10 fe bc 89 67 c3 3d
       -0.10110005 -0.03740239 -0.031013776 0.09541232
0001f0 e0 53 d9 3a ec 10 9d 3d b6 1d 8c bc 25 6b 1f bd
       0.0016580783 0.07669243 -0.017104011 -0.03892054
000200 66 38 01 3d 3f ab 61 bd 3d c9 ca 3d 0e d9 d3 3d
       0.031547926 -0.055094954 0.099016644 0.10344134
000210 dd 2f c3 3d 48 ab f1 3d 40 68 e5 bd 63 d7 df 3d
       0.095306136 0.118002474 -0.11201525 0.10929754
000220 a4 cb af bd 59 81 d4 3d d5 9d 84 3c c1 9d d1 3c
       -0.08583763 0.103762336 0.016188541 0.025587918
000230 ad bd 17 3d 20 7e 11 be cd 49 fb 3d a9 14 54 3c
       0.037046123 -0.14208269 0.12269936 0.012944379
000240 b1 08 f7 3d 7f 9f 72 3c c9 01 e5 bc 63 ec 72 3d
       0.12062205 0.014808535 -0.027954953 0.059307467
000250 c1 e9 15 3d 66 07 b4 bd 5b c7 a4 bb 65 13 19 be
       0.03659988 -0.08790474 -0.005028648 -0.14948805
000260 5b 35 82 bd 25 03 da bd 60 d8 6c bc 2e 5e b7 bd
       -0.06357833 -0.10645131 -0.014455885 -0.0895351
000270 86 b1 7f bc e6 4c aa bd 3a 32 db bd 4b 11 86 bc
       -0.01560629 -0.083154485 -0.10702939 -0.016365668
000280 e1 f9 14 bc c3 23 91 3d 4a 53 98 bd 0f 63 be 3d
       -0.009092779 0.07086899 -0.07437761 0.09296238
000290 4f 4f cf bd c3 e5 03 3d ca 0b e9 bd 78 2a e5 3d
       -0.10122549 0.03220154 -0.11379202 0.11189741
0002a0 3c 5f 0e bd cb 57 7d 3d 5c 82 ea bc fa ab 5b bd
       -0.03475879 0.061851304 -0.028626613 -0.053630807
0002b0 fd ac 4a bd 64 d8 67 bd d3 60 c0 3d 4e c0 a4 3d
       -0.04948138 -0.05660285 0.09393468 0.08044492
0002c0 e5 22 a3 3d e8 d2 56 3c 8c d9 8c bd b7 0b 79 bd
       0.0796564 0.013111807 -0.06877431 -0.060802188
0002d0 1d 15 18 bc 85 dc e3 3c 89 0c 81 b9 4f f0 44 bd
       -0.009282378 0.027815113 -0.00024614137 -0.04808074
0002e0 53 d6 9c 3c b7 54 bf 3b 9f 4f e3 bd be a0 e2 bc
       0.019145167 0.005838956 -0.11099171 -0.027664538
0002f0 e6 36 f7 bc af e7 06 be 21 a4 cc 3c de 91 6b 3d
       -0.030177545 -0.13174318 0.024980607 0.057512157
000300 7f e2 74 bd 36 5b 80 bc a5 23 10 3c 3f 63 b1 3c
       -0.059786316 -0.015668493 0.008797561 0.02165377
000310 ee 1a 7e bd e5 64 90 3c e0 6d 84 3d 02 c3 18 bd
       -0.0620374 0.017626235 0.064662695 -0.03729535
000320 5d e8 0e bd 18 e4 e8 bd 3e 1c 8c bd c4 8f da bc
       -0.034889568 -0.113716304 -0.06841324 -0.02667988
000330 4c 8f 4a bd 1a b1 e6 3d 7c 3d ad 3a 16 71 da bd
       -0.049453065 0.11264248 0.0013217176 -0.10666101
000340 9e eb e8 3d d6 13 b7 bd 13 ce d2 3d 32 ba 9b bc
       0.113730654 -0.0893933 0.10293212 -0.019009683
000350 7d 45 b4 3c a8 5f 13 be 6e 2a f0 3d 2d 9d fb bb
       0.02200579 -0.14391959 0.11726843 -0.007678649
000360 f6 e9 7f bd 22 10 ba bd 9b db 08 3d 33 9c ea bd
       -0.062478982 -0.09085108 0.033412557 -0.11455574
000370 ea a8 db 3d d7 9f ac 3d de 34 ca 3d f9 d7 0a 3e
       0.10725577 0.084289245 0.09873365 0.1355895
000380 1a 1c 3a bd 53 73 2e bd 3f d9 8b 3d 34 4a 9d 3d
       -0.045436956 -0.04259045 0.06828546 0.07680169
000390 d3 bc 17 3e f8 78 00 bd 8a da 85 3c 66 e5 91 3a
       0.14818124 -0.031365365 0.01633956 0.0011130988
0003a0 16 86 0b 3d 05 47 47 bd dc 37 ce 3d 38 f5 20 bd
       0.03406342 -0.048651714 0.10069248 -0.03929636
0003b0 af 44 43 3d 70 20 a6 3d 33 d6 08 be a4 78 b7 3c
       0.047672924 0.08111656 -0.1336296 0.022396393
0003c0 05 3e a4 bd e7 ec 76 3d d7 6d c9 3d d9 f9 09 39
       -0.08019642 0.06028452 0.098354034 0.00013158414
0003d0 7c ad aa bd df 48 3a bd 72 dd 86 3d 62 9e 57 bc
       -0.08333871 -0.04547965 0.06585206 -0.01316032
0003e0 fa 59 af bd 09 1c 00 3e 4e fa e4 3d f4 27 99 3c
       -0.085620835 0.12510695 0.11180554 0.018695809
0003f0 95 7d 70 bc 1e e0 89 3a 36 e9 f8 3d 4e 21 95 3d
       -0.014678379 0.0010519063 0.121538565 0.07281743

bias f4 [64]
000000 b6 d9 db 3c 33 17 de 3c dc bf c5 bd d1 b0 a1 3b
       0.026837211 0.027110672 -0.09655735 0.0049344082
000010 cf 12 e2 3c ff cb d5 bd ee 5e 0d 3d 9a 69 e3 3c
       0.02759686 -0.104393 0.03451436 0.027760316
000020 a1 5a c0 3b 84 a8 a1 bd c9 8d a0 3d bf dc c7 bd
       0.005870179 -0.0789347 0.07839543 -0.09758901
000030 14 00 dd 3d 5b d7 83 ba 54 70 2c bd fd 2f b1 bd
       0.107910305 -0.0010058688 -0.042099312 -0.08651731
000040 ec cd db 3d 79 b3 d2 3d c2 d3 a3 bd 37 ea ab bc
       0.10732636 0.10288138 -0.07999374 -0.020985706
000050 d2 74 b8 bd 94 a1 67 bd 07 4f 36 3b 4f 3d e3 3d
       -0.09006657 -0.056550577 0.00278181 0.11095678
000060 4f 14 b4 3c 13 7e d6 3d 27 37 df bd c2 e9 39 bd
       0.02198234 0.104732655 -0.10899191 -0.045388944
000070 c1 e9 bc 3b aa 5d 8d bd 11 d8 af bb f0 70 16 39
       0.0057651703 -0.069026306 -0.0053663333 0.00014347187
000080 1c 77 aa 3d ca dc 28 bd be e2 da bc 4f 79 93 3d
       0.083234996 -0.041226186 -0.026719447 0.07200872
000090 24 cd 3c bd 5f ee 90 3d 3a 9d c4 3d 45 21 93 bd
       -0.046094075 0.07076716 0.09600301 -0.0718408
0000a0 4b 24 43 3d 94 d9 14 bd e6 69 e7 3d 34 a0 39 bc
       0.047642034 -0.03634031 0.112994954 -0.011329699
0000b0 23 67 c8 bc 77 31 c3 3d 54 db ab 3c 63 37 bb 3d
       -0.024463242 0.09530919 0.020978607 0.091414236
0000c0 ad 66 08 bd 5e 44 b7 bd fb d0 c2 3c 26 33 c6 3d
       -0.033301044 -0.08948587 0.02378129 0.096777245
0000d0 92 cb b3 3d 15 f1 50 bd da 1a 11 3e 01 7e 29 bd
       0.08779062 -0.051011164 0.141704 -0.041379932
0000e0 c3 32 ef 3d 83 03 75 bc dc 46 74 bd 06 37 dd 3c
       0.11679604 -0.014954451 -0.05963789 0.027003776
0000f0 c0 96 f6 3d ed e3 ce 3d 0b 26 ad bd f6 37 86 3d
       0.12040472 0.10102067 -0.08454522 0.065536425

weight f4 [8, 64]
000000 ae d8 20 3d b1 e5 39 bc 5d 31 3d 3c ee 79 cd 3d
       0.03926914 -0.011346267 0.011547414 0.10033022
000010 f1 f2 24 bc 1d 06 89 3d 70 7f ab bd c2 49 50 bd
       -0.010067687 0.06690619 -0.08373916 -0.05085159
000020 17 e6 39 3c 33 1d 93 bd a5 e4 aa bd 16 fd ec ba
       0.011346362 -0.07183304 -0.08344392 -0.0018080797
000030 c4 bc 74 bd 16 14 1a 3d 03 a1 51 3d be a6 93 bd
       -0.059750333 0.03761681 0.051178943 -0.07209538
000040 ae 55 9d 3d 0c fb 9d 3d 60 ed b4 3d c1 a6 a2 bd
       0.07682358 0.07713899 0.08834338 -0.07941962
000050 d7 8c 93 bd 4d 72 15 bc dd f4 5d 3d 83 15 34 3d
       -0.072045974 -0.00912149 0.054188598 0.043965828
000060 60 4d 7d bd d3 ac c7 3d d3 5a e5 3d e8 e9 34 bc
       -0.06184137 0.097497605 0.11198964 -0.011042096
000070 d6 5b c2 3b 1f 28 80 3c 46 b8 b5 bd 7d c5 00 be
       0.005931358 0.015644131 -0.08873038 -0.12575336
000080 70 3f 82 3d fa f2 a5 3d 95 4d 43 3c aa 7c 95 bd
       0.06359756 0.08102985 0.0119203525 -0.072991684
000090 e6 66 19 3c f8 05 5b bd bb c2 85 3d e3 04 e0 3d
       0.009362912 -0.05347249 0.065312825 0.10938432
0000a0 75 b7 04 3e 8c 4b 85 3d 9e f6 56 3d 8f 2b 06 3e
       0.12960608 0.0650855 0.052481286 0.13102554
0000b0 95 de 8a bc 3a e3 39 3c c4 95 85 bd 71 7e 6f 3d
       -0.016951839 0.011345679 -0.06522706 0.058470193
0000c0 9d b8 67 3d 99 fc 22 3d 50 b1 52 3d 08 09 07 3e
       0.056572545 0.039791677 0.05143863 0.13187039
0000d0 44 37 d7 bd fe 4b b5 bc e7 36 b6 bd a3 9c c9 3d
       -0.10508588 -0.022130962 -0.088971905 0.09844329
0000e0 54 20 05 3c 7b 51 d9 bd 33 c1 39 3d a5 23 65 bd
       0.008125383 -0.10611244 0.045350265 -0.055942196
0000f0 1d 6b a1 3b 24 44 63 3d 28 a2 6b 3d 82 0d c0 3d
       0.004926099 0.055484906 0.05752769 0.093775764
000100 c9 44 f1 bc ba ac a5 3a 79 09 2a bc 06 97 e5 bd
       -0.029451745 0.0012639978 -0.010378235 -0.11210446
000110 30 2f 64 bd bd be 87 3d 95 d5 95 3d 8b 87 d7 bd
       -0.055709064 0.06628177 0.07316128 -0.105239
000120 89 9a 5a 3d 47 d3 ea 3d 0c e0 b2 bd 4d 05 ba bc
       0.053370032 0.11466079 -0.0873414 -0.022707606
000130 f3 bb 7b bd 89 cd 88 3c 55 47 80 bd f8 a9 e2 3d
       -0.06145854 0.01669957 -0.062636055 0.11067575
000140 63 20 b7 3d af 97 d3 bc ef 8b e5 bd 2e d3 82 bd
       0.08941724 -0.025829164 -0.11208331 -0.063879356
000150 d3 a7 cc bc f8 0b 8f 3c 2e 34 81 bd 16 ea 55 bd
       -0.024982369 0.017461762 -0.063087806 -0.052225195
000160 c4 93 44 bd 6c 79 b0 bd 1f 27 2a bc 1b 8c f6 bd
       -0.047992483 -0.086169094 -0.010385304 -0.12038442
000170 48 21 14 bd 7b d3 da bd d6 b6 06 bd ac d9 65 3c
       -0.036164552 -0.10684868 -0.03288921 0.014028948
000180 4f eb fd bc 25 b7 93 bd ad 9c 57 3c ac 2d f2 bc
       -0.030995993 -0.072126664 0.013159913 -0.029562794
000190 69 5b cf bb 6a 89 d6 3c 15 cb 4b bc e7 f6 e0 bd
       -0.0063280356 0.026188571 -0.012438555 -0.10984593
0001a0 e0 c2 1f bd e4 64 cd bb 89 c3 55 3d 2a 66 d4 bd
       -0.039004207 -0.0062681306 0.05218843 -0.10371049
0001b0 2a 5e a1 3d 59 20 0c 3d e8 1a 21 3c bd 0b 99 3c
       0.078792885 0.034210537 0.009833075 0.018682355
0001c0 05 97 94 bc bc 96 2b 3c dc be a3 3d f8 09 2d bc
       -0.018138418 0.01047295 0.07995388 -0.010561459
0001d0 3c db 80 3d 33 26 96 3d 18 64 5f 3d a4 e4 0d bc
       0.06291816 0.07331505 0.054538816 -0.008660469
0001e0 a8 85 92 3d 3b 9d 6f 3c 1b 39 68 3d 62 8a fb bc
       0.07154399 0.014624889 0.056695085 -0.030705635
0001f0 88 bb 46 3b dd 57 05 3d 48 bc ed bd a4 9f 72 3c
       0.003032418 0.032554496 -0.116081774 0.014808569
000200 f3 92 c5 bd d5 5a 9e 3d 4f 4e e1 bc 9a b0 0a 3d
       -0.09647169 0.077321686 -0.02750316 0.033859827
000210 97 6c e2 bd 64 c5 a3 3d a0 49 c2 3d 8a 5c 9d bb
       -0.11055868 0.07996634 0.09486699 -0.0048022913
000220 40 62 2d 3c 35 9b 81 bd e1 90 c6 3d bf f5 05 3d
       0.010582507 -0.063284315 0.09695602 0.032705065
000230 13 f1 f3 bd 41 4d 06 3c d4 3e fb 3c 85 fc 87 3d
       -0.11911216 0.00819713 0.030669607 0.06639961
000240 02 be 58 3d 13 e5 d1 3d 5d 33 d1 3c db 20 00 bd
       0.05291558 0.102487706 0.025537187 -0.031281333
000250 5f 55 bc 3c ea d4 48 3d a6 2d bd bd 22 fa f7 3d
       0.022989927 0.049031176 -0.092372224 0.12108256
000260 5c d0 8b bd d1 1e 58 3d 20 81 8e bd 6a 3c 21 bd
       -0.06826851 0.052763764 -0.069582224 -0.039364256
000270 1a 53 23 3b 73 5a d9 3c e1 29 ac bd 95 30 f6 bd
       0.0024921359 0.026532387 -0.08406425 -0.12020985
000280 e1 ed d4 bd 8d 3c ff 3d db d2 79 3d a6 04 35 bd
       -0.10396934 0.12462721 0.060992103 -0.044193886
000290 8d 0b ad 3d 3d 89 8c bc 48 4c 7f ba 9f ed c2 bd
       0.08449469 -0.017155284 -0.0009738845 -0.09517979
0002a0 3d 0d c1 bd 54 ab ae 3d 53 ee f8 3d fc d4 cf bd
       -0.09426353 0.08528772 0.12154832 -0.101480454
0002b0 f3 7b f6 3c 7d 40 08 3d 16 36 d9 bd 43 04 a0 bd
       0.0300884 0.033264626 -0.10606019 -0.07813313
0002c0 f8 15 c1 bd 23 54 2e bb 55 66 f8 3d 7d f3 5e 3d
       -0.09428018 -0.0026600442 0.12128893 0.054431427
0002d0 6d 6c 0e bd 31 c0 5b 3d 1e 8d cd bd 39 83 f7 bc
       -0.03477137 0.053650085 -0.100366816 -0.030213939
0002e0 5a 6e 69 3d ff 88 07 3e 98 e9 05 3d ad d4 6c bc
       0.056990005 0.13235854 0.032693475 -0.014455003
0002f0 a5 da 18 3b 10 c6 04 be cf 45 9e 3d 41 77 91 bd
       0.0023323682 -0.1296618 0.07728159 -0.07102824
000300 4d 78 5d bd 9f 0f 80 bd 84 34 12 3d 8d dc 3e bc
       -0.054069806 -0.062529795 0.035694614 -0.011649263
000310 db 60 97 3c 49 76 a5 bd 9b ce 11 3d c7 ac dc bd
       0.018478801 -0.08079202 0.035597425 -0.10775142
000320 1d ae c9 bd 2c 2d 08 be 76 1d 9c 3d a4 ae 9f 3d
       -0.098476626 -0.13298482 0.07622807 0.07796982
000330 2f 6b a5 bd 48 73 fa bc 32 a6 ab 3d f4 ca 11 3d
       -0.08077084 -0.030572549 0.083813086 0.03559394
000340 0d d3 ee 3d e1 66 ad bb cc e6 76 3b 26 31 d3 3d
       0.116613485 -0.005291805 0.0037674187 0.10312109
000350 d7 44 bf 3b 59 7f d6 bd 3a 11 15 bd 81 82 a2 3d
       0.005837064 -0.104735084 -0.03639338 0.07935048
000360 e1 01 1d 3d 2a 7f 0a 3c fd e6 db bd 97 ae b9 3d
       0.03833187 0.00845317 -0.10737417 0.090665035
000370 33 ed 4c bc 47 5e a1 bc f0 8c 0a 3e 05 e4 56 3d
       -0.012507725 -0.019698275 0.13530326 0.05246355
000380 24 ff bd 3b bb 31 5d 3d aa fd a5 3c 62 50 01 3c
       0.0057982374 0.054002505 0.020262558 0.0078927
000390 50 82 61 bd 10 ce 82 3c 68 a6 4e 3d 3b 02 c3 3d
       -0.055055916 0.015967399 0.050451666 0.0952191
0003a0 29 fc af bd ea f0 06 3d e4 50 01 bd 70 9d 29 bd
       -0.085930176 0.032944597 -0.031571284 -0.04140991
0003b0 e5 57 08 3d e6 07 70 3d 47 ff 97 3b c7 f7 96 bd
       0.033286948 0.058601283 0.0046385857 -0.073714785
0003c0 c3 80 da 3d 49 79 a8 bd d2 cb 5d 3d be 96 07 bc
       0.106690906 -0.08226258 0.054149456 -0.008275686
0003d0 86 fb d6 b8 d1 da 06 3d 78 35 12 be 3f a0 f0 3c
       -0.00010251165 0.032923523 -0.14278209 0.029373286
0003e0 b5 4f 03 bc f9 e1 c8 bd 91 40 bb 3d 2e a3 26 3d
       -0.008014609 -0.09808726 0.091431744 0.040682964
0003f0 a7 49 27 bd 62 58 37 ba f2 c8 c4 3d 2c 1a 38 bd
       -0.040841725 -0.0006994066 0.0960864 -0.044946834

bias f4 [8]
000000 fa fd d2 bd 33 c9 74 bd 93 4b ba 3d 98 6a a3 3d
       -0.103023484 -0.05976219 0.09096446 0.079793155
000010 ef c0 85 bd 9c 98 4d 3d 66 59 6c bc b4 3d 37 3d
       -0.0653094 0.050194368 -0.014425611 0.04473658

weight f4 [64, 111]
000000 57 78 2e be 90 20 2f 3e 18 de fe 3b 01 24 c2 bd
       -0.17038094 0.17102265 0.0077779405 -0.094795235
000010 cc 78 ea be 6e bb 63 3c 7c 95 ff be fd e1 63 be
       -0.45795286 0.013899667 -0.49918735 -0.22254176
000020 eb d0 e2 3e 5e de e6 bd c1 09 bf 3e 96 5b 37 3f
       0.44300017 -0.11272882 0.3731213 0.71624124
000030 87 ed bd be 72 cf 62 be 3a 58 c9 3d f1 56 ad bf
       -0.3709528 -0.22149447 0.09831281 -1.3542157
000040 5b 86 56 3e e4 30 0f 3e 69 12 3b 3e b9 76 ef bc
       0.2094969 0.13983494 0.18268742 -0.029231416
000050 c8 87 da bd 61 bc 2d bd 56 ae 97 bd 23 08 21 bd
       -0.106704295 -0.04241598 -0.07406299 -0.0393144
000060 68 62 62 3d 1e d2 3e 3c 0a 2d 11 3b 09 24 a1 3d
       0.05526963 0.0116467755 0.002215209 0.07868201
000070 f4 dd 84 bd a2 8f 7f 3d 2b af b9 3d 36 98 18 bd
       -0.06487647 0.06239284 0.09066614 -0.037254535
000080 ce de 16 3d dd 3f c1 bd fb 0b 9e 3d ad 35 4d bd
       0.036833577 -0.09436009 0.07717129 -0.050100017
000090 01 72 a8 bd 81 43 70 bd e0 74 bd bd 37 ee ac 3d
       -0.082248695 -0.058658127 -0.09250808 0.084438734
0000a0 ea 0f b0 bd 1f f6 a4 bd d8 8c eb 3c 36 da 5d 3d
       -0.08596785 -0.080547564 0.028753683 0.05416318
0000b0 88 11 35 bd f2 f3 3a 3d 58 84 29 bc 32 34 88 bd
       -0.044206172 0.0456428 -0.010346495 -0.066505805
0000c0 02 17 2f 3d b6 52 44 3d 6c c1 b2 bd a6 94 a8 bd
       0.04274655 0.04793044 -0.087282985 -0.082314774
0000d0 d0 20 34 bc ed 17 98 bd 89 c1 93 bd 98 e8 72 3c
       -0.010994151 -0.074264385 -0.07214648 0.0148259625
0000e0 00 60 ea 3b 16 79 0c 3d 2e 2c 67 bd da c8 31 bd
       0.0071525574 0.034295164 -0.056438617 -0.043404438
0000f0 64 1a bc bd 5e 22 53 3d a2 e2 a8 bd a8 26 91 3c
       -0.09184721 0.051546447 -0.08246352 0.017718628
000100 c3 30 91 3d 56 b4 18 3d 12 80 61 3d 61 7d a3 3d
       0.07089379 0.037281357 0.055053778 0.079828985
000110 80 f5 5c 3a 3e 6f 1a bd 00 89 75 3a 1d 8c 9b bd
       0.00084289163 -0.037703745 0.0009366423 -0.07595084
000120 0c c2 74 bd fa 40 49 3d 3d 96 82 3d 5e 4f 29 3d
       -0.05975537 0.049134232 0.06376312 0.041335456
000130 55 18 a7 bd 0a f4 84 bd 61 55 9f 3d 90 d7 ba 3b
       -0.08158938 -0.06491859 0.077799566 0.0057019666
000140 5e e5 8d bd a0 5d 98 3c fe 29 58 3d f6 96 58 3d
       -0.06928514 0.018599331 0.052774422 0.052878343
000150 61 fb 85 3d 49 e6 2d bd be 26 5d 3d c4 d4 89 bd
       0.06542087 -0.042455945 0.053992026 -0.06730035
000160 8e 62 46 3d 57 cd 94 bd 80 e3 2f 3a 09 c1 ad 3d
       0.048433833 -0.07265728 0.00067096204 0.08484084
000170 73 62 8d 3d e6 df 30 3d 30 e2 d2 3b 16 a6 56 3d
       0.06903543 0.043182276 0.006435655 0.052404486
000180 c0 0f 89 3a cf ef 9e 3d 2a d8 58 3d db d0 bf 3d
       0.0010456964 0.077605836 0.052940525 0.09366008
000190 c0 3d fd bc 1a fb 4b 3d 4f 95 8f 3d ba 07 3d 3d
       -0.030913234 0.049800016 0.070109 0.046149947
0001a0 6c 36 5b bd da 13 0f 3d 4f 1a 40 bd dd 72 aa bd
       -0.053518698 0.03493104 -0.04690009 -0.0832269
0001b0 1f e7 a7 3d 86 3f b7 bd fd ff aa 3d ba 38 41 be
       0.0819838 -0.08947663 0.08349607 -0.18869296
0001c0 df b5 32 bf a0 56 fa 3d f8 27 b8 3e 83 cb 9b 3e
       -0.69808763 0.12223554 0.35967994 0.30428705
0001d0 5c 8e b0 bd 75 70 4f be 34 73 44 bf a4 18 b5 3e
       -0.08620903 -0.20257743 -0.76738286 0.35370362
0001e0 b7 29 bd bd 75 c9 1c 3e e6 36 8b 3e 88 83 8f be
       -0.09236472 0.15311225 0.27190322 -0.28030038
0001f0 d6 29 31 bf 75 46 29 3f 19 f3 1a 3f 47 9d 1e 3f
       -0.6920446 0.66123134 0.6052719 0.61958736
000200 96 57 21 3e a3 a9 3d 3e 67 51 e4 bd 90 87 3c 3e
       0.15756068 0.18521743 -0.11148339 0.18411088
000210 6e 48 6d 3e b0 3e 2d bb b2 31 4d bd a4 f5 4f 3d
       0.23172161 -0.002643507 -0.05009622 0.05077137
000220 aa 46 ab 3d d7 28 69 3e 2c fd b6 3c f1 0a 9a 3d
       0.083630875 0.22769485 0.022337519 0.07521618
000230 df 0c 9d 3d 95 aa a2 bd c2 c4 0e 3d 30 77 bd bb
       0.076684706 -0.07942692 0.03485561 -0.0057820305
000240 a2 6c 2a 3d b1 9b 3b bd ca d8 13 bd e1 d6 94 3d
       0.041607507 -0.045802776 -0.036095418 0.072675474
000250 8e bd 7d 3d 28 64 f0 3c 81 39 a5 3d 62 c2 8a bd
       0.06194835 0.029344633 0.080676086 -0.06775357
000260 99 d6 ad 3d 3e 37 bb bd 7e 6b 3d 3d 06 0a 4c 3d
       0.08488197 -0.09141396 0.04624509 0.049814247
000270 df ed 8c 3d 1a 91 67 3d 09 35 85 3d 6b b6 9b 3d
       0.06881308 0.056534864 0.06504256 0.07603153
000280 9b 6b b1 bd d9 cf ab 3d dd 5d 10 bd 98 1e ed 3c
       -0.08663102 0.08389253 -0.035245765 0.028945252
000290 3b 2f aa bd 5c 26 b8 bd 1f 0b 8a 3d 18 a0 b5 bd
       -0.0830979 -0.089916915 0.067404024 -0.08868426
0002a0 ec 8d f4 3c 63 f9 90 3d 69 50 86 3d d5 49 5a bd
       0.02985283 0.07078817 0.06558306 -0.053293068
0002b0 b8 27 01 3c e9 5d 88 3d 44 5a b9 bd 80 a1 43 bc
       0.007883005 0.06658537 -0.0905042 -0.01194036
0002c0 59 e4 a2 bd c2 62 b0 bd 0e b9 3b bd 6e e3 24 bd
       -0.0795371 -0.086125866 -0.04583078 -0.040255956
0002d0 35 14 c2 3d 80 e7 a8 3a 5a 80 11 bd 80 df d2 3a
       0.094765104 0.0012886375 -0.035522796 0.0016088337
0002e0 22 c2 2f 3d 17 3e b5 3d f8 c6 0c 3c 95 36 95 3d
       0.04290975 0.08849733 0.00859236 0.07285801
0002f0 10 35 00 3c 56 b4 79 3d 5a e1 ad bd 8b 9e 98 3d
       0.007825151 0.060962997 -0.08490248 0.07452115
000300 1c 47 06 bd 7d 1f 24 bd 92 89 82 bd 8e 12 21 3d
       -0.03278266 -0.040069092 -0.06373896 0.039324336
000310 e3 5e aa 3d 3a 8f 45 3d fa b2 4c 3d e9 30 3b bd
       0.083188795 0.048232295 0.049975373 -0.04570094
000320 61 7d 94 bd 00 7b e7 3a 54 13 f0 bc 6e dd 5b 3d
       -0.07250477 0.0017660558 -0.029306091 0.05367797
000330 c8 95 d8 3c f8 af 07 bc ae c7 8d bd 02 1a 39 3d
       0.026438609 -0.0082817 -0.069228515 0.04519082
000340 97 4b 18 bd c0 14 c7 3b 8c 6d c5 bc 21 dc af 3d
       -0.037181463 0.0060754716 -0.024100088 0.08586908
000350 22 e5 50 3d df 5e 4f bd a0 62 9a 3c 6e d6 18 bd
       0.050999768 -0.050627586 0.018845856 -0.03731387
000360 98 68 9d bc da 30 70 3d c0 64 c8 bb 20 99 b9 3b
       -0.019214913 0.05864034 -0.006115526 0.005664006
000370 51 50 a1 3d 20 a8 dd 3c bc 69 c9 be 6b 25 03 bf
       0.07876647 0.027057707 -0.3933848 -0.5122897
000380 fb 98 a6 3e 28 91 88 bd 4b 99 5d be 63 ca 1b bf
       0.3253859 -0.06668311 -0.21640508 -0.6085569
000390 66 3e ee be 80 0a 8c bd d3 13 9e 3e eb 81 05 3f
       -0.4653198 -0.0683794 0.308745 0.52151364
0003a0 db f7 31 3e 78 e0 86 be a3 2f 6f be 68 df 84 bd
       0.17379706 -0.2634313 -0.23358016 -0.06487924
0003b0 22 1c d1 3e f3 6f 68 bf cc 03 b1 bd d4 1e 32 3f
       0.40841776 -0.9079582 -0.08643302 0.6957829
0003c0 20 84 82 3e bd e1 94 be 69 b4 15 3d 1c 5a 52 bd
       0.25491428 -0.29078475 0.036549006 -0.051355466
0003d0 2b 69 bb be 1b e3 a3 3d de 58 99 bd 39 cc 79 bd
       -0.36603674 0.08002301 -0.07487653 -0.060985778
0003e0 39 b9 9d be 0d 9c 84 3d 5f 32 3c bd 07 ef af 3d
       -0.30805376 0.06475077 -0.045946475 0.08590513
0003f0 9a 31 3f 3d 7c b4 c0 bc 28 8f dc bc b7 3d c1 3d
       0.046678163 -0.023523562 -0.026923731 0.09435599

bias f4 [64]
000000 cb 48 57 bf e0 1f 49 3e 03 39 56 be 87 79 00 3e
       -0.8409545 0.19641066 -0.20920186 0.12546359
000010 ca 40 c0 bd a8 57 29 bf 6d 9a 29 3f 1e 1c 1d bf
       -0.093873575 -0.6614938 0.6625126 -0.6137103
000020 ee 03 49 be 7d ef 8b be a4 72 ac be 51 a7 a1 bd
       -0.19630405 -0.27331153 -0.33681214 -0.07893241
000030 1c 17 82 be 31 d7 fc 3e 55 b0 af 3e d1 1c 91 bd
       -0.25408256 0.49382928 0.34314218 -0.070855744
000040 06 a7 3c bf f9 34 4c bf 7d e3 87 be 25 0f 45 3f
       -0.7369236 -0.7976833 -0.26540747 0.76976234
000050 22 f8 d2 3d 74 c7 02 3f 29 a2 8f 3e b1 22 94 bc
       0.10301234 0.5108559 0.28053406 -0.018082948
000060 da 2e 02 be 11 c3 c0 3e 01 13 c0 3e 45 4d 3b bf
       -0.12713185 0.37648824 0.375145 -0.7316478
000070 95 72 6d bd 16 5e 03 3e 0f f2 32 bd 35 96 c0 3e
       -0.057970602 0.1282886 -0.043687876 0.376146
000080 d2 cb 02 bd 29 d4 f0 3e 7b 28 23 be 70 d5 27 be
       -0.03193266 0.47036865 -0.15933411 -0.16390014
000090 79 88 37 3f 7e 39 27 bf 23 b1 23 3f 72 81 de be
       0.71692616 -0.653221 0.63942164 -0.43458134
0000a0 8a 16 ab 3e 50 b0 ad 3d 53 8d 7a 3e 36 46 52 bd
       0.33415633 0.084808946 0.24467973 -0.05133649
0000b0 a6 1e 44 3f 37 7e 96 be bf 45 7b be 3b ed d7 3e
       0.76609266 -0.2939317 -0.24538325 0.4217318
0000c0 3d c8 4d 3f b1 2c 27 bf 64 9a b6 be 15 cf 84 be
       0.80383664 -0.6530257 -0.35664666 -0.2593924
0000d0 e3 32 40 3f 34 7e 99 bd 07 fd 3b be ec 86 18 3f
       0.75077647 -0.074947745 -0.18358241 0.59580874
0000e0 4e 3f 40 3e ed 8e 35 bf 59 02 20 3f 4d 4c 46 3d
       0.18774149 -0.7092121 0.6250358 0.04841261
0000f0 99 f1 2f be d3 00 54 3f 43 85 a1 3e 4e 0e 27 be
       -0.17182006 0.8281376 0.31546983 -0.1631405

weight f4 [64, 64]
000000 c8 83 d9 3d 83 f3 93 bd 67 e3 1e bf 3e 02 e4 3e
       0.106208384 -0.072241805 -0.6206574 0.4453296
000010 c9 5b 62 3d d7 76 95 3f 50 4a 80 be 8d 9a 8b bd
       0.055263314 1.1676892 -0.25056696 -0.068165876
000020 8a c8 cc bd ea bf 21 3d 59 1b 12 bf d0 19 5b bd
       -0.09999187 0.039489664 -0.5707298 -0.053491414
000030 30 a6 25 3f e5 62 f7 3d 48 48 a4 3e cb 17 de 3d
       0.64706707 0.120794095 0.32086396 0.10844382
000040 9a 40 58 3f 32 a6 af 3f 97 dc 42 be d0 0b 53 bd
       0.84473574 1.3722594 -0.19029461 -0.051524937
000050 d9 4d cf be 54 0b cc 3d 01 a3 63 bd 5c 2d 0a 3e
       -0.4048908 0.09963098 -0.055575375 0.13493866
000060 a0 9a 93 bd 07 df 8d 3d 18 01 75 be 97 6d 47 be
       -0.07207227 0.06927305 -0.23926198 -0.19475399
000070 62 69 f9 3d bf 94 f8 3d dc 49 b9 bd 67 95 aa be
       0.12178303 0.12137746 -0.09047291 -0.3331711
000080 42 fc 96 3e 19 a5 13 be b4 2d 92 3d 30 96 51 bd
       0.29489332 -0.14418449 0.071376234 -0.05116862
000090 40 9a 5e bc 77 fe be 3e bf 17 c7 bf 76 0b e1 3d
       -0.013586581 0.37303516 -1.5554122 0.10988514
0000a0 92 bb 69 3e 75 22 1e bc d3 9d 84 3c ec fd 1e be
       0.22825459 -0.00965177 0.016188538 -0.15526551
0000b0 7c 9c 10 3f 82 cb 04 3f 20 f5 4a 3e 2e 71 df bd
       0.56488776 0.5187303 0.1982007 -0.10910259
0000c0 b5 3f 03 bf 47 18 e1 3d f9 1c 42 3e e2 c8 46 bd
       -0.51269084 0.10990959 0.18956365 -0.04853142
0000d0 ce 94 81 bf 97 ea 26 bd 42 a4 d4 3d 0b 5e 1a bd
       -1.0123537 -0.040751066 0.10382892 -0.037687343
0000e0 24 11 0a bd 48 2c bc 3e cb e3 12 3e e9 dc a1 3d
       -0.033707753 0.36752534 0.14344709 0.079034634
0000f0 87 df 70 3e 2c 4b 16 bf ef d2 e8 3b 20 ea a8 bd
       0.23522769 -0.58708453 0.0071052234 -0.08247781
000100 1c b3 47 3f 5b cb 6b 3e dd 79 50 3e cc 6a f7 bc
       0.78007674 0.23026793 0.20358987 -0.030202292
000110 12 f9 cb 3d c3 89 a3 bd e8 6c 3c be 42 f5 43 3f
       0.09959616 -0.0798526 -0.1840092 0.7654611
000120 c4 df 42 3d c9 79 b0 be e2 b5 88 3e d5 1d be 3d
       0.04757668 -0.34467915 0.26701266 0.09283034
000130 a9 32 bf be 18 e1 6a be 7f 95 c4 bd f1 c1 ca bd
       -0.37343338 -0.22937429 -0.095988266 -0.09900273
000140 cc b9 18 be 2f 7d e2 3e af 9c c9 be 0f 86 ba be
       -0.14914626 0.44236133 -0.39377353 -0.36430404
000150 d9 23 fe 3d c8 e9 86 be cd b2 f8 3e 97 d5 c5 be
       0.12409181 -0.26350236 0.48573914 -0.3863952
000160 3e 99 6c 3b b7 84 62 be eb 83 64 bf 21 e4 bb 3e
       0.0036102082 -0.22120939 -0.8926379 0.36697486
000170 a8 67 1b bf da 18 d4 bd a2 01 02 3f b4 b2 56 3d
       -0.6070504 -0.103563026 0.5078374 0.05241652
000180 c1 3e 43 be 28 9f 4a bf 5c ec 8f 3e f1 3c 8c bc
       -0.19066907 -0.79149103 0.28110015 -0.017118903
000190 59 98 0e bf 5e 4b 1d 3f 4b 1b 49 3e 4e eb b7 3e
       -0.55701214 0.61443126 0.19639318 0.3592171
0001a0 3f ef a9 3d cb 0d fa 3d 5e 79 0e be 89 95 78 be
       0.08297586 0.12209662 -0.13913485 -0.24275793
0001b0 9c 64 f3 be 41 98 5e be 54 a5 fb 3e a2 2a 5d 3e
       -0.47537696 -0.21737768 0.49149573 0.21598294
0001c0 8a f4 ad be 18 c7 33 3f 94 0b 23 bf 83 7b e2 3e
       -0.3397563 0.7022567 -0.6368954 0.44234857
0001d0 c4 cf b8 be 93 42 c1 3d e1 72 2d 3f 50 e1 d4 be
       -0.36096013 0.09436526 0.67753416 -0.4157815
0001e0 ac d3 93 bd dc 49 82 3c ea 83 33 be fc a1 ba be
       -0.072181076 0.01590436 -0.1753079 -0.3645171
0001f0 60 ca 50 3f cd 99 38 bf 86 80 3a 3d 34 e6 ab 3e
       0.815588 -0.7210968 0.045532726 0.3357407
000200 d4 7e c4 bd e0 45 05 bf 34 a5 3c 3f 4f 63 d6 be
       -0.09594503 -0.52059746 0.7368958 -0.4187264
000210 95 fd 04 bf 6e 9e 84 bf 3e 0a 88 3e d5 1e 17 be
       -0.51949435 -1.0360849 0.26570314 -0.14757855
000220 52 34 4c be c9 6b ce 3d 1b 3c 6c 3d d4 8e a5 3d
       -0.19941834 0.10079152 0.05767451 0.08083883
000230 cb 6c 6f bd 46 ff ec be 7a 09 17 bf 16 7b 46 3e
       -0.058453362 -0.46288508 -0.58998835 0.19382891
000240 67 7a 4b bf 21 b6 a1 bf af 28 3b be 17 58 20 3d
       -0.79483646 -1.2633706 -0.18277238 0.03914651
000250 39 6c f0 3e e7 20 02 3f a9 4a 62 3e 67 a1 02 bf
       0.46957567 0.50831455 0.22098793 -0.5102753
000260 9d d2 a3 be c8 7a 1d 3f 8e ca ec 3e da e7 95 3e
       -0.31996623 0.61515474 0.46248287 0.2927845
000270 d7 95 de be b7 99 5d be 86 7e 9c 3d f7 93 4b 3e
       -0.43473694 -0.21640669 0.0764132 0.19880663
000280 42 c1 b1 3e 39 61 d9 3d ba cd 69 be 97 93 27 3d
       0.34717757 0.10614247 -0.22832385 0.040912237
000290 29 ba 16 3f c4 35 a0 be 8f 62 92 3f 63 2b c9 be
       0.5887781 -0.3129102 1.1436328 -0.39290914
0002a0 bf 52 c2 3e c2 44 2c be 70 f8 ba be a1 30 8b bb
       0.37953755 -0.16823104 -0.36517668 -0.0042477404
0002b0 53 56 04 bf a9 4c bd be a8 8e d5 bd fa 4c f9 3d
       -0.5169422 -0.3697255 -0.104276 0.12172885
0002c0 73 88 1c 3f 26 1d d3 be 08 18 c9 be 6c 12 02 be
       0.61145705 -0.41233176 -0.39276147 -0.1270234
0002d0 01 f9 87 3f 8e 08 10 bd eb ef b1 be 81 f5 9d 3e
       1.0622865 -0.03516441 -0.34753355 0.30851367
0002e0 1c 7b cb 3d fe aa 1b bf 91 f9 e4 bd a1 03 9f bd
       0.099355906 -0.6080779 -0.111804135 -0.07764364
0002f0 bc 98 0b bf 3d f4 85 3f d1 bf d1 3e 48 0c af bc
       -0.5452993 1.0465161 0.40966657 -0.02136816
000300 a6 e4 e9 3e 06 5a fb bd 03 1e 03 bf 81 a5 10 3f
       0.45682257 -0.1227303 -0.5121767 0.5650254
000310 d5 46 c5 3d 86 c0 a6 3e 41 87 a2 be 90 aa 63 3f
       0.09632651 0.3256876 -0.31743816 0.8893213
000320 f8 1b 7f 3d 5c 38 67 3f a9 e2 81 3f 38 b9 e2 3e
       0.062282532 0.9032037 1.0147296 0.44281936
000330 79 f0 93 3d 92 89 1a bf ae 5e 01 bf 05 85 d8 3e
       0.07223601 -0.60366166 -0.50535095 0.42288986
000340 c2 76 30 3f df 1b 91 3e 5c 81 8c 3e 46 ed ea 3d
       0.6893121 0.28341576 0.27442443 0.114710376
000350 38 2e 54 3e 18 13 98 be 6d 25 0b 3f f3 ee 09 3f
       0.20720756 -0.29702067 0.5435398 0.5388023
000360 90 f6 82 3d d1 d2 38 bf 40 a6 09 3e 26 1b 97 3c
       0.06394684 -0.7219668 0.13442326 0.018445563
000370 b6 e0 90 be 24 c5 15 bf 5f f3 09 3f af 8f a4 be
       -0.2829644 -0.5850394 0.5388698 -0.32140872
000380 0a 53 25 3f ab 7f bc 3e c3 0d 85 3e 4f ba 36 3e
       0.6457983 0.36816153 0.25987062 0.17844509
000390 9e 63 e1 be a5 18 20 3f b1 76 b9 be 11 16 39 3f
       -0.44021314 0.62537605 -0.36223367 0.72299296
0003a0 4c 97 7f be 99 b7 bc be 2c 29 2f bf 3d 96 67 be
       -0.24960059 -0.36858824 -0.684222 -0.22615905
0003b0 73 44 bb 3d 3f c8 d9 bd 62 9f 1a bf 84 d8 17 bf
       0.09143915 -0.10633897 -0.6039945 -0.5931475
0003c0 c7 96 0b bf da 46 6e 3f 96 1a 01 3f 34 e9 99 3e
       -0.5452694 0.9307686 0.5043119 0.30060732
0003d0 c8 79 3d bf 01 25 ab be f9 9e 1f 3f d4 0e 49 be
       -0.7401395 -0.3342667 0.6235195 -0.19634563
0003e0 76 53 d2 be d3 21 8f 3e 64 8f 24 bd 04 8c 07 3e
       -0.410793 0.27955493 -0.04017581 0.13237005
0003f0 6b 67 41 3f 0f 90 c8 bd bd 56 21 bf 8a 2a 30 be
       0.7554843 -0.09793102 -0.6302298 -0.17203727

bias f4 [64]
000000 44 4c 7a 3e 15 81 38 be 3f 20 a6 bd 4d 1d 9c be
       0.24443156 -0.18017991 -0.08111619 -0.30491105
000010 95 26 73 3e 1e 68 03 3f 58 78 87 3e 7a 81 95 3e
       0.23745187 0.51330745 0.26459002 0.29200345
000020 de 1c ba be 4b 00 b9 3e c3 91 bf be 43 a2 1d be
       -0.3635015 0.36133036 -0.37415895 -0.15393929
000030 cb 49 1e 3e ea 83 55 be 59 c6 00 3e b6 e2 77 3e
       0.15457837 -0.20851102 0.12575664 0.24207577
000040 dc 28 47 3e ce 8a a2 3e a1 2d 76 be 0b af 4e 3e
       0.1944918 0.31746525 -0.24040844 0.20183961
000050 35 38 7a 3e 20 eb 84 3e 0c 49 79 3e 08 eb 2f be
       0.24435504 0.25960636 0.24344271 -0.17179501
000060 16 0b d3 3c 8b 77 15 3e 9e 1a 85 be ea d4 8e 3e
       0.025762122 0.14596383 -0.2599687 0.27896816
000070 41 98 c3 3e 8b ec 05 3f bc 55 99 3e 3c e1 92 3e
       0.38202098 0.5231406 0.29948223 0.28687465
000080 36 72 29 3c cc 31 96 3e aa 62 40 3e f6 83 c6 bd
       0.010342171 0.29334867 0.18787637 -0.09693138
000090 af be 50 3d 00 ab 8e be ca d7 33 be 00 e5 01 3f
       0.0509631 -0.27864838 -0.17562786 0.5074005
0000a0 d9 74 4d 3e f9 fd e5 3e 4f 40 18 3e 07 b6 bb bd
       0.20064105 0.44920328 0.14868282 -0.09165578
0000b0 63 cb 9a be e7 6c 7d 3d 87 ee 2c 3d 6a 12 d6 3e
       -0.30233297 0.061871435 0.042219665 0.41810924
0000c0 9b 12 bf 3e 36 ae fc 3e ac 56 e6 be 0f 04 11 3f
       0.37318882 0.49351662 -0.44988 0.5664682
0000d0 80 e4 40 be 37 0f 97 be a3 7f e0 3e 2e e5 90 bd
       -0.18837166 -0.29503796 0.4384738 -0.070749626
0000e0 d5 6f ca be 25 86 41 3e f7 6b 91 be 84 47 70 3d
       -0.39538446 0.18898828 -0.28402683 0.058661953
0000f0 ef ad 34 be 2e 2a b3 be 75 60 b7 3e 23 5c 91 be
       -0.17644475 -0.34993118 0.35815778 -0.28390607

weight f4 [1, 64]
000000 ba 0a 4b bf a7 94 75 bf 27 c4 28 3f 78 bd 27 bf
       -0.7931324 -0.9592995 0.65924305 -0.6552348
000010 e0 5c 93 3f 3f e7 1b bf a0 96 18 bf 41 84 18 bf
       1.1512718 -0.6089973 -0.59604836 -0.59576803
000020 d0 a9 46 bf 7a cb 07 bf 36 28 1d 3f dc 76 5b 3f
       -0.77602863 -0.53044856 0.6138948 0.8572824
000030 3f f0 03 bf 87 9f 72 bf e0 54 f0 3e f5 f9 23 bf
       -0.5153846 -0.9477467 0.46939754 -0.6405328
000040 de 6d 7d 3f e6 db 80 3f c3 55 5a bf cc 1d 01 3f
       0.9899577 1.0067108 -0.8528711 0.5043609
000050 39 17 12 bf c4 22 bd be ef 37 82 3f 73 b8 87 bf
       -0.57066685 -0.36940587 1.017332 -1.0603164
000060 a6 ac f4 be 05 70 07 3f 20 10 22 bf f1 63 08 bf
       -0.4778797 0.52905303 -0.63305855 -0.532775
000070 65 b3 11 bf bd 5a 0f bf 4c 23 84 3f 6a e6 27 3f
       -0.5691436 -0.5599783 1.0323272 0.6558596
000080 74 d7 03 bf 9c 66 17 bf ac 73 56 3f 8d 4c 13 bf
       -0.5150063 -0.59140944 0.8377025 -0.5753868
000090 a2 72 12 3f 61 bd 65 bf 36 a0 08 3f d4 a8 16 bf
       0.57206166 -0.89742094 0.5336946 -0.5885136
0000a0 05 e5 4a bf 4d 65 12 bf 20 20 0a 3f 5b e3 45 bf
       -0.79255706 -0.5718582 0.5395527 -0.7730004
0000b0 94 3e 61 3f ec 79 90 3f a6 2c fd be 57 d4 16 bf
       0.8798611 1.1287208 -0.49448127 -0.58917755
0000c0 c7 2d 1f bf b5 11 26 bf ea 02 17 3f f2 75 10 bf
       -0.62179226 -0.6487077 0.5898882 -0.5642997
0000d0 5a 4d 51 3f c2 91 45 bf e7 4f 06 bf 6f ec 0b 3f
       0.81758654 -0.77175534 -0.5246567 0.54657644
0000e0 d0 75 0c 3f 10 d9 12 3f b5 cf 5e bf f3 28 02 3f
       0.5486727 0.5736246 -0.87035686 0.50843734
0000f0 c0 47 08 bf 58 f5 10 3f ea 50 1b bf 92 0d 7c bf
       -0.5323448 0.56624365 -0.6067034 -0.98458207
