2IWIL_Repo/log/ICGAIL_ANT/Ant-v2_1111_mixture_0.2_600.pt (torch_old, 178037 bytes, 7 tensors)

action_log_std f8 [1, 8]
-1.8988436545459069 -2.2577981545263706 -1.800753807026383 -1.8230306546525765 -1.7132892795081356 -1.796482211760612 -1.9672553769470156 -1.9747456822717777
00000000: 61de 47e2 a961 febf 8247 957a f80f 02c0
00000010: 8536 5539 e3cf fcbf 9f69 1531 222b fdbf
00000020: 9132 0105 a269 fbbf a1b8 b521 64be fcbf
00000030: a0e1 2dc6 e079 ffbf 5264 b4ed 8e98 ffbf

affine1.weight f8 [100, 111]
0.012846359182382212 -0.019645734967456075 -0.07654302541154304 0.07206039064129185 -0.2988930328847118 -0.032762546888261405 0.22345622861688397 -0.106987419806214
-0.06280758077518528 -0.09922583790001711 -0.12291921040572194 -0.01572208319806854 -0.015492053925961306 0.020488107319321294 -0.06210118145904127 -0.15128821035847898
-0.047355591069413554 -0.10464916071135362 0.05756883893838507 -0.006104636474001548 0.2605894983540095 -0.21625924441259017 0.2917144089582436 0.13423432298434554
0.10570782433404265 -0.19180707000411348 0.2974894389391353 0.08079028662508679 0.010078992118348479 -0.04548020905310706 0.0724576711889217 0.06096038801614746
-0.000445991651543895 -0.07363845958410367 -0.07707751633162473 -0.0391184071249044 0.06233284454429329 -0.021544020416627813 -0.045669891313904185 -0.05107518519534112
-0.0793775427745485 -0.005200696566077051 0.09436797864080369 -0.08566782571531287 -0.08873449352538 0.09051488909463386 0.002991437162998059 -0.04132190461589498
0.03787663998776318 -0.033802134160885504 0.04629653224059878 -0.023991009354656603 -0.00961539398600475 -0.004925649448778283 -0.05450057861913266 0.07124870543480884
0.05344705008912108 -0.045066135282541546 0.0475917266808238 -0.015297176334650942 0.018173570250248114 0.0388030572757284 -0.03936245056250929 -0.002977215877618733
-0.09141692482566852 0.05540142017791673 -0.04530671866700515 0.08163401868914201 0.06242632334952784 0.04858986006679568 -0.057500196939634866 0.06636518308360896
0.010578419357337152 0.014091599982904268 -0.04855396827265732 0.03799250019466814 -0.08619378254533366 0.09375200834582488 -0.07240337806155966 0.021838062910839326
0.0829376524165885 -0.011243828751153637 0.04037513055462165 0.0900070101294919 7.348126708793534e-05 -0.016276463602750313 0.02839888539156231 -0.06980195830388691
0.023351027841555835 0.046000244047796 0.08080165088121623 0.0371457066713677 -0.016458891900009473 0.07789727349433116 -0.02378188294461149 -0.016982794611180407
-0.006659827840830454 0.024394769770831687 0.06765631423435488 0.010305876520730547 -0.07283984438255812 0.07762375810773846 0.008668442773988816 0.06250097929579061
0.05190344371585594 0.02013829873960972 0.020947833553440223 0.03906545544890129 -0.02182555535671775 0.07746039688298804 -0.0499492689821155 0.05759581260693069
0.006595729675977942 -0.07640588846458891 0.07436253545231872 -0.12996973062640013 0.06100418801754054 0.1212669037530169 0.040459793848884484 -0.08098995620172386
0.1358393786208698 -0.07310658487092925 0.13839149805679343 0.18546572023176805 0.20188246490463344 -0.17679580056645233 -0.09529018222712088 -0.17809794172981683
-0.26918572798379137 0.1951078212466691 -0.3014837199819716 0.0783942763762731 -0.23764093132528014 0.14996409799974997 -0.29374851791790946 -0.10689702126838645
-0.11527164553705094 0.1979604259979293 0.06494005269339682 0.07144946684616259 0.08933123651867998 -0.04296174227857948 0.06802235137908703 -0.04893358261439142
-0.048843008693335445 0.022019602525675752 -0.0006029617911454815 -0.022055898960765194 -0.009231540689747617 -0.006138167162785743 -0.016825925136811595 -0.010724973662345677
0.09009690434777949 -0.06979835385628129 0.09211630683670839 0.022613814981435942 0.09137509121323288 -0.06924379175833635 -0.021638387801088607 0.031371877181305505
0.010722394125534454 0.025861590562925543 -0.04146362439158372 0.02627409598584013 0.09364056546813775 0.006190428296308267 -0.07126618605123727 -0.0382305113721313
-0.05792128271379667 0.03301239467337712 0.024291893554043403 -0.07897205311120091 -0.07251107044830803 -0.0389130877382568 -0.0686040736826328 -0.07199099197793259
0.0018370989920448305 0.02350837643953317 -0.08627166410445254 0.01242153971617753 0.0681447334955519 0.019071874540587383 -0.01114614543874938 -0.08078496666388665
-0.07968146653240284 0.05528304279976949 0.007894032534372986 0.029947164146075025 -0.0380292406656513 0.018724197168359463 0.0843006151605372 -0.05832982941496703
0.012483200256240862 -0.04282051965618553 -0.06071713077073355 -0.08875952938878258 -0.035447495968458816 -0.048565792636603385 -0.08603866539336173 0.010951804635705761
-0.05316859328543364 0.010773234781060237 -9.8234604218983e-05 -0.08128354651909532 -0.08910460442413201 -0.06545729010463892 0.07323481979274331 0.020361743245438588
0.026843104062591563 -0.024599458132250188 0.002967067339931545 -0.08362576831160586 -0.08870641584875727 0.08766211502075465 0.0003370775016139915 -0.03892533895958418
-0.07227392846061176 -0.03441920513565757 0.058734498456605375 -0.026785714888740958 0.0012826492521711003 0.06757966001594064 -0.042686895832236955 0.0005428042111029581
0.012339370084028137 -0.09774597128017352 -0.06209416470379189 -0.030351423113884946 -0.033433878858502436 0.06954367888363133 -0.017215410596785566 0.023021996581380308
0.01148497140508041 -0.07523630964187118 -0.15532455869779693 -0.04561965291106505 -0.1465204329025963 0.024406939638290492 -0.0483417988836459 0.21053521761541924
-0.009216957844785689 0.0689444255257646 -0.12116549174371755 -0.16033699107580532 -0.17095994797594335 -0.20726835350641906 0.3822362465782007 0.0635811331041428
0.07765842880539942 -0.07790000395576016 0.0690615253298865 0.022773890736495217 -0.07184876633605848 -0.08802807698467593 0.05074842331899858 0.03151934939380076
00000000: 0aee 7c24 314f 8a3f adb1 c3f4 021e 94bf
00000010: 3a25 e1de 5298 b3bf 662e 24bd 8c72 b23f
00000020: 667e 4f3e 1021 d3bf 4f66 d6a6 40c6 a0bf
00000030: 389e ffb4 369a cc3f 43af 260d 8763 bbbf
00000040: eccb 5e59 2814 b0bf a5e2 b250 dd66 b9bf
00000050: cf22 be24 a277 bfbf 5a8d a424 7319 90bf
00000060: 7cd1 ad47 4cba 8fbf 87dd 929b d5fa 943f
00000070: baaf d1de b9cb afbf d948 e17d 695d c3bf
00000080: 0f0d daf5 fd3e a8bf f521 cf92 49ca babf
00000090: e3a2 04b1 a979 ad3f b629 28e0 2c01 79bf
000000a0: 1723 4793 7fad d03f f1d8 1a07 62ae cbbf
000000b0: 19d9 8fe9 72ab d23f abf6 9b1d 972e c13f
000000c0: c52e 7200 ab0f bb3f 8195 6752 228d c8bf
000000d0: cf88 c924 110a d33f 87a3 e316 acae b43f
000000e0: 3018 336c 4ba4 843f 2726 ff94 2e49 a7bf
000000f0: 1bca 1900 968c b23f 52fb c231 3336 af3f
00000100: 0077 c38e 7f3a 3dbf 2a3c a457 f8d9 b2bf
00000110: 47b7 e623 5abb b3bf dad0 8bee 5307 a4bf
00000120: ca9b 9131 17ea af3f d880 74bc a20f 96bf
00000130: bece 3543 0b62 a7bf 2b2e 1ad4 8626 aabf
00000140: 24e7 402e 1652 b4bf a0fb ae5a 534d 75bf
00000150: e747 0df6 7f28 b83f 3a46 c49d 53ee b5bf
00000160: 31f8 b7c3 4db7 b6bf ad67 76d8 fb2b b73f
00000170: a048 0f99 7f81 683f fa0d de09 2528 a5bf
00000180: 1643 0f24 9164 a33f 6f13 8369 834e a1bf
00000190: 5a7d c8d7 2db4 a73f 641c 4e62 1991 98bf
000001a0: c013 aa55 3cb1 83bf 907b b4f4 ea2c 74bf
000001b0: 4983 90f5 7fe7 abbf 358f b9eb 5a3d b23f
000001c0: 3ea1 6668 695d ab3f 4f29 6492 e812 a7bf
000001d0: 9201 4f5b f15d a83f 60b5 a040 2054 8fbf
000001e0: 3c68 81a7 179c 923f ced7 f78b fedd a33f
000001f0: 4d79 b6ab 5027 a4bf 80ea 7a9a ac63 68bf
00000200: d658 6d7e 1967 b7bf c2d8 a12f 935d ac3f
00000210: 097f ed35 7132 a7bf 81cb 8290 f7e5 b43f
00000220: 7638 64d2 57f6 af3f b2e6 ce27 c5e0 a83f
00000230: b713 bd72 aa70 adbf 41e9 ef02 4ffd b03f
00000240: 3810 7769 23aa 853f e05e 9988 0edc 8c3f
00000250: 4de8 a4d3 10dc a8bf 9ea3 a8c3 c073 a33f
00000260: 2497 26b5 cb10 b6bf 4996 c7b1 2100 b83f
00000270: 54f2 e41c 0789 b2bf 5c49 0a98 b75c 963f
00000280: bb7b bce8 663b b53f 98ec 2426 0107 87bf
00000290: a68f 9b92 0cac a43f 83ba ea0c b30a b73f
000002a0: 00fc 588e 3e43 133f f02f 79fb c6aa 90bf
000002b0: 5c9a ffef 9814 9d3f c0a8 1c88 8ade b1bf
000002c0: 3c3f a1f3 54e9 973f be2b 960f 588d a73f
000002d0: e564 ffbf 6aaf b43f 2a40 ae16 c304 a33f
000002e0: 7c79 c189 99da 90bf 7710 1b62 13f1 b33f
000002f0: 4408 f025 475a 98bf 707f cc0d f063 91bf
00000300: b0ab 5fec 5547 7bbf a8ca 6f49 f1fa 983f
00000310: dd23 0199 ec51 b13f 38bc e754 3f1b 853f
00000320: 5b04 78cd a1a5 b2bf 4721 778e 26df b33f
00000330: 40b1 c5b1 c2c0 813f db1b 0b6e 1000 b03f
00000340: ca66 9e92 1693 aa3f 844f ef59 229f 943f
00000350: 24e5 2250 5973 953f 52dd 1c2b 6300 a43f
00000360: 0c85 e539 7059 96bf 3bfd 58cf 71d4 b33f
00000370: 817e 7959 f392 a9bf 3f0e 11c7 327d ad3f
00000380: c87a 06b4 1f04 7b3f 255f 2d18 568f b3bf
00000390: beba d051 6c09 b33f 1b52 411f d9a2 c0bf
000003a0: 68a3 e8e0 f03b af3f cbd5 b409 590b bf3f
000003b0: 6889 c466 25b7 a43f 46dd 30fd c1bb b4bf
000003c0: a8c1 574c 2f63 c13f 6894 24f7 1cb7 b2bf
000003d0: 5d64 1907 d0b6 c13f fa56 7639 57bd c73f
000003e0: c35c 33dc 48d7 c93f fa63 c0aa 3ea1 c6bf
000003f0: 049d 4bf8 ef64 b8bf fb73 9bd1 e9cb c6bf
00000400: aa61 8fc6 563a d1bf 8260 b907 4bf9 c83f
00000410: d955 665f 824b d3bf 33cc 3ab5 a511 b43f
00000420: ead4 1d9e 046b cebf 14d5 3d08 0632 c33f
00000430: 522d 6d95 c6cc d2bf 9335 636a 9a5d bbbf
00000440: 68dc bc4b 7182 bdbf 581b c869 c456 c93f
00000450: a5c6 844a e99f b03f 67c0 6b23 834a b23f
00000460: 8de5 5b73 69de b63f bba0 21dc 14ff a5bf
00000470: 95f8 91ae e969 b13f 9385 0292 d20d a9bf
00000480: edc5 f369 f301 a9bf f0f1 df82 4e8c 963f
00000490: 800b 3c96 02c2 43bf dca7 e152 d295 96bf
000004a0: 7851 d56a fce7 82bf b073 8bb3 5524 79bf
000004b0: 240d c0b8 d03a 91bf 30b9 0a99 f9f6 85bf
000004c0: 6f01 a539 9710 b73f e79a 200f 4ede b1bf
000004d0: 23be 4a2d ef94 b73f 10db 216f 1328 973f
000004e0: cb0a 6ea4 5b64 b73f 3d97 0d0d f6b9 b1bf
000004f0: 3c7e c69f 5f28 96bf 0e03 0485 f90f a03f
00000500: 48fa d460 9ff5 853f f4df c2f6 757b 9a3f
00000510: d590 785d b83a a5bf 90ef f6bb 98e7 9a3f
00000520: bbbc 43fe d3f8 b73f b045 4b71 225b 793f
00000530: 4a95 6632 803e b2bf 41f6 1a18 f392 a3bf
00000540: 7b0a ffbd dba7 adbf 9e37 f826 00e7 a03f
00000550: 6878 7d61 f9df 983f f71b 6931 8337 b4bf
00000560: 3d66 2ce4 1590 b2bf 18c3 718e 6aec a3bf
00000570: 32db d65c 0990 b1bf 99dd 266c 006e b2bf
00000580: 403f c805 5a19 5e3f bc9b f56f 9412 983f
00000590: 516e e657 e615 b6bf 788c c6d6 7670 893f
000005a0: 550e c2e9 ee71 b13f 8c71 b3d5 9387 933f
000005b0: 884c 1651 cad3 86bf 9e70 d4d5 52ae b4bf
000005c0: 019f da2c 0166 b4bf a25e b219 0f4e ac3f
000005d0: 60ae 8c1c bf2a 803f a41a 762a 78aa 9e3f
000005e0: 43c0 e691 9178 a3bf d886 ed99 6f2c 933f
000005f0: 2fae 25a1 b994 b53f c4e4 6f4b 68dd adbf
00000600: d0be ccc6 ca90 893f 05c6 0a37 92ec a5bf
00000610: 293c efd5 5016 afbf 5de4 eecb f1b8 b6bf
00000620: 09ba d197 2c26 a2bf f934 2896 9ddd a8bf
00000630: 6b54 0e46 a106 b6bf 78b7 f055 e66d 863f
00000640: 8da7 abf2 e938 abbf e04a 7418 4710 863f
00000650: 00e0 5aa6 69c0 19bf e19d 009e ffce b4bf
00000660: c6b6 ec31 8fcf b6bf e5c1 4818 cfc1 b0bf
00000670: 8333 f063 84bf b23f bc98 5075 b5d9 943f
00000680: b4ae 4938 c27c 9b3f 8497 b5b0 9930 99bf
00000690: c0c5 1426 644e 683f f94f 0094 7f68 b5bf
000006a0: b80a 04b3 76b5 b6bf c3c1 1c3d 0671 b63f
000006b0: 007c 7cd8 3817 363f b25e a2a3 05ee a3bf
000006c0: 507e 174f 8b80 b2bf 03ed d2e0 649f a1bf
000006d0: 1e42 09bc 7212 ae3f 88da c9e5 b66d 9bbf
000006e0: 40b3 c725 d203 553f f1ac a48d e64c b13f
000006f0: 316a 228b 0edb a5bf 5853 db2a 5fc9 413f
00000700: e28f b637 6245 893f 4bcf f645 e105 b9bf
00000710: ecb6 596d ceca afbf 2010 a586 7114 9fbf
00000720: bc27 8dd0 3e1e a1bf 78df 7252 9dcd b13f
00000730: 646a 00a6 eaa0 91bf 4c63 9f09 1493 973f
00000740: 787c a4c4 6e85 873f 6531 62d1 af42 b3bf
00000750: a8b3 efd5 ace1 c3bf 7ea4 9d8a 755b a7bf
00000760: c496 c179 2ec1 c2bf d0e8 2afe 21fe 983f
00000770: e45a 789a 41c0 a8bf 8340 2869 d1f2 ca3f
00000780: 3381 1824 57e0 82bf 26ea df84 57a6 b13f
00000790: 146a 71a0 b304 bfbf 7b3b 812a ec85 c4bf
000007a0: cfc3 bdfc 03e2 c5bf a925 e7f7 c487 cabf
000007b0: e78b 9904 8f76 d83f b72d 5367 da46 b03f
000007c0: f059 fa3b 6ce1 b33f 9a27 5931 41f1 b3bf
000007d0: 2f28 b420 04ae b13f 10e8 a9ef 0952 973f
000007e0: 6ddb ab45 ae64 b2bf 7e69 c70f 0289 b6bf
000007f0: 4613 f584 b2fb a93f 32d6 acdd 4d23 a03f

affine1.bias f8 [100]
0.13560141134906534 0.07395740833231519 -0.01842010789560798 0.03336349174534695 -0.14060662848930516 -0.14470602690129739 0.006647158087346145 0.5519931238123809
0.17085780221020977 0.3101749157928003 0.029677911172955023 0.33706037800343347 -0.24225268514413045 0.18398229732194374 0.06006616880500004 0.4011171913069536
0.2480236963921607 0.12619431607549625 0.26351459383536713 0.024431240001869067 -0.19092183879834648 0.3654657535225269 -0.26127102141058606 0.382734014280876
0.0203056873742196 -0.03212466851911505 0.05538381537973285 -0.16377606869913747 -0.38902614368299204 -0.022198112106089553 -0.1424724743013613 0.21809700531631512
-0.07837949751353541 -0.06525124473381337 -0.20331503769457035 -0.04583579466635931 -0.08870571251709326 -0.03564369723758579 -0.05033755687191087 0.07409181465120207
-0.10361885561919126 0.047430891426159215 0.03188804030603071 -0.2125735752848986 -0.1095759055848988 -0.11397409976465897 -0.3225802762946617 0.23913918991393995
0.23053754439809648 0.1426975712076166 0.08520053055896339 -0.13375879070807511 0.11110388438246896 -0.09224586355649166 -0.15413906948960948 0.0675487472167653
0.04633658434041182 -0.22255686364042557 -0.0008092545410097198 -0.14043235561899967 -0.14018105103260214 0.1242721175894068 0.05087976454219171 0.05214429934056742
0.16196662991761113 -0.1633732069040373 0.06091588032195013 0.13045495965801807 0.19870784621453264 -0.07752276473431555 -0.14578454738980542 -0.1218492534903743
-0.18614380503267658 -0.07638584191001302 0.2098454541688413 0.09359008841394784 -0.10036360061365822 0.05365953289922289 0.07045263307637639 -0.09158586425461294
0.21383454661913825 0.25812223304862664 0.0036541625161930096 -0.06848765051854908 0.079577486437655 0.2097578936708626 -0.04864744835326878 -0.06080537871793865
0.14167051531781633 -0.08194273197645668 -0.04080552452690342 -0.3136503168781561 0.10719829860766222 0.16161765750466273 -0.055737731744171494 -0.14880698551705182
0.011483504942249008 0.19781231485868997 -0.016196087270076733 0.019896688735808424
00000000: 2091 8415 635b c13f e58e 156a dfee b23f
00000010: 1c70 0084 b8dc 92bf 656f da03 0515 a13f
00000020: 842f 7be3 65ff c1bf 1f9f 8922 ba85 c2bf
00000030: e13c 8be9 0c3a 7b3f 8583 cc7b eda9 e13f
00000040: 5530 6120 abde c53f 0aa8 d7e3 e7d9 d33f
00000050: bb11 9be7 e263 9e3f 5656 13b1 6592 d53f
00000060: 00f7 07d0 2202 cfbf 8d35 055f bb8c c73f
00000070: 701b 3a2d fec0 ae3f 21b6 a170 e7ab d93f
00000080: 2095 5190 3dbf cf3f bc1f 3ea6 2227 c03f
00000090: fca9 a250 6cdd d03f 2c2a 3cc3 8004 993f
000000a0: 1994 dd76 2070 c8bf e7fb cb78 ca63 d73f
000000b0: 8176 1617 aab8 d0bf 5dcd 99ce b67e d83f
000000c0: 4bc1 c79c 03cb 943f e86e 5e01 a572 a0bf
000000d0: 273b 9177 445b ac3f 4212 773d 9df6 c4bf
000000e0: a013 1ae9 cde5 d8bf 5a48 1d16 1abb 96bf
000000f0: 9b2e dabc 893c c2bf cf34 9848 9aea cb3f
00000100: 4d5f 7fc2 ad10 b4bf 6faf 273a 4eb4 b0bf
00000110: ab72 d726 3a06 cabf cb07 280e ca77 a7bf
00000120: f9b2 3ae6 6ab5 b6bf 454e e303 e43f a2bf
00000130: de00 0d21 d8c5 a9bf 5805 d460 aef7 b23f
00000140: b024 22ec c386 babf a3af fd9e dc48 a83f
00000150: e8f0 7e14 a153 a03f dbd4 eb64 9c35 cbbf
00000160: 6eae eaa2 2a0d bcbf 5e8b 1417 682d bdbf
00000170: 384b 41be 27a5 d4bf b2a7 efeb 1c9c ce3f
00000180: 0451 d816 4182 cd3f 8815 c7fc e943 c23f
00000190: c143 5ab4 b3cf b53f 7a64 d20f 021f c1bf
000001a0: de9a e1dd 4d71 bc3f d799 2ac7 6c9d b7bf
000001b0: 0233 3f3b d4ba c3bf 0189 2eec df4a b13f
000001c0: 8769 b3c4 6db9 a73f b700 6b49 be7c ccbf
000001d0: 0cda d5e4 8484 4abf 3f88 57fb aff9 c1bf
000001e0: 7c1a dae2 73f1 c1bf 2fe6 d928 4cd0 bf3f
000001f0: 254a 7999 e90c aa3f 615f ae58 a8b2 aa3f
00000200: 840d 4591 52bb c43f 8b05 59ca 69e9 c4bf
00000210: 0b64 94c3 5d30 af3f 1a85 aa84 bfb2 c03f
00000220: 189a 793a 426f c93f 22b9 3a2b 88d8 b3bf
00000230: 8193 a66b 11a9 c2bf ed7d c83e 8331 bfbf
00000240: c4f2 7b69 8fd3 c7bf c484 e1c4 058e b3bf
00000250: d149 6f41 37dc ca3f 34b8 f720 85f5 b73f
00000260: 072f 58ce 6db1 b9bf e372 d725 4379 ab3f
00000270: 70e9 fa0a 2f09 b23f 7bdc bfd3 2b72 b7bf
00000280: d0f9 3d30 ee5e cb3f 2d1e 541d 1385 d03f
00000290: 25cc 0a90 55ef 6d3f 2634 281b 6888 b1bf
000002a0: 7c63 bfad 305f b43f 2775 b2be 58d9 ca3f
000002b0: 571a 6c7f 51e8 a8bf cd64 07f2 e121 afbf
000002c0: 7e7a 0c6b 4222 c23f acd8 fbe9 32fa b4bf
000002d0: 7ca8 ad32 76e4 a4bf 37ca 57c7 d812 d4bf
000002e0: aced b402 5971 bb3f dc25 b82c e3af c43f
000002f0: ed26 fded a789 acbf 8b25 1b78 1b0c c3bf
00000300: f101 5df1 a984 873f 5b35 88f7 e951 c93f
00000310: 67b2 9704 b595 90bf 640b ad2d cc5f 943f

affine2.weight f8 [100, 100]
0.16472970914188517 0.025216455382481927 0.02781628528208963 0.02400636835740412 -0.05245570165115652 -0.04223321252490303 -0.06061174240861024 -0.04310243548375772
-0.03157795229787748 0.11343448683870946 0.04935537041221323 0.02186473951165265 -0.06061930772213811 0.12681622253943173 -0.04189201683666115 0.1641704744783068
0.09756987833086937 -0.0385118996524747 -0.12257192728513004 0.0030722343597718747 0.06068485919464687 -0.12216772307278716 -0.09585681825929368 -0.05758549003512581
0.0069787384146545416 0.0075626596017096485 -0.04499341624377214 -0.10121276681264156 -0.034023343913709675 -0.07019460365197018 -0.023128015806114007 -0.03555880806501828
-0.03098839166507423 -0.22304025367600908 -0.10251744227321632 0.029498831707750063 -0.02584394662031129 -0.054849149869548516 -0.018875636487087042 0.014312684451945553
-0.12433624215460179 -0.05523110180125296 -0.004256514315565941 -0.03420783607474292 -0.004133656000051621 -0.06286512055946446 -0.15727535623878705 -0.118791875555954
0.04467108033857178 0.1507885800510809 -0.08046834455537026 0.12251264617559336 0.05147575811931244 -0.08299793166251572 -0.01407286339271182 0.062058245581659253
-0.029665837069033862 0.16259100707415894 0.07691387910644554 0.03633237345626756 -0.10904521149299401 0.12907836471700873 0.046087011473655265 0.07342193429284502
0.03539215305465292 0.06967354324439884 0.07467517011990668 0.05131750541649776 -0.07865624451682049 -0.1368931566462986 0.015526887039736542 0.09028959839907605
0.06398521283710612 0.08905232015780462 0.05804767622412525 0.039141398338440166 0.07522877443434099 0.03586259943276422 0.13834146440660908 -0.0477395222403312
0.11336395444327624 -0.06826623548121903 -0.030569836246241 0.06147271171371021 -0.12036260194101228 -0.03980429160291587 -0.10135090107654263 0.09496121574139077
0.00950781835380733 -0.13210484864149027 -0.043856599578791476 -0.15685559826354264 -0.020127322563661666 -0.04550051134797826 0.06871167308609076 0.07448868742705808
-0.029317627152366573 0.00884412682818562 0.04328219055245528 0.0904346617428231 0.021642580893815693 -0.06666167321962442 0.11752323997613799 0.0313705621449237
-0.0791578030529406 0.029248460775324003 -0.02896432239941343 -0.026495326121125033 -0.0006211263363076731 -0.0870010342515966 -0.04447770330596754 0.04721077986306607
-0.03472560558640738 -0.021204190973378317 0.03250217743461793 -0.16434448732310034 -0.1500135053351339 -0.03324961023789527 -0.09222354075821403 0.10814532916464115
-0.10723166279791997 0.02934160373325414 0.051288422933931814 0.059464529431507075 0.02975019219573283 -0.0563953521943003 -0.13794817024284906 -0.09538293251732423
0.088525047121425 0.04649096192813357 -0.01935996512107182 -0.022610939227317998 -0.10868006184375059 0.05418124814729236 0.2042344494176519 0.04980431768245554
-0.07128160516734076 0.08765155324505858 -0.05953894344100397 -0.02897996911871396 0.04506479841596817 0.04575459632692683 0.004147391303950395 -0.07090191906569492
0.0009724411707205823 0.1532299799151039 -0.060018332629678955 0.08493593094214089 0.05705674640606925 -0.0003365774693170585 0.022639980078566765 0.05780196464759898
-0.1004240954589515 0.06855589480982667 0.06826500201758542 0.004262349628024386 -0.11967901781303575 0.040358919790209766 0.05505599565734705 -0.06596622903718477
-0.03180091042207881 -0.13437551468486328 -0.10582767800905145 -0.0791608077866361 -0.026971306506236272 -0.0319993853753564 0.04270905026700827 0.10556372536372326
-0.005569709702997948 -0.021153101727791217 -0.012358695880780032 0.026112454532988986 0.12680711068863362 -0.08725667682631966 -0.07894499046284403 -0.03504541775061193
-0.03451341101354133 0.049120230800780144 -0.10308316613309712 0.03721912215830725 -0.07683260037935617 0.061669381509884394 0.09950646992198477 0.003952675158644704
-0.018093841686263722 -0.0864314353508035 0.14763954796332185 -0.007013052568659115 -0.05172609990702005 0.0644902534345201 -0.007665764973566476 0.1280415356708809
-1.1632416660465712e-05 -0.057615636937464514 -0.05582257240228219 0.015886578484403526 0.06692459531846848 -0.1121598898881297 -0.02577188540155577 0.02415334815098139
0.014230749148786073 -0.18226689645383454 0.008219874407405917 -0.04132261378940443 0.1272132612807442 -0.14360175423654484 0.058524224878243304 0.006671760845340519
0.05955633919958226 -0.0065921394453026996 -0.06110532181060323 0.057960076826261385 0.048408240893149566 -0.09084995107331656 0.038911209100752034 -0.018885896916094474
0.003326013523050703 0.036893087232359956 0.014425329716777544 0.10751489587108311 0.05002645021317703 -0.011628233226552947 -0.07776399299342648 0.019670243957050658
-0.08541756948773789 0.03492805984736369 -0.08552380418893833 0.08280123019506937 -0.010284372446567476 -0.09829475343018416 -0.054534484112896776 -0.09523525990750312
-3.256578958931282e-05 -0.0032722217187511875 -0.0553198093858285 -0.07041240377405943 0.0934659078745336 0.0860151344825845 0.07552565890037592 0.013600830489991828
-0.05926217618626287 -0.04118962424266313 -0.01226980748921263 -0.07385465624070635 0.1327751501849288 -0.004734881330994107 -0.007050765791375595 -0.08306493251872442
-0.01850871661951472 -0.019979698903747452 0.07711803940426305 -0.06499993560392463 -0.019139431348595373 -0.04127952769199686 -0.07198241263359652 -0.02050574007538064
00000000: a2d4 b8f4 dc15 c53f 9655 c1ac 57d2 993f
00000010: 91c4 544e df7b 9c3f 048f f61b 2095 983f
00000020: cd30 2946 79db aabf 88ee 3275 979f a5bf
00000030: b20f cc96 8008 afbf 84b6 8fbd 8511 a6bf
00000040: 8abe c940 fc2a a0bf f6f6 35e3 0a0a bd3f
00000050: 0ad7 9a6b 1b45 a93f f56b 8dd4 b563 963f
00000060: d471 5870 7e09 afbf f55d 3494 833b c03f
00000070: 36cb 8dd4 de72 a5bf 6033 6dc1 8903 c53f
00000080: ff7a 81ec 56fa b83f e046 07eb d4b7 a3bf
00000090: 33ea 18b3 df60 bfbf e64e 3a43 f12a 693f
000000a0: 55ed 34fb 1512 af3f a372 3947 6246 bfbf
000000b0: 46b4 858b 128a b8bf 8099 d968 d87b adbf
000000c0: 5cea 21d4 bc95 7c3f 7add 8ffa 05fa 7e3f
000000d0: 3bc9 9a86 6009 a7bf 57e1 6573 14e9 b9bf
000000e0: 24e4 d1fa 816b a1bf 0978 0a07 46f8 b1bf
000000f0: 7fd6 08de deae 97bf 6aaf 729b c334 a2bf
00000100: d24d 07c3 6bbb 9fbf bb70 9d41 958c ccbf
00000110: 9641 d545 953e babf 0aea d115 f134 9e3f
00000120: 3b9e 22e6 d576 9abf e664 ce11 3015 acbf
00000130: 89e6 9c85 2254 93bf bed2 1cfd f74f 8d3f
00000140: 06f5 c2fd 7fd4 bfbf 18b7 ea3f 4047 acbf
00000150: f427 7c5c 476f 71bf 6778 6a82 b083 a1bf
00000160: 4c86 54d5 73ee 70bf d7ab dcb4 ed17 b0bf
00000170: 5b94 c14f 9921 c4bf 4c17 8bf4 2469 bebf
00000180: ab26 43ba 20df a63f 71ff f649 0a4d c33f
00000190: e383 3acc 9299 b4bf fbab ab20 fd5c bf3f
000001a0: a989 51d3 075b aa3f 3b4b 203a 5a3f b5bf
000001b0: 6c1e 43c0 3bd2 8cbf 6bd3 702e 19c6 af3f
000001c0: b071 14a0 b860 9ebf 7fec 0039 c8cf c43f
000001d0: f8e4 5ec3 a0b0 b33f 89bb 8f27 289a a23f
000001e0: 0cd7 2511 63ea bbbf cc54 8acd a385 c03f
000001f0: b475 197e b798 a73f dec9 98a6 c7cb b23f
00000200: ce3c cf97 eb1e a23f 0c92 a115 20d6 b13f
00000210: 02fd 7c75 e91d b33f 57cb f3be 4946 aa3f
00000220: b66f d3cd d022 b4bf 8bc8 6b07 b785 c1bf
00000230: a3d6 5a80 8fcc 8f3f 6a02 4b18 381d b73f
00000240: d01e 90bc 5561 b03f f0ef b502 22cc b63f
00000250: b69a fbcd 6cb8 ad3f e90d 9163 570a a43f
00000260: 53e5 e965 3142 b33f ca31 6d27 955c a23f
00000270: 2b50 a750 2cb5 c13f 236e 7f8d 5071 a8bf
00000280: 0c0d e18c 6b05 bd3f 4918 d060 e579 b1bf
00000290: 03cd affb b24d 9fbf e74a d0ec 5979 af3f
000002a0: 6484 ff5e 15d0 bebf cf95 5965 3a61 a4bf
000002b0: d63b 8bf5 21f2 b9bf 8c67 ffd3 604f b83f
000002c0: 8758 16c7 d578 833f 1b74 47ca cfe8 c0bf
000002d0: cb31 cf49 5f74 a6bf 5743 5e20 d813 c4bf
000002e0: 1dfa aac0 419c 94bf 3db6 61d0 d74b a7bf
000002f0: 9b19 c294 1697 b13f 82d2 6bcc b011 b33f
00000300: 4f50 43a7 7005 9ebf 15ed e89b de1c 823f
00000310: 0d15 d851 1529 a63f 2f39 9cda b926 b73f
00000320: 0b55 8f04 7929 963f 25fb 5f4a bd10 b1bf
00000330: 47ac 37c8 0016 be3f 2c6d f064 cd0f a03f
00000340: 26e9 558f af43 b4bf 7013 f4f9 4ef3 9d3f
00000350: 4f3b d3c5 d2a8 9dbf 9e93 bf3c 9721 9bbf
00000360: e749 8ba6 625a 44bf 232b d424 b345 b6bf
00000370: 5d5d 3312 c8c5 a6bf dca0 0fe7 022c a83f
00000380: e3a2 a7f8 8dc7 a1bf db3f 132b 8db6 95bf
00000390: 62cd 421a 20a4 a03f 2f51 2a7b 3d09 c5bf
000003a0: 58b5 af7d a433 c3bf ec2b 27c9 1706 a1bf
000003b0: 8754 7a43 f69b b7bf 982f fa8b 69af bb3f
000003c0: 7111 d0c4 8873 bbbf 063c c9b1 b90b 9e3f
000003d0: 774d 54e6 7942 aa3f 2557 5c82 2272 ae3f
000003e0: c11d 1f9a d576 9e3f d74f a402 dadf acbf
000003f0: c637 de1f 49a8 c1bf e92b c20f 046b b8bf
00000400: d46c 43d6 93a9 b63f c8f2 14d2 a9cd a73f
00000410: 36d3 2f44 19d3 93bf 917d 0d72 5227 97bf
00000420: 5a9e 58df 74d2 bbbf c8ba b201 a5bd ab3f
00000430: 9c91 7bbc 5a24 ca3f 929e 4a97 f37f a93f
00000440: 6b07 00e3 823f b2bf b091 a10a 5570 b63f
00000450: 51c3 d56d e37b aebf 2b76 6ace ecac 9dbf
00000460: 197a cbb6 bb12 a73f 644e bb7d 256d a73f
00000470: a216 3ae0 dafc 703f 4b5d 9ccf a026 b2bf
00000480: 8c87 4483 6ddd 4f3f 1445 403c 0a9d c33f
00000490: 941e 9c0f b9ba aebf fedc a675 5cbe b53f
000004a0: 4c14 a9b7 8a36 ad3f bf59 2939 d50e 36bf
000004b0: 2f01 1458 ef2e 973f 2baa 9c17 3898 ad3f
000004c0: 1201 babd 64b5 b9bf 25fe 270e e18c b13f
000004d0: be7c 20af d079 b13f 668d 1ac4 6575 713f
000004e0: 6c3e 86bb 48a3 bebf 0ea1 33a1 eca9 a43f
000004f0: 7a13 98a9 4c30 ac3f 62eb 5aac 29e3 b0bf
00000500: 95e0 7d7c 3548 a0bf 2732 7a84 3733 c1bf
00000510: 8f7c 0fd0 8517 bbbf 1d8c 91f8 e143 b4bf
00000520: 47ab 7fbd 5d9e 9bbf 7fc7 5b33 3962 a0bf
00000530: c7b0 47ec f5dd a53f 17c4 146c 3906 bb3f
00000540: 6587 5c90 43d0 76bf aef0 84a0 28a9 95bf
00000550: 1e85 0815 844f 89bf 8e2c f328 39bd 9a3f
00000560: 5d6a a724 373b c03f 90a1 531d 7456 b6bf
00000570: fc8f 3828 bd35 b4bf 6821 3a16 79f1 a1bf
00000580: b033 27e7 bdab a1bf 47ff b871 4926 a93f
00000590: 324e 4f8b a863 babf 3059 e980 620e a33f
000005a0: 6b5e e521 4dab b3bf 8abe 7f11 2193 af3f
000005b0: 412a 0e8a 4179 b93f e804 9c28 ae30 703f
000005c0: 83bd 3429 3187 92bf fc93 2ddc 5e20 b6bf
000005d0: e6a1 0c4b dae5 c23f e41e d7f6 b7b9 7cbf
000005e0: 118b e6e6 d77b aabf d979 69e9 6e82 b03f
000005f0: c8bf c31d 2366 7fbf ea36 1e40 aa63 c03f
00000600: c4fb 122c 1b65 e8be dfec c4f8 cb7f adbf
00000610: 935a b1b5 c694 acbf f7b5 243c 9244 903f
00000620: fedb 3064 f821 b13f 0c13 feb2 82b6 bcbf
00000630: 6ce2 d2f3 f163 9abf 69e7 96c1 a7bb 983f
00000640: fb6d 88d1 0225 8d3f 50d1 b48b 8554 c7bf
00000650: c868 0ede 94d5 803f 1718 9fd5 3c28 a5bf
00000660: 09be 682e 8648 c03f 670e 0cd3 8a61 c2bf
00000670: 7569 c01f e3f6 ad3f a014 332a d953 7b3f
00000680: b16c 4322 2b7e ae3f 967f 40f5 5b00 7bbf
00000690: 5e81 935d 3249 afbf 8387 e274 f1ac ad3f
000006a0: 3366 fc06 f7c8 a83f 04fe b340 f141 b7bf
000006b0: 4a33 1285 2bec a33f 2be6 7016 d356 93bf
000006c0: c180 d7e9 273f 6b3f 7011 3996 a6e3 a23f
000006d0: f2cb f0fa 068b 8d3f b961 99a1 1886 bb3f
000006e0: 987d 331f 119d a93f 89b0 580b 8bd0 87bf
000006f0: 5690 b64e 57e8 b3bf 06df ffb9 6f24 943f
00000700: dd21 7403 eddd b5bf 30aa 8335 17e2 a13f
00000710: 1f60 0556 e3e4 b5bf d1a2 c11f 7632 b53f
00000720: 570a 8b1a f90f 85bf c3dc 594f d829 b9bf
00000730: 85ca 89a3 f1eb abbf b691 ba86 5661 b8bf
00000740: 44ba 9102 e812 01bf fcb2 8da8 58ce 6abf
00000750: 0324 44c8 e052 acbf af3c 711b 8c06 b2bf
00000760: aab0 9cb9 61ed b73f 6a51 907d 1605 b63f
00000770: 4368 fc4a a655 b33f 3d40 3991 c0da 8b3f
00000780: 4536 38a9 9c57 aebf 8d10 1d72 ce16 a5bf
00000790: dcb2 27af e920 89bf 530e 3685 23e8 b2bf
000007a0: 5804 e2af c6fe c03f 9414 7907 e264 73bf
000007b0: c57b c587 43e1 7cbf 2bc4 9c50 be43 b5bf
000007c0: 2678 49f2 f2f3 92bf ef88 80e5 8e75 94bf
000007d0: 6546 2c01 02be b33f d334 a9f5 d5a3 b0bf
000007e0: 5434 d37e 4999 93bf 64e7 dc1a 9722 a5bf
000007f0: 6902 267c 706d b2bf 2022 04ec 74ff 94bf

affine2.bias f8 [100]
0.1338633800835326 -0.18029221636806472 -0.07804953685182449 0.03655065503961137 0.03994411565896409 -0.07139763929833683 -0.005125586936998567 -0.24287360599138585
0.1387399558413638 0.21479767168367686 -0.04404772453208286 0.13868536185599875 0.07817754372479921 -0.04616767340770862 0.14354060310328154 -0.25580314636107426
-0.03142665103709337 0.0008712107498029994 0.19907640461902368 0.046030614077211124 -0.17947530052409547 0.03900747188607348 -0.0377599674694749 -0.06472129148684315
0.18631950726866392 0.017727638690021443 0.10080755934504293 -0.10995582885395373 -0.29336435635490354 -0.044906177072727545 0.12429638684801032 -0.21562705107197208
0.16185450530332293 0.15345313889788087 0.005491652346945551 0.24552472777379689 0.1470180558889001 -0.1483604846484372 0.08283717070303945 -0.06649587820153322
-0.02979650019235564 0.1066722916922819 0.1237722260589038 0.00890218801290308 -0.03630335211184556 -0.17251019039863666 0.12834275388512234 -0.016855927396340092
0.3944539884719058 -0.23361669304011864 0.06414036155289346 0.28049875499459287 -0.17770214095987236 -0.08505746567977983 0.15194861423215145 -0.14492186567716375
-0.07167413626149707 -0.0029109277005821086 0.011053932707587009 -0.2108513999622995 0.04597829817969503 -0.13477559600312786 -0.02667428052380607 0.09697494260695134
0.05038641988346668 -0.09973948416744213 0.03079069082663624 0.06280325325619698 -0.12971059333111037 0.13833304068726548 -0.043028879110337565 -0.17252406822955155
0.08860699118946082 0.05833670516662509 0.024317451024612823 0.0566603541040941 -0.07445676391416371 -0.06482596773585624 -0.031184568743024874 -0.20223563865306374
-0.041852045246197164 0.08686857700695554 0.033444931550849225 0.03464255737078077 0.2391039166651964 0.2484126404919153 0.20287879315528018 0.023792144927320187
0.09384324359578855 0.11064278565208294 0.0561205242147727 0.1890179781915927 0.24471069687072058 -0.17719456141833165 0.20853734587273876 0.13977140791732912
0.2167924036916214 -0.1561787403208477 -0.0021525189040432816 -0.11226935098271562
00000000: 049f cb6b 6f22 c13f c918 83ba d013 c7bf
00000010: c91c 3ff0 0dfb b3bf aac3 1578 c4b6 a23f
00000020: 5585 d81c 8e73 a43f 2d47 cc9d 1d47 b2bf
00000030: d481 4644 91fe 74bf 30b5 6579 7b16 cfbf
00000040: a95a 7e1a 3bc2 c13f 0ab5 9177 7d7e cb3f
00000050: d432 a860 6c8d a6bf 137f cd22 71c0 c13f
00000060: 2662 9489 7103 b43f ea47 d60e 4aa3 a7bf
00000070: d804 fdd9 895f c23f fa6b f528 145f d0bf
00000080: 8aaf da6c 2717 a0bf ab6f d3d6 3e8c 4c3f
00000090: 693a 9feb 557b c93f 6420 271c 5391 a73f
000000a0: e16a 18f1 0bf9 c6bf 34c4 1990 c9f8 a33f
000000b0: 2743 c242 4655 a3bf c176 4a16 9391 b0bf
000000c0: 0ab2 294f 51d9 c73f d7c2 a2b1 3127 923f
000000d0: 0898 9332 86ce b93f 81ab eeb0 1026 bcbf
000000e0: 44cf 164b 7bc6 d2bf 29dd d443 f1fd a6bf
000000f0: 65ee 8554 e3d1 bf3f 6357 3ece aa99 cbbf
00000100: c977 7eff a5b7 c43f 0a79 843a 5aa4 c33f
00000110: 4bb8 b233 6a7e 763f d1e9 12b2 5a6d cf3f
00000120: 0a6f fbd6 7cd1 c23f 40b8 caf2 79fd c2bf
00000130: aa0e 101b d134 b53f 2ec3 31b6 df05 b1bf
00000140: 7119 7247 f982 9ebf 5a2d 3514 e04e bb3f
00000150: ff7b 135f 89af bf3f 34ae 0673 4f3b 823f
00000160: f270 1c5c 5a96 a2bf 8b93 fe5c d014 c6bf
00000170: 22be 4e0d 896d c03f 58e5 a423 ae42 91bf
00000180: c4de 10f1 bb3e d93f ef17 34dc 26e7 cdbf
00000190: be29 39b3 806b b03f c24f d10c b1f3 d13f
000001a0: e408 ed99 f1be c6bf 7313 6079 53c6 b5bf
000001b0: a459 665c 0d73 c33f 3e84 c7b8 cc8c c2bf
000001c0: 4651 3677 3c59 b2bf 14f8 cc68 a8d8 67bf
000001d0: b229 c5bb 71a3 863f bcb2 93bd 2dfd cabf
000001e0: 83da 03ae 778a a73f 99f0 90a4 5340 c1bf
000001f0: 46ef f9a9 8050 9bbf d540 078f 59d3 b83f
00000200: 3cc0 1fb3 3fcc a93f 9e7b 9ede 8688 b9bf
00000210: c891 7c48 9887 9f3f 7a59 d1be df13 b03f
00000220: d5a3 2652 5b9a c0bf 24a1 daa6 e5b4 c13f
00000230: ccf7 1f99 e107 a6bf 53ce 68c7 4415 c6bf
00000240: c90e 5ba1 f2ae b63f 68b0 b101 4fde ad3f
00000250: a6bd 7d83 ace6 983f d1b6 b6ff 9502 ad3f
00000260: 0b32 fa35 990f b3bf df67 5b43 6f98 b0bf
00000270: 1c8b 90fb d8ee 9fbf e1df 0c7f dbe2 c9bf
00000280: 56cd 349b a16d a5bf a380 4be1 043d b63f
00000290: 8aa9 74ae b11f a13f 2a24 ea55 abbc a13f
000002a0: 6515 3607 f59a ce3f 36b3 6943 fccb cf3f
000002b0: 3eb2 d3aa eef7 c93f 0248 75d1 f75c 983f
000002c0: 00c9 315e 1c06 b83f 26fe e9e9 1553 bc3f
000002d0: e70d 4650 d4bb ac3f eb2e 58b9 bd31 c83f
000002e0: 3d43 051c ae52 cf3f e70f 29b7 4fae c6bf
000002f0: 944f 420c 5ab1 ca3f e8dc f58c 07e4 c13f
00000300: 2239 f07d dabf cb3f 1917 013b aafd c3bf
00000310: 8b1a 80c9 28a2 61bf 585c d026 afbd bcbf

action_mean.weight f8 [8, 100]
-0.03434843930180539 0.14085576005893838 0.03224678333795214 0.029441809399357647 0.02214962735532714 0.04577831940513718 0.08141959318340672 -0.11150531027394033
-0.21687157276044364 -0.11547386484765987 0.2594629971038647 0.054047944996037996 -0.010330682454546108 0.2316261008725646 0.05224192350460878 0.12170358317181068
0.18974185142027256 0.005830741937711295 0.047396401202822167 -0.2997210077832262 0.0524180812247318 0.11197121856488851 -0.08117380349945265 0.12616273501963102
-0.11192005455458617 -0.018205295376445538 -0.049797862578172716 -0.0736457361316708 0.2344848407286013 0.05442938523817987 0.03574990255494866 0.01870616348337865
0.17738672459937357 -0.1571875044443867 -0.09993091945340518 -0.05279685536031627 -0.06818886325133901 0.052214220927891714 0.04877126132519607 -0.05594595347597468
0.19892391138715862 0.002108643939738412 -0.09881749863209148 -0.06806151123139641 0.028132216508793207 0.18199774161624252 0.10046592692216436 0.057348536808929026
0.24165561821235465 0.10857326754050602 0.2792343171661358 0.19390038023104944 0.022321784883107758 0.07211957379610193 0.22623413605409196 0.19312814861574884
-0.20320469399219235 0.13642724472884601 -0.051025710804058204 0.1381802467080777 0.1519028262140299 -0.3542212953298401 -0.01057809702887815 -0.13984186586756567
0.04906698629797065 0.018723941884419535 -0.21367069170494782 -0.028618362215044005 0.36925903860393317 0.04126798801525611 0.06835991924502967 0.24315347297917342
-0.17434851925621603 -0.18619386550401834 -0.05874818949118513 0.145129485300797 0.11349367869892574 -0.13395045529304267 0.017881082048191308 0.13343518687431608
0.08279207264917654 -0.28486480907196754 0.11744533678833441 -0.015696700687239197 0.0618977882995786 -0.1586474636589849 -0.20522959090746973 0.05168555477130117
0.04726063322285505 -0.043908731256931476 0.00201838327266789 0.10526455057416285 0.05023135530643601 -0.05966484678452612 -0.08427719477132284 -0.11635664842556219
-0.01851520933974789 0.021352874158469374 -0.23984535265480186 -0.0758389595862605 0.16354576751456043 -0.1046229578409539 0.06068082576121448 0.19828304873747177
0.01338124365489917 -0.14782842074248279 -0.10448691028969274 0.05076770369226011 0.01687390999578685 -0.16748569176799077 -0.1411503137374685 -0.07235281835406186
-0.042666714111376416 0.019238028597536892 0.35645191191527204 -0.024290173437856867 -0.13656540079613902 -0.061650234332743886 -0.05910255497041969 -0.07288560062722112
-0.19475880964873082 0.19153779281176322 0.17194878628001992 0.04767094085296253 -0.030899117545126906 0.31966775159035865 -0.09619167875710699 0.09653756883861822
-0.029647762619491837 -0.12440325055118724 -0.18012997189391255 0.03002143890643733 -0.007003283846944398 -0.12521196510181287 0.01719629193657429 -0.009559749838152718
-0.1503463382562223 0.017739998276947756 -0.1090958030479572 0.29712619972390114 0.05422273398568441 -0.0842834636965427 -0.09121864063381299 0.030967064283198887
0.13190892440015295 -0.14142434120093855 -0.010977893922652271 0.027898259699882747 -0.20986359229922322 -0.04362813997012382 0.019073295527888272 -0.19546146674923973
-0.1561833829288797 -0.06647754595174529 0.020039157638129506 -0.06376807295982886 -0.0769260917314096 0.10917000855233043 -0.22282765999840518 0.2891363899730514
-0.01832937659212656 0.1493061925902675 -0.15758910846382665 0.2827276513963701 -0.08585305337265944 -0.10681975660197128 0.03668665765193575 0.04950938660817406
-0.3089770566102288 -0.27300227309032693 -0.05590836114222708 -0.0316178440787942 0.18698095668251305 0.11550503059252232 -0.02729577628408325 0.03043505481978352
-0.03569538440866734 -0.12039269691816709 -0.029109726244062387 0.13819476740257483 -0.07850612096520242 -0.1962681993846842 -0.09087450365585241 0.12351775946605259
0.37423373067071825 0.01604750484032174 -0.17101808859075823 -0.11076209804013576 0.16054287613879156 0.1532447484753326 -0.11918473622354082 0.15716041890723456
0.016064413833242745 0.1313998814357457 -0.16439987428771502 -0.0046660466725721985 -0.04460833453116421 0.09022823151377933 0.041035738274030155 -0.1588826212407263
0.03944759597271159 -0.03180967931930488 -0.048520534558423624 0.014565503677947048 -0.05634656969496763 0.009376249519325102 -0.09322623792505952 -0.04837170644935947
0.10971244135944118 -0.13713197541251562 -0.08935167614115691 0.016682223922135645 0.1579374078589889 0.16378741899065014 0.01784461545481107 -0.0685108764443584
-0.05428442180081347 -0.09919890371996293 -0.054121953652054765 0.03662727774390893 -0.28098607483036353 -0.06264062042919585 0.030702497252753386 0.017821978091103197
0.09795538277491199 -0.3110808779350991 -0.08240701278260776 -0.12097704132548487 -0.21112725034054555 -0.02396105583721902 -0.04623789957234925 -0.1856374340197544
-0.12302145320673692 -0.0878751595442526 0.01171354427777334 0.07778085906551711 -0.11708320280223317 -0.07995700601985434 0.010479061453049872 -0.007357404377593228
-0.10885203871659783 -0.02663466976367507 -0.17991491667479934 0.02090023678634672 -0.15233593597555506 -0.26526291364679566 0.03547540173768554 -0.049205449950005434
-0.06272046007585573 -0.12314038738397015 0.10741819915651991 0.16505646097737525 0.09388337530129881 -0.07964281788516614 0.04962130395677163 -0.01784367205336678
00000000: 1b96 f05e 1e96 a1bf b703 74c1 8f07 c23f
00000010: 4ce7 ac7f a682 a03f 116f 0562 fe25 9e3f
00000020: aa59 7054 64ae 963f ebfb 6b81 4170 a73f
00000030: 7ef2 f919 ead7 b43f d3f7 f4ac 9c8b bcbf
00000040: 9b16 389c 72c2 cbbf 803c 10f9 b18f bdbf
00000050: d553 c5af 0a9b d03f 3915 5918 2cac ab3f
00000060: 6314 4dba 4028 85bf 97e6 1290 eca5 cd3f
00000070: 4267 dd11 74bf aa3f cc68 874d f727 bf3f
00000080: fc2a 4403 7649 c83f 1d32 f1de f9e1 773f
00000090: 8e7a 3a52 5744 a83f 7c99 9605 a12e d3bf
000000a0: 5199 28f1 8ad6 aa3f c457 d451 25aa bc3f
000000b0: cd73 526f cec7 b4bf a70d 71ba 1926 c03f
000000c0: 7e17 14ee caa6 bcbf 7cfe 05b1 68a4 92bf
000000d0: 3a2f 5efe 1a7f a9bf 28e5 2c6c 72da b2bf
000000e0: 7726 2b69 9903 ce3f 0128 141b 2bde ab3f
000000f0: ca0c 9eac cf4d a23f eb36 9461 b527 933f
00000100: 1d0e 73b2 9bb4 c63f f1d8 765b b81e c4bf
00000110: aa5d e99e 1295 b9bf ca59 357e 3008 abbf
00000120: c1ac 9d49 d374 b1bf bcf6 8a86 d2bb aa3f
00000130: c3b5 c0f8 8bf8 a83f d6b2 0bb1 f2a4 acbf
00000140: 896e e6b6 5676 c93f ef9d 5298 2546 613f
00000150: 3bb9 e584 1a4c b9bf 5bed daac 7a6c b1bf
00000160: cd1e 7a17 b1ce 9c3f ed03 18b6 b34b c73f
00000170: ae36 7e8e 22b8 b93f feb6 2294 c95c ad3f
00000180: daf0 8e40 92ee ce3f c16b 4e29 75cb bb3f
00000190: 8090 099d f9de d13f fe1c e347 bad1 c83f
000001a0: 1ec4 3ea0 85db 963f 3a10 dbaa 6d76 b23f
000001b0: 75aa cb7b 3df5 cc3f 02ef 1e55 6cb8 c83f
000001c0: 298a 8b85 9c02 cabf 7367 32ad 7276 c13f
000001d0: e731 51be 0a20 aabf 6f3e 48ec e3af c13f
000001e0: 722e 6143 8d71 c33f 4942 bfcb 8fab d6bf
000001f0: 4bf4 5726 f8a9 85bf dda3 4198 56e6 c1bf
00000200: bb16 edda 4e1f a93f a9e2 2e78 5e2c 933f
00000210: f943 7eac 8f59 cbbf 8462 1dc7 214e 9dbf
00000220: 549a a3a9 f0a1 d73f b063 cbe5 1321 a53f
00000230: 0dbd 8321 0980 b13f fb5b 2d2b a71f cf3f
00000240: 62de 2762 0d51 c6bf 4a1d 8759 33d5 c7bf
00000250: 14b1 2021 3e14 aebf aaaf 865c 9a93 c23f
00000260: cc8a 50f6 eb0d bd3f 7a4b 62dc 4925 c1bf
00000270: e9cf 741a 6b4f 923f 1363 e179 6714 c13f
00000280: e871 657c dc31 b53f 62b4 af9b 393b d2bf
00000290: 94d7 92c8 e510 be3f 2a5b 6dc0 cb12 90bf
000002a0: 0102 e220 11b1 af3f b61c 0162 8f4e c4bf
000002b0: c03c 8f96 f644 cabf aa32 d66e 8776 aa3f
000002c0: f62b 29b4 8b32 a83f 7bc6 8389 347b a6bf
000002d0: e76b b344 db88 603f 29e8 241a 9ef2 ba3f
000002e0: 86bf 8c98 ecb7 a93f b21e 520b 648c aebf
000002f0: 8469 57b3 3093 b5bf 1bf3 a89f 8cc9 bdbf
00000300: d509 5faa a6f5 92bf f1b2 be20 87dd 953f
00000310: b7fe dfa4 40b3 cebf 0e87 2f9b 2e6a b3bf
00000320: a1e7 6f55 11ef c43f 7272 56f6 91c8 babf
00000330: 7102 47a4 8e11 af3f dedc d6c4 5661 c93f
00000340: dc52 051f a067 8b3f b30f 41ac 0aec c2bf
00000350: abe7 8d76 a7bf babf cc40 1a76 39fe a93f
00000360: 3da7 59ee 6447 913f a881 58d0 2b70 c5bf
00000370: de49 a9a6 3611 c2bf e3a7 9adc b685 b2bf
00000380: cae7 785b 69d8 a5bf 86ea a93e 22b3 933f
00000390: 0075 11ae 1bd0 d63f 3a7a 1ef2 85df 98bf
000003a0: 519f 179d f97a c1bf 24ef 7f98 9e90 afbf
000003b0: 4c7e 6aa9 b042 aebf 3d11 0b77 a1a8 b2bf
000003c0: cc4b 064f dbed c8bf c18a 0976 4f84 c83f
000003d0: 166d d4f6 6a02 c63f 60b5 dd57 5368 a83f
000003e0: ac89 53ad 04a4 9fbf fea6 aaba 6f75 d43f
000003f0: 98bb 6892 04a0 b8bf 6a49 ffa4 afb6 b83f
00000400: 17b2 66ab fb5b 9ebf 5529 a234 e4d8 bfbf
00000410: 1429 28b9 7f0e c7bf 51c7 20a9 f0bd 9e3f
00000420: 9b4c 65b1 79af 7cbf 2010 9717 f206 c0bf
00000430: 8f93 eb9d e79b 913f df6d 4de7 0f94 83bf
00000440: 4a21 f17e 8c3e c3bf caeb b821 6f2a 923f
00000450: 11ca 38da b3ed bbbf b354 a69b 1d04 d33f
00000460: 3b21 560a 15c3 ab3f c795 2be0 9993 b5bf
00000470: 36cc 4ed6 1a5a b7bf 2ddb 6581 d4b5 9f3f
00000480: 5eb2 2c42 64e2 c03f 067f 285c 311a c2bf
00000490: cd94 03fb 937b 86bf 51f1 1a84 5c91 9c3f
000004a0: 3beb c568 cfdc cabf afc7 b674 6d56 a6bf
000004b0: 3eaf 1332 f387 933f 7578 a89f e104 c9bf
000004c0: f1d8 ed2c d1fd c3bf 12f5 c725 ac04 b1bf
000004d0: abd6 c71a 2585 943f 3e33 e4bb 1a53 b0bf
000004e0: 4e0c 32a8 6db1 b3bf 53b1 6fd0 90f2 bb3f
000004f0: 892e 2be4 9d85 ccbf f322 c1ea 3581 d23f
00000500: abb6 13a4 efc4 92bf 22fb 211f 771c c33f
00000510: 536a 8741 e12b c4bf f006 1bb8 3518 d23f
00000520: 0650 7f38 77fa b5bf cf11 2c21 8a58 bbbf
00000530: da14 a1f5 97c8 a23f 517d a758 4b59 a93f
00000540: ccbc 56b4 47c6 d3bf fb05 aa86 de78 d1bf
00000550: a08e 5b4d 05a0 acbf 80af 93cc 3630 a0bf
00000560: 458d f6f2 fdee c73f d419 ebd8 bc91 bd3f
00000570: 7016 d689 6cf3 9bbf 6b68 69f4 5d2a 9f3f
00000580: 1b87 4e59 aa46 a2bf 26d6 f047 0ed2 bebf
00000590: 21e4 daa8 f0ce 9dbf 2377 3cbb 5db0 c13f
000005a0: 4bd4 1426 fa18 b4bf 300f cdfc 501f c9bf
000005b0: 7bfb 3d2d 8d43 b7bf 90c3 6121 dc9e bf3f
000005c0: 959c 9208 72f3 d73f cee6 e2d1 c16e 903f
000005d0: 4ac8 c2b4 ebe3 c5bf 9cfe b7a4 e75a bcbf
000005e0: 0b9a 4f41 ab8c c43f 4a1e 7e1f 869d c33f
000005f0: d532 4310 e482 bebf 6553 b725 d51d c43f
00000600: 5e39 2c90 3073 903f be7e bb18 b6d1 c03f
00000610: ae20 c419 0e0b c5bf 7fd1 c35d b41c 73bf
00000620: 3279 e153 e7d6 a6bf b710 8787 3219 b73f
00000630: 6d56 b5e3 a202 a53f b5da 1007 4456 c4bf
00000640: b99c 37ad 7932 a43f 8ecd beb8 5b49 a0bf
00000650: bdc9 39fa aed7 a8bf f588 92cf 84d4 8d3f
00000660: bdd0 2924 75d9 acbf a96a 5be8 da33 833f
00000670: 346a 04bb acdd b7bf 4ae0 8022 2dc4 a8bf
00000680: eb65 9a53 1d16 bc3f 0bfa d062 8a8d c1bf
00000690: 387a de5e c0df b6bf 5134 ae18 2515 913f
000006a0: 24e1 c800 4b37 c43f dad1 0774 fcf6 c43f
000006b0: 3b06 27df db45 923f 69b2 bfc5 ed89 b1bf
000006c0: cc2e a2f0 2acb abbf 2cbb 466f 1965 b9bf
000006d0: a3c6 dc69 dfb5 abbf fd6a 1a80 cfc0 a23f
000006e0: cec7 8104 adfb d1bf f200 2538 3709 b0bf
000006f0: f5a6 6cb6 7970 9f3f 608c 34b4 ec3f 923f
00000700: bf43 7c9d 9a13 b93f 1c1a 49c5 bfe8 d3bf
00000710: 40c3 dc40 a018 b5bf ec4e 0ff4 59f8 bebf
00000720: f3e6 c0bd 3706 cbbf ce3f cb3c 3f89 98bf
00000730: 5079 ff74 7eac a7bf 289c 03aa f7c2 c7bf
00000740: 55b5 3a7e 557e bfbf ae93 5f88 fc7e b6bf
00000750: e90b bf4c 45fd 873f 3ff1 f045 72e9 b33f
00000760: 984f f22e 2af9 bdbf 48fc f0f5 0f78 b4bf
00000770: f775 ded1 0b76 853f eb9e f632 cc22 7ebf
00000780: cd05 642a badd bbbf d189 4c6e 1e46 9bbf
00000790: 6125 97b5 7307 c7bf 8e70 e725 df66 953f
000007a0: aca1 8273 be7f c3bf 2419 bd4c 11fa d0bf
000007b0: 6838 8df4 d429 a23f 42f6 a3ec 7431 a9bf
000007c0: 1fdd d0b4 720e b0bf 2884 a1e0 2086 bfbf
000007d0: 0d5a 5f54 c27f bb3f 0017 f2f2 9120 c53f
000007e0: dca2 8eaa bd08 b83f 2896 2dc2 7863 b4bf
000007f0: 5bc1 5bab f667 a93f fe97 a38f 9c45 92bf

action_mean.bias f8 [8]
-0.16270493738171193 -0.33724977455995764 0.14588431459260975 -0.26048042765782337 0.17155324655631338 0.11908619326150222 -0.06835867120742614 0.33580567784413345
00000000: 0ee1 79f0 83d3 c4bf 8460 1414 8095 d5bf
00000010: 6c5a 1654 56ac c23f e375 8219 b6ab d0bf
00000020: deb1 bdef 74f5 c53f 049a 76c9 6e7c be3f
00000030: aae1 3b31 f47f b1bf e1b4 0919 d77d d53f
