2IWIL_Repo/log/2IWIL_ANT/Ant-v2_1111_True_mixture_0.2_600.pt (torch_old, 178037 bytes, 7 tensors)

action_log_std f8 [1, 8]
00000000: b373 b195 b73b 00c0 d3aa a9cf 70cf 02c0
00000010: 7667 63d9 696f fcbf ee74 3cb7 51c3 ffbf
00000020: 4b5d e084 a945 00c0 cbc4 f08a 3fb7 ffbf
00000030: 7d11 3040 c1b5 00c0 9a6f 9177 56fd ffbf
-2.029158753850845 -2.3512893890050264 -1.777200555012738 -1.9851853521025151 -2.0340147381754483 -1.9822383334506408 -2.088747502772263 -1.999350039542128

affine1.weight f8 [100, 111]
00000000: 336b f91c a4ac a23f 8b22 f6bd 9aad a53f
00000010: 0678 a11a 5bfb a13f 0297 38bc 90a0 b33f
00000020: ce7c f957 9172 bbbf abce 7ff9 26fc acbf
00000030: 93ca b6e3 187b b23f ab09 a275 90eb b4bf
00000040: d63a f0d9 00b7 ac3f 3c64 408b e63d 39bf
00000050: 81d9 2d45 bb7c b0bf b691 ad8d da10 a13f
00000060: d2e4 eadd 2233 44bf 26bd 96e4 77fb a1bf
00000070: a516 dd84 08bf b2bf 38d4 841f f418 c0bf
00000080: 28e4 e3cd b101 b4bf 9e04 5e12 79c9 a23f
00000090: 89cb 0c7f cf12 9f3f 3861 f65b de80 a63f
000000a0: 1336 83bf a236 d5bf 8925 80a9 4bde b73f
000000b0: 503e cd26 b366 c43f a977 893d 96ae c93f
000000c0: 8f95 7c1d d261 bb3f da02 1f30 603f d4bf
000000d0: 8629 2fd3 bf3c c03f 87a3 e316 acae b43f
000000e0: 3018 336c 4ba4 843f 2726 ff94 2e49 a7bf
000000f0: 1bca 1900 968c b23f 52fb c231 3336 af3f
00000100: 0077 c38e 7f3a 3dbf 2a3c a457 f8d9 b2bf
00000110: 47b7 e623 5abb b3bf dad0 8bee 5307 a4bf
00000120: ca9b 9131 17ea af3f d880 74bc a20f 96bf
00000130: bece 3543 0b62 a7bf 2b2e 1ad4 8626 aabf
00000140: 24e7 402e 1652 b4bf a0fb ae5a 534d 75bf
00000150: e747 0df6 7f28 b83f 3a46 c49d 53ee b5bf
00000160: 31f8 b7c3 4db7 b6bf ad67 76d8 fb2b b73f
00000170: a048 0f99 7f81 683f fa0d de09 2528 a5bf
00000180: 1643 0f24 9164 a33f 6f13 8369 834e a1bf
00000190: 5a7d c8d7 2db4 a73f 641c 4e62 1991 98bf
000001a0: c013 aa55 3cb1 83bf 907b b4f4 ea2c 74bf
000001b0: 4983 90f5 7fe7 abbf 358f b9eb 5a3d b23f
000001c0: 3ea1 6668 695d ab3f 4f29 6492 e812 a7bf
000001d0: 9201 4f5b f15d a83f 60b5 a040 2054 8fbf
000001e0: 3c68 81a7 179c 923f ced7 f78b fedd a33f
000001f0: 4d79 b6ab 5027 a4bf 80ea 7a9a ac63 68bf
00000200: d658 6d7e 1967 b7bf c2d8 a12f 935d ac3f
00000210: 097f ed35 7132 a7bf 81cb 8290 f7e5 b43f
00000220: 7638 64d2 57f6 af3f b2e6 ce27 c5e0 a83f
00000230: b713 bd72 aa70 adbf 41e9 ef02 4ffd b03f
00000240: 3810 7769 23aa 853f e05e 9988 0edc 8c3f
00000250: 4de8 a4d3 10dc a8bf 9ea3 a8c3 c073 a33f
00000260: 2497 26b5 cb10 b6bf 4996 c7b1 2100 b83f
00000270: 54f2 e41c 0789 b2bf 5c49 0a98 b75c 963f
00000280: bb7b bce8 663b b53f 98ec 2426 0107 87bf
00000290: a68f 9b92 0cac a43f 83ba ea0c b30a b73f
000002a0: 00fc 588e 3e43 133f f02f 79fb c6aa 90bf
000002b0: 5c9a ffef 9814 9d3f c0a8 1c88 8ade b1bf
000002c0: 3c3f a1f3 54e9 973f be2b 960f 588d a73f
000002d0: e564 ffbf 6aaf b43f 2a40 ae16 c304 a33f
000002e0: 7c79 c189 99da 90bf 7710 1b62 13f1 b33f
000002f0: 4408 f025 475a 98bf 707f cc0d f063 91bf
00000300: b0ab 5fec 5547 7bbf a8ca 6f49 f1fa 983f
00000310: dd23 0199 ec51 b13f 38bc e754 3f1b 853f
00000320: 5b04 78cd a1a5 b2bf 4721 778e 26df b33f
00000330: 40b1 c5b1 c2c0 813f db1b 0b6e 1000 b03f
00000340: ca66 9e92 1693 aa3f 844f ef59 229f 943f
00000350: 24e5 2250 5973 953f 52dd 1c2b 6300 a43f
00000360: 0c85 e539 7059 96bf 3bfd 58cf 71d4 b33f
00000370: 817e 7959 f392 a9bf c6fa f38c 00ea b83f
00000380: 9818 a07c 7f97 bf3f 2f6e a5a7 48c9 b8bf
00000390: 501d d688 841b 543f 7ac6 f5e2 40f1 7a3f
000003a0: 370d 15ae 7df2 b93f daf9 277c bd2f 923f
000003b0: 5951 bda6 a9dd c13f 9e0d 8a8b 5d2c 7fbf
000003c0: 4aed 7269 6645 963f 9812 9034 435e a73f
000003d0: ab42 e49c e312 ae3f 96a6 e4e8 7be1 b13f
000003e0: 8a2a 4135 ad7a cbbf 5088 2778 7464 b53f
000003f0: f92a 6f0e 7531 bf3f fc3d 4a04 4126 b3bf
00000400: 08ba 1fa5 33db d0bf d14b 0bf8 5b01 b5bf
00000410: 1533 62b8 9bcc a5bf fe87 1766 0433 a8bf
00000420: 13db f944 bcac d63f decf e852 6f6d b13f
00000430: ab9a b261 555a a03f 2ca9 1375 7e89 d33f
00000440: 5282 9efd fee6 cebf ed9b e749 c426 c33f
00000450: a5c6 844a e99f b03f 67c0 6b23 834a b23f
00000460: 8de5 5b73 69de b63f bba0 21dc 14ff a5bf
00000470: 95f8 91ae e969 b13f 9385 0292 d20d a9bf
00000480: edc5 f369 f301 a9bf f0f1 df82 4e8c 963f
00000490: 800b 3c96 02c2 43bf dca7 e152 d295 96bf
000004a0: 7851 d56a fce7 82bf b073 8bb3 5524 79bf
000004b0: 240d c0b8 d03a 91bf 30b9 0a99 f9f6 85bf
000004c0: 6f01 a539 9710 b73f e79a 200f 4ede b1bf
000004d0: 23be 4a2d ef94 b73f 10db 216f 1328 973f
000004e0: cb0a 6ea4 5b64 b73f 3d97 0d0d f6b9 b1bf
000004f0: 3c7e c69f 5f28 96bf 0e03 0485 f90f a03f
00000500: 48fa d460 9ff5 853f f4df c2f6 757b 9a3f
00000510: d590 785d b83a a5bf 90ef f6bb 98e7 9a3f
00000520: bbbc 43fe d3f8 b73f b045 4b71 225b 793f
00000530: 4a95 6632 803e b2bf 41f6 1a18 f392 a3bf
00000540: 7b0a ffbd dba7 adbf 9e37 f826 00e7 a03f
00000550: 6878 7d61 f9df 983f f71b 6931 8337 b4bf
00000560: 3d66 2ce4 1590 b2bf 18c3 718e 6aec a3bf
00000570: 32db d65c 0990 b1bf 99dd 266c 006e b2bf
00000580: 403f c805 5a19 5e3f bc9b f56f 9412 983f
00000590: 516e e657 e615 b6bf 788c c6d6 7670 893f
000005a0: 550e c2e9 ee71 b13f 8c71 b3d5 9387 933f
000005b0: 884c 1651 cad3 86bf 9e70 d4d5 52ae b4bf
000005c0: 019f da2c 0166 b4bf a25e b219 0f4e ac3f
000005d0: 60ae 8c1c bf2a 803f a41a 762a 78aa 9e3f
000005e0: 43c0 e691 9178 a3bf d886 ed99 6f2c 933f
000005f0: 2fae 25a1 b994 b53f c4e4 6f4b 68dd adbf
00000600: d0be ccc6 ca90 893f 05c6 0a37 92ec a5bf
00000610: 293c efd5 5016 afbf 5de4 eecb f1b8 b6bf
00000620: 09ba d197 2c26 a2bf f934 2896 9ddd a8bf
00000630: 6b54 0e46 a106 b6bf 78b7 f055 e66d 863f
00000640: 8da7 abf2 e938 abbf e04a 7418 4710 863f
00000650: 00e0 5aa6 69c0 19bf e19d 009e ffce b4bf
00000660: c6b6 ec31 8fcf b6bf e5c1 4818 cfc1 b0bf
00000670: 8333 f063 84bf b23f bc98 5075 b5d9 943f
00000680: b4ae 4938 c27c 9b3f 8497 b5b0 9930 99bf
00000690: c0c5 1426 644e 683f f94f 0094 7f68 b5bf
000006a0: b80a 04b3 76b5 b6bf c3c1 1c3d 0671 b63f
000006b0: 007c 7cd8 3817 363f b25e a2a3 05ee a3bf
000006c0: 507e 174f 8b80 b2bf 03ed d2e0 649f a1bf
000006d0: 1e42 09bc 7212 ae3f 88da c9e5 b66d 9bbf
000006e0: 40b3 c725 d203 553f f1ac a48d e64c b13f
000006f0: dd07 aa5c 4538 c3bf d3a7 2019 5d59 c63f
00000700: c8db 873e c831 103f 59c0 fbc7 08c5 acbf
00000710: f51d 34b1 7548 a6bf e72f ced6 b372 c0bf
00000720: b8b9 56b0 15bb b0bf 187c 47e8 16bc 7f3f
00000730: 407d 0494 821a b13f 1ec7 dee3 0051 79bf
00000740: 23a7 501c 31d8 b63f a55e 53fe f41d b0bf
00000750: 5c12 f4b5 9bfb b6bf e613 1c3f 0e2d 3fbf
00000760: 5445 a2c1 c2fe b2bf 145f 3082 34d6 b13f
00000770: c4f7 7076 5674 b2bf 2a6a e83f 14ba b1bf
00000780: f1c6 80c9 2835 adbf 17ab 7437 c6e7 c43f
00000790: 490c 00e8 ed63 d03f b2a9 3eab eb53 dbbf
000007a0: 5afd f636 0245 ca3f 3d29 943f 59e8 a43f
000007b0: 09d9 326c 66c7 91bf 4439 096d 7127 c6bf
000007c0: c4d9 4e82 55de c5bf 9a27 5931 41f1 b3bf
000007d0: 2f28 b420 04ae b13f 10e8 a9ef 0952 973f
000007e0: 6ddb ab45 ae64 b2bf 7e69 c70f 0289 b6bf
000007f0: 4613 f584 b2fb a93f 32d6 acdd 4d23 a03f
0.03647339681329811 0.04234012192597899 0.035120818138906926 0.07666878314247685 -0.107216915109791 -0.0566112689556609 0.07219081458496594 -0.08171942588709295
0.056083704570587464 -0.00038515928759036747 -0.0644032520193374 0.03333170871227102 -0.0006164474724165375 -0.03512167611494936 -0.07322743648281944 -0.1257615236187648
-0.07815085674873556 0.03669336652002041 0.030345193986430572 0.0439519393214049 -0.33145970060726987 0.0932357109851606 0.1593841495000441 0.20064046864257293
0.10696137637986268 -0.3163681478436452 0.12685392200212336 0.08079028662508679 0.010078992118348479 -0.04548020905310706 0.0724576711889217 0.06096038801614746
-0.000445991651543895 -0.07363845958410367 -0.07707751633162473 -0.0391184071249044 0.06233284454429329 -0.021544020416627813 -0.045669891313904185 -0.05107518519534112
-0.0793775427745485 -0.005200696566077051 0.09436797864080369 -0.08566782571531287 -0.08873449352538 0.09051488909463386 0.002991437162998059 -0.04132190461589498
0.03787663998776318 -0.033802134160885504 0.04629653224059878 -0.023991009354656603 -0.00961539398600475 -0.004925649448778283 -0.05450057861913266 0.07124870543480884
0.05344705008912108 -0.045066135282541546 0.0475917266808238 -0.015297176334650942 0.018173570250248114 0.0388030572757284 -0.03936245056250929 -0.002977215877618733
-0.09141692482566852 0.05540142017791673 -0.04530671866700515 0.08163401868914201 0.06242632334952784 0.04858986006679568 -0.057500196939634866 0.06636518308360896
0.010578419357337152 0.014091599982904268 -0.04855396827265732 0.03799250019466814 -0.08619378254533366 0.09375200834582488 -0.07240337806155966 0.021838062910839326
0.0829376524165885 -0.011243828751153637 0.04037513055462165 0.0900070101294919 7.348126708793534e-05 -0.016276463602750313 0.02839888539156231 -0.06980195830388691
0.023351027841555835 0.046000244047796 0.08080165088121623 0.0371457066713677 -0.016458891900009473 0.07789727349433116 -0.02378188294461149 -0.016982794611180407
-0.006659827840830454 0.024394769770831687 0.06765631423435488 0.010305876520730547 -0.07283984438255812 0.07762375810773846 0.008668442773988816 0.06250097929579061
0.05190344371585594 0.02013829873960972 0.020947833553440223 0.03906545544890129 -0.02182555535671775 0.07746039688298804 -0.0499492689821155 0.09732058945881325
0.12340542595493031 -0.0968213471691619 0.0012272638590234593 0.006577733481536558 0.10135636806540026 0.01776023931778945 0.13957710877969978 -0.007610669527483264
0.021749115167705647 0.04564104096065086 0.058737862493335534 0.06984686313503582 -0.21468129253692708 0.08356407102067576 0.12184840776823681 -0.0748024592851308
-0.26337901234993 -0.08205199056401048 -0.04257666230942029 -0.04726423021544689 0.3542929338067761 0.06807609342723661 0.031939190078721445 0.3052669661834837
-0.2414244402289279 0.1496205674040704 0.06494005269339682 0.07144946684616259 0.08933123651867998 -0.04296174227857948 0.06802235137908703 -0.04893358261439142
-0.048843008693335445 0.022019602525675752 -0.0006029617911454815 -0.022055898960765194 -0.009231540689747617 -0.006138167162785743 -0.016825925136811595 -0.010724973662345677
0.09009690434777949 -0.06979835385628129 0.09211630683670839 0.022613814981435942 0.09137509121323288 -0.06924379175833635 -0.021638387801088607 0.031371877181305505
0.010722394125534454 0.025861590562925543 -0.04146362439158372 0.02627409598584013 0.09364056546813775 0.006190428296308267 -0.07126618605123727 -0.0382305113721313
-0.05792128271379667 0.03301239467337712 0.024291893554043403 -0.07897205311120091 -0.07251107044830803 -0.0389130877382568 -0.0686040736826328 -0.07199099197793259
0.0018370989920448305 0.02350837643953317 -0.08627166410445254 0.01242153971617753 0.0681447334955519 0.019071874540587383 -0.01114614543874938 -0.08078496666388665
-0.07968146653240284 0.05528304279976949 0.007894032534372986 0.029947164146075025 -0.0380292406656513 0.018724197168359463 0.0843006151605372 -0.05832982941496703
0.012483200256240862 -0.04282051965618553 -0.06071713077073355 -0.08875952938878258 -0.035447495968458816 -0.048565792636603385 -0.08603866539336173 0.010951804635705761
-0.05316859328543364 0.010773234781060237 -9.8234604218983e-05 -0.08128354651909532 -0.08910460442413201 -0.06545729010463892 0.07323481979274331 0.020361743245438588
0.026843104062591563 -0.024599458132250188 0.002967067339931545 -0.08362576831160586 -0.08870641584875727 0.08766211502075465 0.0003370775016139915 -0.03892533895958418
-0.07227392846061176 -0.03441920513565757 0.058734498456605375 -0.026785714888740958 0.0012826492521711003 0.06757966001594064 -0.1501547529661015 0.17460216261798553
6.177696889851571e-05 -0.05619075242236766 -0.0435215739071814 -0.12850044239564726 -0.06535468630929742 0.007747735482978711 0.06681076158246402 -0.006180766560577115
0.08923632565770538 -0.06295710763094549 -0.08977673713895612 -0.0004757079869793221 -0.0741998408068601 0.06967476061288053 -0.07208767310746028 -0.069245591738231
-0.0570461984610925 0.1633231898097953 0.25609920173900896 -0.42699710581896533 0.20523097690418518 0.04083517933948364 -0.017362213472289976 -0.17307870697045236
-0.17084759581275766 -0.07790000395576016 0.0690615253298865 0.022773890736495217 -0.07184876633605848 -0.08802807698467593 0.05074842331899858 0.03151934939380076

affine1.bias f8 [100]
00000000: 0572 fcb7 cec2 b33f 92d3 ee12 d0ec ccbf
00000010: 4f1a 8c7f c122 b3bf a923 869f 8887 ba3f
00000020: 2678 dea0 5b17 ccbf 5c3d 88ef f2a2 acbf
00000030: e455 9dcb 413c a3bf 939c 6e92 9229 b83f
00000040: 5d39 259f dae3 c3bf febb 7f15 6896 acbf
00000050: beb1 ac58 87cc cc3f 8cb6 7308 c783 c7bf
00000060: c58b 5eaa 7e2c b1bf d610 0f34 d7be adbf
00000070: 6778 69c1 c594 a73f 9bb8 710f b7a6 a7bf
00000080: 5145 2e2d 8cf2 c83f e555 5f96 bcc7 c23f
00000090: e1cf ac19 8800 bf3f 8a49 7a60 27ed 8cbf
000000a0: 0411 187a acdb b5bf c4a8 b498 0ab2 c73f
000000b0: e5b3 9740 d4ac 50bf 9cdd 0a7f fa66 bc3f
000000c0: e107 00c2 2237 b63f 02fe b577 ad1a c7bf
000000d0: de8c 9c4b 52ef b7bf 5509 1a9f 9d7e c0bf
000000e0: e16b 4b1c 20e8 c5bf 0d12 58a7 b1ce 61bf
000000f0: aa30 b6a7 54be c7bf 6235 b658 28bb 943f
00000100: 96af 768d 436b 8d3f 679a 8a38 e8cb c63f
00000110: 222b b415 51c8 bd3f a421 fee5 fc9c 8f3f
00000120: 16f8 1ae8 1d91 c0bf ed03 a241 d305 d4bf
00000130: 20b7 c585 e346 823f a627 8924 e083 ba3f
00000140: ca01 83b6 dbfe c13f 8de3 e458 f32b c3bf
00000150: 76de 810b 9220 a0bf 5472 3398 711e ab3f
00000160: 3240 f74f 616d d1bf ffd8 9241 c02b 973f
00000170: 0a6c c7bb bd18 a4bf 7069 01ee 2da5 c0bf
00000180: 9f06 8d29 6a95 c53f e10f 5222 09cb c63f
00000190: 9566 fd6a a6c2 a0bf 8e52 a07d 7af4 b0bf
000001a0: 216a b0a5 c2b0 a0bf 3b74 449d 4134 c43f
000001b0: f2cd 0e27 4fd4 a53f 9317 ccc1 8cb6 b03f
000001c0: 9749 be46 53bb cd3f 3156 a9ef 5d15 ccbf
000001d0: e366 75ee c885 bd3f 2e6a 4430 be46 c2bf
000001e0: 2274 b2a3 9e17 a43f dc59 8270 2140 d1bf
000001f0: fdea 8db2 b62d a5bf 455e 9ee3 7a96 cabf
00000200: 75c2 5307 3767 d4bf 87d7 66fa 1c10 71bf
00000210: ed63 2340 32f6 a33f 84a3 a89d 5954 c1bf
00000220: 3c79 e6e6 719e 92bf 57aa a35b 4809 c73f
00000230: 1380 22f0 958b ab3f d37d 3456 2145 b9bf
00000240: 909f f5c8 ab7d aebf 380c 7b82 3bf4 d1bf
00000250: e823 4bc5 c438 b9bf 6d5e c0ae ee63 9bbf
00000260: a1fd ebe3 dc5d c73f 761a 4b4d d62a b0bf
00000270: c0f7 77bf aa50 c23f c318 8f2c 47d1 c5bf
00000280: 3446 bef9 389f bb3f 5710 09f5 1dd3 c1bf
00000290: a2e8 98aa a303 d9bf d4f6 a2e2 1d7f d7bf
000002a0: 90eb 25b3 1c12 993f b6e3 1068 e35b b03f
000002b0: 6a34 b07e 8d0a c1bf 6a22 b439 0693 b8bf
000002c0: 9eb7 f342 6ae3 8abf b8fa 665d 2c74 bd3f
000002d0: a869 e90f 0094 bcbf 3fa7 d5c3 adf4 b5bf
000002e0: d643 ffea a636 c33f 3a96 64da 0968 bbbf
000002f0: bd5a 5cf7 5eeb c43f b033 7fe9 b42a b6bf
00000300: b819 539e df0c 9f3f adac ae6e faee 9d3f
00000310: 0cef 85e8 3faa a2bf 9a2c 22e8 9240 83bf
0.07719127647255426 -0.2259769527860525 -0.07474908222148112 0.10363057989719827 -0.21946282725269944 -0.055930701961296875 -0.03756909952668844 0.09438434672357436
-0.15539105196735195 -0.05583501112402443 0.22499172048391175 -0.18370902931876676 -0.06708518657119018 -0.058096623520698706 0.04605691896425484 -0.04619381011512865
0.19490196424571107 0.14672047941591795 0.12110186220962717 -0.014124210006490018 -0.08538320523081572 0.18512089210827842 -0.001017768170977756 0.11094632722494285
0.08677880512553272 -0.1805016359830774 -0.09349550577148899 -0.1288640047897142 -0.1711464059979724 -0.0021737546728692937 -0.1854959315209091 0.02024519959882321
0.014364745859744048 0.1780977512437005 0.11633784084203261 0.015436149376697746 -0.1294286139799971 -0.31285554322681614 0.008924272079379458 0.10357476131426199
0.14059015666681624 -0.14977876511127555 -0.03149849310369472 0.05296664221689143 -0.2723010331073993 0.02262783432225834 -0.039251259968033095 -0.13004087563860933
0.16862227467395471 0.17807115722473468 -0.03273506217983627 -0.0662304455475555 -0.03259857437679537 0.15784473589966005 0.042635415571023474 0.06528548938157845
0.2322792144228287 -0.21940206720562253 0.11532264539473717 -0.14278390270995217 0.039242703898004785 -0.26953922259545293 -0.041364392563044895 -0.20771728624525757
-0.31879974093957425 -0.004165757366015549 0.03898770363748114 -0.1353866596048442 -0.018182544439349288 0.1799707839448554 0.05379932934124567 -0.09871109346976618
-0.05955254390829545 -0.2805317663407467 -0.09852247063385244 -0.026748399177533622 0.18255196694370304 -0.0631536425308726 0.14308676098874962 -0.17044915843707117
0.1078982934689286 -0.13925528015727437 -0.39084712657825993 -0.367133590054306 0.02448315471108803 0.06390210428879936 -0.13313454328491342 -0.09599341305523415
-0.013129072349751966 0.11505391388252917 -0.11163330448599729 -0.0857647517310882 0.15010534738988096 -0.10705625135286648 0.1634329517189225 -0.086589152341914
0.03032254604183901 0.0292319421820763 -0.03645515168588362 -0.009400508603240976

affine2.weight f8 [100, 100]
00000000: 5a3f 9b90 1ac7 a63f e97c 666b 8312 bebf
00000010: 9e5e 4606 9588 a33f ec76 183c b1b8 b5bf
00000020: ef7d d41b 116b a2bf 3ede 20ed 1e59 a0bf
00000030: a0ae 6a64 703c b2bf 2271 c842 0c7b 93bf
00000040: 52ff 7838 b8d8 9c3f b7bf 691c 4750 b23f
00000050: 63c3 da23 ae22 bdbf f2ab 789b 363b a2bf
00000060: 49ba ec7f 43aa 9fbf dd55 8f56 777f 9d3f
00000070: dabd e2a9 c7f3 ab3f f0bb 9d69 9ca9 b33f
00000080: 7a07 13c6 ab17 90bf cf30 c552 9908 c2bf
00000090: 88d3 565d 44b1 b5bf e644 7daf 5300 b43f
000000a0: 1cf5 ba61 3ef1 ab3f 72cc b6c9 e2fb 833f
000000b0: 93a6 89f6 2a0b 8d3f d84f a218 2a0f 833f
000000c0: f729 a31d bc7d a03f 98f4 6b20 4959 b2bf
000000d0: b228 f33d 0bb6 b4bf 8066 3982 20f3 babf
000000e0: 3fff 5828 122e b93f a474 c72f d1e6 b2bf
000000f0: 06e4 415b 3f36 aebf c201 96b1 eaa4 a2bf
00000100: 7251 aeeb d0f3 a8bf 8e85 17b8 6b72 b1bf
00000110: 414a 7ba6 785a c1bf 0c93 4f7e 385d a8bf
00000120: 43f9 478c 55e0 a5bf f182 bfb6 a603 ac3f
00000130: 8608 13c8 cbef a53f 2085 7288 3a7a bf3f
00000140: 251b 2c03 e97e a8bf dc57 f919 a8c6 843f
00000150: 85e2 a75f 01fc b6bf 7ba6 0d1c 3296 933f
00000160: 6cee 707f a037 b03f f71a f3ca a198 bdbf
00000170: 5cc8 dc99 b75e b5bf 0a70 a76f ab22 c03f
00000180: 58cc dc30 afd5 a5bf b49a e124 788a c13f
00000190: f19e cc6c 17cc 8d3f 6572 6200 f8be 2a3f
000001a0: 7e8a 576e f7dd b83f 2c26 8701 5415 c3bf
000001b0: 5de5 dce7 cf2e b03f a2b2 cde2 7962 953f
000001c0: e16c 4662 cafc c1bf ae82 d84c 0418 c43f
000001d0: 7ad2 2290 c4d4 a63f 9259 83a8 633b bf3f
000001e0: d190 e559 fa05 c4bf 6a02 6934 da97 bc3f
000001f0: c477 c7b2 bf57 b03f 14aa 3cab cecb b53f
00000200: 5ab6 3430 7100 c23f ab65 fcb1 5f42 72bf
00000210: 986c 6a67 4c65 bb3f 4baf d10c 2741 8b3f
00000220: 4f15 fa10 5f1e babf 2ddf edfe a8e6 c5bf
00000230: 0f7b aad3 0fa4 893f 19f8 a0d4 b6ac c23f
00000240: 0970 7f8d 68b8 b43f 1349 1f99 b071 c13f
00000250: 5e1d fde9 2bb0 80bf 3a9d b90e a2c0 863f
00000260: 1902 43df e684 c13f 0739 36ca d481 b43f
00000270: 6e61 1aaf 8bd1 b33f e588 2140 f1db 8f3f
00000280: 8d1b 7dbb d8ee 9c3f cd9e ac92 e847 b13f
00000290: c382 8f1c f94b a6bf 991b 5ae7 4c19 b13f
000002a0: e0e5 7bfe 69a8 c2bf 50ab d0b5 d4a9 b4bf
000002b0: fe54 a39c 7806 c5bf ff33 c607 3967 983f
000002c0: 291b 0e29 1886 b6bf 5c21 c214 0e86 bdbf
000002d0: 7681 3145 3439 a73f a4dc a213 50c0 bbbf
000002e0: 7ee8 45f4 8b11 a7bf 5460 9b5c a4b3 a5bf
000002f0: fe18 bed6 cab1 b5bf 6332 39ed 434d 8f3f
00000300: 0bf4 05bd 5aad adbf 99c9 7fbf 9c60 b5bf
00000310: cc17 179f 73a6 a23f 4419 7954 aa58 b63f
00000320: 87ce d4a2 69b4 ac3f e276 1875 745f adbf
00000330: 82fb 5781 6b1d be3f 544d a2b5 fa0b 80bf
00000340: 5b9f 82a4 ed58 92bf effe bd49 6091 873f
00000350: 60ca df90 3fbc 84bf 56b5 e6f1 77cd 873f
00000360: 14a8 02df 5df0 a23f d0b9 f4a3 55be c0bf
00000370: cfd8 6eca cc6e 8bbf e28f efda 3288 a33f
00000380: 707b 8769 f7d4 a83f 2b79 1f25 35b8 b2bf
00000390: 73a8 0a00 54b5 c13f 05d1 5b26 b54e 9bbf
000003a0: bff8 7918 c3b0 b5bf 8db5 c5b2 b4b6 bbbf
000003b0: 8257 6e7a ca74 a2bf f3ba bfad 0d82 a03f
000003c0: 8750 c310 6e2b b2bf 8f7e 3e53 67fd a03f
000003d0: f978 2ad0 d56e 643f 73ec 696d b3a1 ab3f
000003e0: 9d6c c689 d48a 8abf 1ca0 4397 c847 b0bf
000003f0: 05fc 79fe 0623 bcbf c313 8b0b 4199 b7bf
00000400: 5976 9f7e 06a0 b03f 8bcd 691e aa18 aa3f
00000410: 0c16 e8d8 9765 bc3f 05a3 6249 9c6a acbf
00000420: 0332 84b0 af9a a7bf 6b55 3c25 fcb4 a33f
00000430: a7c6 0680 3cd1 b83f 73f5 5d74 17a8 ae3f
00000440: aadb c61a 6ce8 a0bf 6479 3d89 1474 843f
00000450: 6536 78fd c0f9 c0bf 9781 1626 19ff 59bf
00000460: 359a 355e 5b05 b83f 5a0b 06c6 f397 a1bf
00000470: 3d4c a2aa 8467 a23f 49bf 17fa ab5f 7c3f
00000480: c339 5f33 82c1 793f d650 534c 35c8 b73f
00000490: 1115 3272 f3f0 a4bf 9779 286e 15ab 77bf
000004a0: 776c a04f 9874 703f 5bc8 d965 ba04 a33f
000004b0: 50cc f20f 9db7 b13f 51f1 2582 7da0 8cbf
000004c0: 7f23 ba15 35a3 b7bf 05f8 da5d edb4 bb3f
000004d0: 3729 5d8c 0d5d a6bf 7188 06cb 773f bfbf
000004e0: 2df3 3e1a 2de2 b6bf a046 640e 346a b53f
000004f0: 89b6 fcc5 53f8 82bf 6fa4 4382 e2b2 9abf
00000500: 4e89 ae09 9d71 96bf c870 87ce 3e43 a53f
00000510: 5c05 70af adef 963f 0df9 584c fbf0 a7bf
00000520: 92aa eb75 72d4 b9bf d551 753b f920 85bf
00000530: 31ff 9a61 ace7 9e3f be3f 7f1b 58ef aa3f
00000540: c7e1 d628 c400 7d3f b3e1 d0f7 01ec c0bf
00000550: fb1b 15aa 6102 913f 5da5 bcea 9c60 adbf
00000560: 2ae5 c4b1 80bf 943f 8a5a 52d7 a22f b4bf
00000570: 6ff9 6c11 6385 a13f 2c20 6f81 f391 88bf
00000580: 659d efce bf88 b7bf 2d0b b967 b01a b43f
00000590: 5a4b 421f b711 a3bf 8e1f d882 ff9c b03f
000005a0: d176 779f e50c 8cbf 7684 2ae0 787c 853f
000005b0: 9072 ccae f828 943f f2f3 36ec cc85 a8bf
000005c0: 2efb e6a2 79e3 93bf aacd 87af a4a9 c0bf
000005d0: afac cfbe 73af be3f 6701 0fde a88f b93f
000005e0: 6bbc b136 ac68 c3bf be83 07d8 8eec 923f
000005f0: b4a7 9eb6 bd47 9ebf 5407 cb89 d7c6 b63f
00000600: 6cc6 9852 02ac 87bf 515d 07fc 820c 803f
00000610: 1c9a ed77 d155 bbbf c0bb 3b25 4ac1 a83f
00000620: f9f9 09c3 95d5 a1bf 65a9 fcdf f284 acbf
00000630: c345 d2dc 50ff 92bf 1322 0322 4697 bb3f
00000640: faa5 3183 28ae b3bf 8441 4f48 513c a73f
00000650: 6e7d 8125 f8e6 ba3f 2dac 49f5 040f a13f
00000660: 742c 8259 0bd8 c23f 4c17 da1a 3eca 483f
00000670: e8d5 25b4 f721 b93f ec81 f13c 830b c2bf
00000680: d557 99db da5c c23f c835 bbe3 c2c2 a63f
00000690: 71ce c4dd 0f65 b9bf 9e0a 9418 6e8d c43f
000006a0: 86fd 47a0 dcdd c83f 0742 2ad9 a201 ad3f
000006b0: ede1 d36e f743 84bf e18a 07e0 f673 b3bf
000006c0: 3913 5335 4297 abbf ebae 75ff a105 b33f
000006d0: 9445 1766 2b9a 95bf 1f68 f569 64d5 933f
000006e0: af42 679c 8245 c13f 0fb7 b9ea bd91 bdbf
000006f0: 9d73 5960 2b7f c5bf 9380 af52 3890 b03f
00000700: 7218 14a1 ac33 9abf c091 8ec4 2254 bf3f
00000710: ab33 0145 ace0 8a3f 314f 25bb 7b10 c33f
00000720: 673e 69dd 110b 7e3f 037f 23d2 2cd5 b3bf
00000730: 064e d2e0 38a5 a73f 15d8 5e76 027c a73f
00000740: 3222 7cd4 1d92 b63f 2152 ff97 3a9c b5bf
00000750: 427a fbea e5df acbf 3546 6884 f19a c2bf
00000760: 5f5d a671 6ff9 ba3f 6e60 c66a 4329 c33f
00000770: dc93 0854 3e8d bf3f f802 fe3f 87c2 78bf
00000780: c9e8 2a9f 9706 b0bf f6b5 a3ea c342 9fbf
00000790: f25f 2fe7 3b4b c13f 1d4b c540 6b33 763f
000007a0: 6927 1fc6 fd14 b53f 5be0 e4b1 2228 c2bf
000007b0: 2fad 30b5 2641 bcbf bd59 df09 4a99 aabf
000007c0: 9a94 64bd 2532 bcbf aaed f257 d26b b8bf
000007d0: b2c2 2457 c16e c33f a61c e268 04f2 a9bf
000007e0: c37d 77be 12d2 a9bf 4b5b ad35 717a b43f
000007f0: 1f83 d248 8e60 c1bf 83b7 7bf5 eb5e 62bf
0.04448779120650555 -0.11746999141768168 0.038151413932778086 -0.08484943120171423 -0.03597310509416817 -0.03192993778833085 -0.07123472644405604 -0.01902407796488704
0.02817046971017529 0.07153744167021513 -0.11381042838435244 -0.03560801170200269 -0.030922941859154816 0.02880655732936598 0.054594268310548436 0.0768068082668234
-0.015715297665117124 -0.14088741818921455 -0.08473613051212514 0.07812998804481061 0.05457491820332391 0.00975777795870256 0.014181457184537371 0.009306267620821915
0.03220928060325783 -0.0716748909143966 -0.08090276968428858 -0.10527232341100934 0.09835923657464905 -0.07383448997957714 -0.05900762547475584 -0.03641446512029091
-0.048735169191021735 -0.06815217251234726 -0.1355734646700331 -0.04758621732597676 -0.04272715890327785 0.05471535664378802 0.04284512345613316 0.12295881110414486
-0.0478432480213569 0.01014453248277996 -0.0897827967199963 0.01912763878082167 0.06334879981380376 -0.11561022953820187 -0.08347651964575803 0.1260580344377334
-0.04264590712991695 0.13703824807017428 0.014549429900923868 0.00020405557024085193 0.09713694042106089 -0.14908838343244335 0.06321429644312589 0.020883469074237333
-0.1405270557268983 0.15698293449624628 0.04459203967545462 0.12199995864953042 -0.15643243207444482 0.11169208316369753 0.06383894076085911 0.08514110260572522
0.14063849309734416 -0.004457830247497278 0.10701444172666397 0.013307862356860453 -0.10202593006586834 -0.17110168884004776 0.012519954344779842 0.1458958185411923
0.08093884901558125 0.1362820384661708 -0.008148520544308976 0.011109605860112216 0.13686834241345094 0.08010606705486022 0.07741616272904192 0.015556225556967404
0.02825487751331539 0.06750348645129663 -0.04354837869300845 0.06679230354539668 -0.14576458860373886 -0.0807164138683849 -0.1642599835237561 0.02383126363706722
-0.08798361780473542 -0.11532676703257522 0.045358308264215205 -0.10840321044348628 -0.04505574566697222 -0.04238618498283189 -0.08474414580095765 0.0152840906877369
-0.05796321446812421 -0.08350543666145994 0.036426175279799716 0.0872904258950245 0.05606393921553115 -0.05736888818158349 0.11763641269497607 -0.00783534876635509
-0.017917359510334446 0.011507751703674766 -0.01012468014593998 0.011622368879069239 0.036990102265306884 -0.13080854898130534 -0.013394927909626734 0.03814848825984975
0.048499805099473714 -0.07312328487703172 0.13834619524033406 -0.026667433229662602 -0.08472842547959923 -0.1082566200691046 -0.03604729408759423 0.03224222894629305
-0.07097518834354065 0.03318331614650304 0.002494256595425456 0.05396805487267722 -0.012960110144197673 -0.06359533017132474 -0.10990947449498385 -0.09218222171609995
0.06494179335955987 0.05096942540412915 0.11092518849917371 -0.055500873525778295 -0.04610203771344248 0.03849018053567018 0.09694269300123413 0.05987618728156976
-0.033023241299296416 0.009987030447231766 -0.13262188316768966 -0.001586699065548291 0.09383173990281864 -0.03436242859154133 0.035946031407683134 0.00692717722402831
0.006288059803365833 0.09289868462957726 -0.04090080994596169 -0.005778392517213147 0.004017443623548825 0.037145447667072694 0.06920797004095047 -0.013977985891636154
-0.09233409672209623 0.10822948018446261 -0.04367868746210706 -0.12206219393422814 -0.08938867464798923 0.08365178443298271 -0.00926270912131179 -0.02607301635808706
-0.021917775836876978 0.041528666220729316 0.022398675759182182 -0.04676041895844394 -0.10089793566627694 -0.010316798331282332 0.030180638749470027 0.0526073010984187
0.007080808876189732 -0.132202383045081 0.016610647207269107 -0.057377723364264034 0.020261774873891948 -0.07885186917187972 0.0342207869311889 -0.01199712980987052
-0.0919303779806931 0.07853224308295799 -0.03724453217105035 0.06489560074271436 -0.013696474007640987 0.010491318074232075 0.019687543553220055 -0.04789581664542898
-0.019422436301961436 -0.1301771027643615 0.11986468704678786 0.09984832211831006 -0.15163185759181216 0.01848052209414041 -0.02957054545519329 0.08897158731545335
-0.011558550019887558 0.007836364094073874 -0.1067782323640149 0.04834968285091845 -0.03483264928671654 -0.05570181831565683 -0.018552077749125716 0.1077770073926632
-0.07687619402863524 0.045382061077932995 0.10508681216878354 0.03331771368251455 0.1472181498578241 0.0007565310713324252 0.09817455433024913 -0.140976338155283
0.14345870707137345 0.04445466070101706 -0.09919833339955077 0.16056610298263235 0.19427068544608178 0.05665310765209957 -0.009895260877315482 -0.07598822564572628
-0.05388838673528657 0.07430469977196778 -0.02109592257131039 0.019368714301300934 0.13493378292925715 -0.11550509434320254 -0.1679434032875208 0.06470062273683856
-0.02558774693627481 0.12237756060364458 0.013123842101913604 0.14894053113914077 0.007334775719371223 -0.07747154360140134 0.04618242020037759 0.04586799330665784
0.08816706121081877 -0.0844151135527871 -0.0563957070678396 -0.1453534981269954 0.10536858105330314 0.14969675744646643 0.1232489543113639 -0.006044891662782652
-0.06260059009483422 -0.030528126903780227 0.1351084593613901 0.005420130688736061 0.08235155188517997 -0.1418498390792163 -0.11036912845218148 -0.0519507538844439
-0.11014018892145075 -0.0953952278822984 0.1518174815660323 -0.05067456989586931 -0.05043085646661496 0.07999332008817565 -0.13575914912964834 -0.0022425278256070227

affine2.bias f8 [100]
00000000: 3a3f 29fc 92f6 ca3f ac0f 469a be0e 9dbf
00000010: 962d 8491 8ae8 70bf 3abf 384b 2b39 9f3f
00000020: ebcc bc37 f678 c63f 1c36 e257 860e a3bf
00000030: 9d5a 1f62 5b62 a6bf fe9f 74a0 3217 b6bf
00000040: f65c 444b 64ba 9f3f e866 3a43 0ec5 c33f
00000050: 555d 194a c5b9 c33f 2c5e a67e 9c7a 8b3f
00000060: 298e b856 5094 a53f 6399 7507 a2c2 a8bf
00000070: a991 2340 67c5 9c3f 65f0 193b 07a4 a73f
00000080: be9a f6a1 d5ec 9bbf ffd1 4b0f bde5 a83f
00000090: 9603 f1f1 e106 af3f 89b0 b291 df8d 553f
000000a0: ea31 cdee 1f4f b6bf e88e 38ae 62ff be3f
000000b0: f6ab 1567 bf34 c0bf 56b8 da23 61db a23f
000000c0: 4426 a580 60db bf3f eff8 4bcd 6651 c13f
000000d0: b863 ffb5 1607 76bf 8ec4 4b7a 6e75 a8bf
000000e0: 08f2 d59c 51fa 98bf 6cc0 1ed1 2a38 943f
000000f0: a352 2531 8d7d c63f 9d2f a944 1de9 923f
00000100: 38f1 2ade 6a57 a73f 136e 40e2 c73b a63f
00000110: f607 1e70 78da b33f fac7 0519 c082 a53f
00000120: 3c01 105e dace c33f 0da8 11a9 9016 7fbf
00000130: f0d7 d75d 0a4f 9a3f f871 492d 82dc cabf
00000140: 0393 8025 de59 b83f a597 7660 acdc c53f
00000150: c093 c449 01e3 bd3f 2bf2 97ff a232 a0bf
00000160: 965e b5b8 867f c23f 2cc3 5c00 b21b b63f
00000170: 431a fd29 e3f0 ac3f 2b1b 9fab ddce c0bf
00000180: 7da0 fb94 5dbb b73f c66a 448c 142e b1bf
00000190: 099e 552e b67c c43f f0c0 617b 5db9 be3f
000001a0: 4cbc 168c b19a c0bf e25a d683 bfcb c0bf
000001b0: 7dd0 453b 08ca b93f ec71 5982 a644 3a3f
000001c0: 93e0 b85a 2757 a0bf 1ee7 58cf 731a a23f
000001d0: 0a50 828d 194c aa3f 6fdd db58 d225 b2bf
000001e0: 751f 3ce3 8bf9 b43f 2f0e a656 aa03 b7bf
000001f0: c4b2 9016 2673 613f aab5 9c94 1ea2 a53f
00000200: 46a9 04ca 87b2 b23f 2824 44a5 d29a bcbf
00000210: a075 5229 831c c2bf 3295 fbd5 43ab c03f
00000220: ad22 126b 651d b0bf f299 483a 6199 be3f
00000230: 3494 8ec6 fc3c b3bf d804 c60e 90df ccbf
00000240: 7659 d1b1 96cd 8e3f 2077 efaf d1a2 b73f
00000250: c84a 456e ca30 8abf d8a7 2cf3 b492 91bf
00000260: 737d a155 a101 a83f fc74 2327 79b0 bebf
00000270: ea14 033f ae2c 703f 7d22 2e28 1b8b c6bf
00000280: d47f a66a 2b55 c13f b20e c7b2 5cff adbf
00000290: 2832 ab8d 2d20 71bf 95ae c574 7f84 bd3f
000002a0: 31e7 e488 5d93 c13f eaed 5aef 3e4f ad3f
000002b0: 966a 8b42 4f0b 77bf 1cd7 dbef b521 af3f
000002c0: f688 bb18 8c79 ae3f ea61 ba1b 0a24 b13f
000002d0: ca66 4c66 79c3 893f b64b 6ef6 fb86 c53f
000002e0: 785d 8a27 715b b7bf b69e 69bd 054e b6bf
000002f0: 0124 676b 9ca6 c23f 59cd ceaa 72bf c73f
00000300: 827b 79f6 4639 c23f 4e40 ca2f c9fe adbf
00000310: a1dd f018 47be 9dbf 4e07 c30f b958 b5bf
0.21064984619669663 -0.02837655846225544 -0.004128018649008599 0.030491520372549298 0.17556646081502633 -0.03722019026563947 -0.04371915409835945 -0.08629146973964905
0.03098446568864418 0.15445116312621754 0.15410677068823966 0.013417456259772718 0.04214716967205973 -0.04835993138367447 0.02809678391430884 0.04617331119968141
-0.02727063942952656 0.04862776576729643 0.06059938505541777 0.0013155635158837184 -0.08714484768024247 0.12108437303009689 -0.12660973103933743 0.03682998240161399
0.1244411768031109 0.13529667877441606 -0.00537785407501528 -0.04777093165274336 -0.024392390439503614 0.019745511068038388 0.17570652866074452 0.01846738559315463
0.04558881723412117 0.043424841278660996 0.07755234467734326 0.04201317124797295 0.15475015252014568 -0.0075898791120412425 0.02569214055798591 -0.20985438548349555
0.09512127318937406 0.17079691610450456 0.11674507189725514 -0.0316363274577934 0.14451679247826082 0.08636009701582442 0.05652532470280793 -0.1313130462642332
0.09270272147444021 -0.0671093790482856 0.16005589735435446 0.12001594793560222 -0.1297208723094364 -0.13121789872521733 0.10073901602828701 0.00040082039990865684
-0.03191493017624327 0.03535806566328702 0.051361845516254404 -0.070889612859778 0.08193277642942383 -0.08989967933126118 0.002130102530392671 0.04225249828446505
0.07303665811619905 -0.11173740897005813 -0.14149512784653684 0.13022659252525554 -0.06294854988130778 0.11952788994731359 -0.07514934394437561 -0.22557259293902265
0.01504056673199437 0.09232817216203815 -0.01278837346095453 -0.01716120466441126 0.04688743753717519 -0.11988026814966085 0.003948860787379641 -0.17612018072056293
0.13541166980303265 -0.05858888323157653 -0.0041810779027398395 0.11530300713428183 0.1373097341946106 0.057245222776568586 -0.005626020058765354 0.06080406716311712
0.0595210819426643 0.06695616890863901 0.012579868730927219 0.16818189175373072 -0.09123904433578456 -0.08712802767115133 0.1457095646312894 0.18553002681947353
0.14237296137704553 -0.058584487041230746 -0.029046164414663903 -0.08338505396662052

action_mean.weight f8 [8, 100]
00000000: df78 c9d9 44a1 abbf 1525 d22a ff5a 95bf
00000010: e499 4720 829e bf3f 1ed0 04cf de7a 6e3f
00000020: bf4f 1d3a f400 9f3f 5fcf f78e b761 84bf
00000030: 7390 8f5e d9df b43f 4d6e 9a40 8b58 9d3f
00000040: 6e4d 8dd8 90cc 8a3f 7cad 2c15 e60c bd3f
00000050: a6d4 1ef1 7628 c7bf ff28 0428 3282 b2bf
00000060: f19f 332a 4e59 9c3f 1cd1 cd22 03df c33f
00000070: 3fed 4af9 4086 b73f bd37 ce90 d619 b03f
00000080: f10c 04af 6481 c6bf 7e9f 4d8a 925f aabf
00000090: d0fc 15be 755c b43f d319 b4c4 d53c c33f
000000a0: 42d0 3ccb 61dc afbf 39c2 85cd e8f7 b8bf
000000b0: 04a4 924e 49c3 b03f d109 78fa fa23 94bf
000000c0: e1bc c32d 6214 91bf 4392 3928 6284 a33f
000000d0: 9a26 18f2 ed87 bdbf 32c2 bd58 d5d6 7c3f
000000e0: 764d 9ce2 fc34 ae3f 54c2 74a2 716f cfbf
000000f0: 0b40 a992 67d3 a93f 3a48 d14f a7a1 a5bf
00000100: 3031 ae53 365e c53f 515a 592f c061 acbf
00000110: a46b 356d 405b b23f 11dc e19a d201 a3bf
00000120: d31d 48e0 f13f bcbf 8c5f 8921 8e9a ce3f
00000130: fd10 4427 6b88 bc3f e012 e60f 9a9c b2bf
00000140: 2b6a d7da aa8d ab3f 10e0 14c8 a2ae c23f
00000150: a880 5648 57c0 b9bf 4404 bda0 465a b63f
00000160: 728a 4dd7 acbb b5bf d887 327d 891b 8a3f
00000170: 3a2d 6b04 4a8c a1bf d36c d452 460c 88bf
00000180: 925b c192 4e8c 9b3f 60bf 00a5 46bc c43f
00000190: 01db 7d1d 0dbb c63f c16c 79d0 19e1 bb3f
000001a0: 402a 2972 0460 c9bf 4aad 650c 380e a23f
000001b0: 9bce d426 f436 b5bf 7af2 01c9 1719 c93f
000001c0: a33e 8bf9 9b33 93bf 2c5d f6fb 9d62 a93f
000001d0: b2f2 bf28 f2f1 acbf e1c2 8ec1 ad81 bf3f
000001e0: 0390 f06c ef1b 803f 826a c5eb 755d bebf
000001f0: 33b2 ff6c 3445 ba3f cd8e 38a5 852d bbbf
00000200: 226a 9691 b635 a0bf 33a5 3e13 7014 973f
00000210: 0d58 ecd3 46c9 b0bf 58a2 7091 2002 a03f
00000220: 29f1 841c 0e51 903f cbe6 f73d 0244 a73f
00000230: 8b0e 44a8 58a6 b83f dfc2 cef0 723f cfbf
00000240: 178c 4a6a 7ac6 953f f7d5 fd25 154f 63bf
00000250: cd43 6da0 dff6 bd3f d492 caf7 a1fd a8bf
00000260: fff0 6f57 ff7e d13f fb24 594c 42a2 b6bf
00000270: df4e 7c2e 30b0 ab3f 616e 6a2d 9c83 c1bf
00000280: 52c7 4f1e e290 c03f 585f 6e48 48f1 a43f
00000290: 65ea 253b 9099 b43f 6f49 71b8 c671 ca3f
000002a0: 7239 1d49 8558 90bf 8c31 2431 df64 bb3f
000002b0: d207 d63d 21f2 c3bf c14c 79d1 d617 ab3f
000002c0: 179a 653f cc3c a1bf 2a91 9a75 b9cc c8bf
000002d0: c20a 3d28 75c1 a03f 41b5 6244 456c c53f
000002e0: ded1 f290 ec13 b43f 848d 2b0c c853 b5bf
000002f0: d792 5edd 3c01 b53f f735 807f 412b bebf
00000300: 05fa fac2 693d bdbf 0785 df4f 1d5e bdbf
00000310: e281 6b12 0b81 b13f be31 0f8e 6381 a93f
00000320: 3691 b281 8629 80bf fb4b f7f3 ba77 bcbf
00000330: 3102 3bbd 8e8a cbbf 389d 5549 2e16 c13f
00000340: ee78 00f3 37d4 d03f 4239 38b9 451d 84bf
00000350: 8bd6 8f61 1a69 c5bf 0261 76bc 14ca aabf
00000360: 330f 1f35 15a0 c7bf fc1d 0c9f fb4e c5bf
00000370: e03f 83a3 5346 b8bf df2c f471 3dbc 90bf
00000380: 6265 2ee3 41d0 8e3f c8eb 13ab d660 c4bf
00000390: e5e0 a655 3cfb bcbf f8b9 7416 2204 afbf
000003a0: f9b7 2bf8 741f aabf ee83 984d 839d b0bf
000003b0: a8e8 a3d9 2424 843f 0f17 c772 60e7 b9bf
000003c0: 2dc2 5407 da21 a3bf 80f0 05a7 c14d b53f
000003d0: 183f 56d7 36c0 913f 5496 e920 95ff 77bf
000003e0: 9ee8 7b34 0da4 c33f 52ac 0d88 3221 9bbf
000003f0: af78 b225 e58d adbf bfd1 866b 7d3d c13f
00000400: 6fc6 7d2a 1e42 b13f b8ba 0b18 bfaa 743f
00000410: 0ab5 0d6a 7d23 97bf 93a9 efa1 2917 b2bf
00000420: c2e2 4cd3 c3b5 c1bf 0f1b cd10 e450 c6bf
00000430: 3eb8 f642 3a1e 8dbf 0341 1a9e acc6 98bf
00000440: 5ab8 33a4 5015 b03f c356 f596 f302 c7bf
00000450: 398a 0109 5846 bf3f c932 72c5 b0a6 ae3f
00000460: 0014 a987 3f4f c63f 1b2a 6f7b 6b81 b2bf
00000470: c23a 9059 d544 c0bf 492d 5073 0bcd c0bf
00000480: c83b eb88 800c b5bf fed6 9629 a707 cd3f
00000490: 5574 52c2 9017 c03f 6237 a14e c758 c83f
000004a0: 84e0 25ea d99e b0bf 9f1c c4f0 1904 64bf
000004b0: d633 a534 a036 cabf ea84 a52f 253f a83f
000004c0: bc38 3899 6a20 92bf 2635 d180 94d7 c03f
000004d0: 744f 44a6 1c04 b83f 3bb0 fb2d 2b4d a23f
000004e0: 6f86 4bcf 3ad3 a6bf 869d 8913 4625 a7bf
000004f0: fe96 ca01 7bef a13f 44c0 e2a7 4d30 a9bf
00000500: 2b2a f20a 6a78 bd3f c358 c3f2 9470 b13f
00000510: 8639 2526 4151 b0bf 54ee 270c 9a08 913f
00000520: d79a b9b7 9986 a9bf c27a d56c bb3e b4bf
00000530: 41da 14a1 33eb bcbf 29a3 6b8c 428d c6bf
00000540: e6e3 cfb4 d7c3 b4bf 20af 26ef 34ef 77bf
00000550: 919f 4262 06df acbf d2a8 d024 7cfe b0bf
00000560: 1968 44c4 7c80 76bf 92f7 d06d c06c c1bf
00000570: 36c7 ebbe e83f b1bf 9744 7673 19fa a4bf
00000580: 8c4c 6896 5954 d1bf 49cb 82e6 6fb7 c7bf
00000590: 0d1d 59b8 e64b 76bf 8104 2f94 724e c13f
000005a0: 5533 086e 2875 b8bf 54bd 06d1 5f6c bfbf
000005b0: 186a 641e 5373 b53f 4db0 c08e f1fd c3bf
000005c0: ef56 ba45 55fe b7bf 9b69 2132 28f7 b4bf
000005d0: 59e8 6377 2feb 963f bae7 6cb5 ce05 c5bf
000005e0: b2ac f576 a166 b33f be18 810b a13b cebf
000005f0: 480a a268 92dd b03f 739d 417e 8bee ad3f
00000600: 7296 cf7b 5253 c53f 52d0 cd0c 764d 6c3f
00000610: 5022 7b7e 698e c1bf 0faf 3932 8a9d aabf
00000620: c851 ac51 7c51 cbbf 0b9b a598 9935 aa3f
00000630: e343 7bff 9625 b2bf 9af0 1a38 d985 b0bf
00000640: b40c 814b 1bfd a63f afe4 6ee2 75ad b7bf
00000650: c429 7e1b 8271 c7bf a0ee e894 6f61 ccbf
00000660: 8654 423d 843a c4bf 0615 bfe1 d7bc b0bf
00000670: ded8 3845 37ca c73f a711 41c3 b412 babf
00000680: d10c aaa8 c8a0 b8bf 21d7 2da5 051b cabf
00000690: 2655 0138 d8ed a5bf 8562 7120 1259 b43f
000006a0: 7040 5488 422f b73f a284 bb01 3832 c03f
000006b0: b198 078a 0360 a93f 53df f242 de3f a8bf
000006c0: 741f fd73 75bc bebf bf08 cdd4 a3c8 b23f
000006d0: 23cb c7e4 03a4 acbf 2fa6 29b5 1179 a33f
000006e0: ac3e 6243 7e7a b5bf 92c0 5d87 1af8 c6bf
000006f0: 8471 f731 4698 cb3f 6d49 4a68 9364 bcbf
00000700: d9c4 a994 5c2a a3bf 71a7 782c 5466 c2bf
00000710: ed85 09b4 0970 bd3f 5729 5b02 3068 bc3f
00000720: 7df4 a9eb 4eeb bdbf 0c1b 95df 8cc0 b0bf
00000730: 92b2 6580 aa11 a03f c1b0 77df b974 bebf
00000740: 51f9 3661 159e b0bf 85af 6efd 2536 93bf
00000750: d064 a7db 5008 c2bf b9f6 ec5b 7a84 6ebf
00000760: 8c3a 0d36 5e19 a7bf c53b 4069 0dc6 b3bf
00000770: b919 9af1 049f a03f b4f0 503c f37e d13f
00000780: a9d0 db55 1183 8e3f 7f71 aa38 de2f c0bf
00000790: ea67 c3c9 da75 b5bf 52e4 de9b 7505 883f
000007a0: 5577 efab b87d c8bf 8d26 af8d 7a2b c3bf
000007b0: 18a9 a456 be75 c73f 868a 58ab 3287 b1bf
000007c0: f843 3021 fe65 96bf 15c2 1951 0ed4 b4bf
000007d0: 018e 36db ab91 c5bf 580d 94d9 0cb9 893f
000007e0: 1585 c516 ae0d c83f e12d 2333 639b 94bf
000007f0: 3686 34eb 72fa 7cbf e899 b5b5 8a2a a9bf
-0.05396475943119738 -0.020854937542513847 0.12351239479139725 0.003720698521783929 0.030277076766040297 -0.009952005434548715 0.08154066618550519 0.028658080881184756
0.013085490807191315 0.11347806946712596 -0.18092238210161787 -0.07229913212737314 0.027684422803673617 0.15524329375660606 0.09189230047461637 0.06289425883571105
-0.17582377000517327 -0.05151040972015063 0.07953582659500857 0.1502940378633882 -0.06222825628211172 -0.09753279702796015 0.06547983330041524 -0.019668504273804125
-0.016679319422959863 0.03811938038851228 -0.11535536919123004 0.007040818581899576 0.05899801508180762 -0.24558849747110634 0.050441013958902735 -0.042248943799350916
0.16693762861212624 -0.05543327882758276 0.07170488992907892 -0.0371232809129013 -0.11035072064998212 0.23909165036706914 0.11145658215179206 -0.0727020539107559
0.05381521150021159 0.14595446366888654 -0.10059113994657543 0.08731500076557192 -0.0848949456827002 0.012747835286351192 -0.03427344612063128 -0.01174216213489957
0.026902415950043564 0.16199572617324076 0.17758335056324628 0.108903516194391 -0.19824271749742373 0.03526473189671238 -0.08286977718381154 0.1960782748682453
-0.018751561265900062 0.0495805139609565 -0.0565334009879498 0.12307249045876346 0.007865782272411087 -0.11861359602100133 0.10261848126510457 -0.10616336139406286
-0.03165979888145311 0.022538901495555663 -0.06557123826891616 0.031266229394820655 0.015934200754814363 0.04544074064683697 0.09628824337056067 -0.2441238094156892
0.021264946687221533 -0.00235704546497106 0.1170482412974387 -0.048810063837014944 0.2733763078574753 -0.0884133755108855 0.05407858436060819 -0.13682892053190002
0.12942148666439351 0.04090333828133791 0.08046819156690217 0.2065971756552005 -0.015962679469617887 0.10700793218365429 -0.155826716607463 0.05291625315717275
-0.033666975726010566 -0.19374769441959333 0.03272596470062218 0.1673666557229954 0.0784290174368105 -0.08330965325472134 0.08205013660933545 -0.11784753191769669
-0.11421834001792071 -0.11471732330348426 0.06837529372888398 0.0498152838623329 -0.007891703446440173 -0.11120193916512726 -0.21516594161768546 0.13348940449507452
0.26295279245995473 -0.009821457591013275 -0.1672699905754381 -0.052323005681673265 -0.18457284063162546 -0.16647286668761285 -0.09482310049065701 -0.01634307868975504
0.015045656915207931 -0.15920527795228012 -0.11320855227575384 -0.0605784084713043 -0.05102124719074647 -0.06490345615794954 0.009834564105848223 -0.10118677904310068
-0.03736764277926272 0.08321771934237354 0.01733480157196174 -0.005858976872877248 0.15344395697303964 -0.02649382548717611 -0.057723198749259345 0.1346890234978115
0.06741512811074711 0.005045649014148772 -0.022596320722574816 -0.0706659336425786 -0.13835952584647343 -0.17434359379168327 -0.014217810791560589 -0.024195382261098974
0.06282524117315927 -0.17977757330907282 0.12216711253999159 0.059865497686677545 0.1742934620289418 -0.07228729022532614 -0.12710062859738086 -0.13125746851469902
-0.08222201674219243 0.22679605036471878 0.12571916092284377 0.19020930613845183 -0.06492387739661082 -0.0024433619165652033 -0.20479204721996663 0.047356760088186636
-0.017701783754141984 0.13157898225691972 0.09381274279831847 0.035745000231913036 -0.04458030491310871 -0.04520625103469471 0.03503021618716494 -0.04919665026079703
0.11511862532840016 0.06812411238510933 -0.06373984509739303 0.016634375564520035 -0.04985504501092002 -0.07908221633031601 -0.11296389277126996 -0.17618591171710676
-0.08111332096440513 -0.005843359731823289 -0.05638904523340139 -0.06638313196950499 -0.005493628854560861 -0.13613133775828296 -0.06738142644078668 -0.04097060713241623
-0.2707733124563638 -0.18528555636802427 -0.005443478823117032 0.13520652995615381 -0.09553768812493264 -0.12274741032773778 0.08379096500394956 -0.1561872431788082
-0.09372456505147019 -0.08189631675614921 0.022381536161425995 -0.16423972948706284 0.07578477052963953 -0.23619473516209227 0.06588091902271132 0.058460578119418204
0.1666052918000563 0.00345490509647032 -0.13715857196645453 -0.05198318350889341 -0.21342424381204084 0.05119018543591921 -0.07088607537595197 -0.06454236621624646
0.04489980026894483 -0.09249054697183355 -0.1831514963381108 -0.22172350665083673 -0.1580357836834631 -0.06538151990305971 0.18585863952620846 -0.10184793250033995
-0.09620336644916284 -0.20394964757331827 -0.042830235325406016 0.07948411266387197 0.0905648787340867 0.12653255543321956 0.04956065235073604 -0.04736227576489562
-0.12006315309292664 0.07337402291617233 -0.055938836743641106 0.038033059467874934 -0.08390034813987296 -0.17944652185133642 0.2155845397927686 -0.11090966507098239
-0.03743256869064177 -0.14374782725763738 0.11499081273498009 0.11096477563402139 -0.11687176946175444 -0.06543808420711289 0.03138478104924504 -0.11896859842062481
-0.06491216300398618 -0.01876124724701313 -0.14087877965247353 -0.0037252797914380767 -0.04511541757402879 -0.07724078960039467 0.032463221065927646 0.27337342157603506
0.014898429329584255 -0.126460817021222 -0.08382956910955355 0.011729162997527496 -0.19133671183856885 -0.14976436536953877 0.1832807467520261 -0.068469206650244
-0.021873446250598477 -0.08136071662898588 -0.16850803569569453 0.012559986486400262 0.18791748153584167 -0.0201240062677196 -0.007074784184881324 -0.049152693444557916

action_mean.bias f8 [8]
00000000: 670b 997e 6c7d c33f 18a1 7896 6d32 d5bf
00000010: 02fa 171f 5c40 bfbf 34f7 f215 b189 d1bf
00000020: ff8a c916 2a6b 783f 43f0 14bc fb4f cf3f
00000030: 7af8 73e0 b36d ad3f 130f 1845 49f0 d53f
0.15226513082060508 -0.331202885574855 -0.12207580336687587 -0.2740290369364289 0.00596157494564653 0.2446283977859612 0.057477589749383065 0.34279090640505777
