ppo_walker_v2_300/ppo_walker_v2_300_s0/pyt_save/model.pt (torch_old, 18340 bytes, 12 tensors)

log_std f4 [6]
0	0xbf8cf9fc	-1.1013789
1	0xbf9d3ada	-1.2283585
2	0xbfac3a89	-1.3455364
3	0xbf816212	-1.0108054
4	0xbfaab331	-1.3335935
5	0xbfa7086a	-1.3049443

weight f4 [32, 17]
0	0xbd872bd0	-0.066001534
1	0x3ed69693	0.41911754
2	0xbe2978bd	-0.16549964
3	0x3be8a191	0.0070993383
4	0xbefeeba0	-0.49789143
5	0x3e39678c	0.18105906
6	0xbe9b61ff	-0.30348203
7	0x3e8d49c2	0.27595335
8	0x3e6b7775	0.22994788
9	0xbe4d2bb7	-0.20036207
10	0x3d5ed600	0.054403305
11	0x3acacc7c	0.0015472318
12	0xbe4c6910	-0.19961953
13	0x3d230fd3	0.039810013
14	0xbe13b882	-0.14425853
15	0x3d0be396	0.03415259
16	0x3e292a5e	0.16520068
17	0x3ed77f03	0.4208909
18	0xbf3f8931	-0.7481871
19	0xbe99f65a	-0.30070764
20	0xbe50ca0d	-0.20389576
21	0x3db4b7bb	0.08824106
22	0x3c8e7346	0.017388951
23	0xbe3fba16	-0.1872333
24	0xbc226380	-0.009911418
25	0xbdf74caf	-0.12075173
26	0x3f17526d	0.59110147
27	0xbe3f0e14	-0.18657714
28	0xbdeb2625	-0.11481885
29	0xbdcb5780	-0.09928799
30	0xbbdf7939	-0.006819871
31	0x3e6e2794	0.23257285
32	0x3d75a767	0.0599741
33	0xbdc087eb	-0.09400924
34	0xbd51b92d	-0.051201988
35	0xbdf2e6fd	-0.11860464
36	0xbe2249c3	-0.1584845
37	0x3ed0da16	0.40791386
38	0x3d077222	0.03306783
39	0x3ea1da04	0.31611645
40	0xbccc401b	-0.024932912
41	0x3c31f591	0.01086177
42	0xbdc0d030	-0.094147086
43	0xbe61a15b	-0.22034208
44	0xbe408c27	-0.18803464
45	0xbe281a7a	-0.1641635
46	0x3e337722	0.17525914
47	0x3e6f6e56	0.23381934
48	0xbb71cc96	-0.0036895624
49	0xbe80a94e	-0.2512917
50	0x3e4989ab	0.19681422
51	0x3e586ae3	0.21134524
52	0x3ebf2f83	0.37340936
53	0x3dccfe04	0.10009387
54	0x3ec18591	0.37797216
55	0xbe411821	-0.1885686
56	0x3ea65d1e	0.32492918
57	0xbeb21e6c	-0.34788835
58	0xbec6badc	-0.38814437
59	0x3ac5cea6	0.0015091493
60	0xbe10eed1	-0.14153601
61	0x3d73a669	0.059484873
62	0xbcd174a7	-0.02556832
63	0xbcb1c0f4	-0.021698453
64	0x3e3fde78	0.18737209
65	0xbce4e695	-0.027941981
66	0xbac43a55	-0.0014970998
67	0x3e6e1b16	0.2325252
68	0x3e925324	0.28579056
69	0x3ea4e0c2	0.32202727
70	0xbe28431a	-0.16431847
71	0xbd34ad58	-0.044110626
72	0x3d5c6f4b	0.053817075
73	0x3e2915d9	0.1651224
74	0x3d05d6be	0.032675497
75	0x3e978dfc	0.29600513
76	0x3e30c94a	0.17264286
77	0xbedb829d	-0.42873088
78	0x3c4c6a75	0.012476553
79	0xbe10c6c7	-0.14138328
80	0xbe4c078a	-0.19924751
81	0x3e8fa82b	0.2805799
82	0x3c1ef9a5	0.009703075
83	0xbe8a76c1	-0.27043727
84	0x3d735aea	0.059412874
85	0xbe2e14d5	-0.17000134
86	0x3e6ecc20	0.23320055
87	0x3e1c8bfc	0.15287775
88	0xbba29103	-0.0049611344
89	0xbecbc81d	-0.39801112
90	0xbe877f62	-0.26464373
91	0x3ec3ade2	0.382186
92	0x3dfa31fa	0.122165635
93	0x3dcc81fa	0.099857286
94	0xbec0e405	-0.37673965
95	0xbdc6e9f5	-0.097125925
96	0x3e47985c	0.19491714
97	0xbdf506f7	-0.11964219
98	0xbe554121	-0.20825626
99	0xbe08b401	-0.13349916
100	0x3edb3ccf	0.4281983
101	0x3dd0c22e	0.10193287
102	0xbd7bcb41	-0.061473135
103	0xbed4f629	-0.41594055
104	0xbe386888	-0.18008626
105	0xbd1c95e3	-0.03822888
106	0xbde52da1	-0.11190344
107	0xbe3147fb	-0.17312615
108	0x3cd88244	0.026429303
109	0xbddc4db2	-0.10757007
110	0xbeb48523	-0.35257825
111	0x3e96d56c	0.29459703
112	0xbe99288c	-0.29913747
113	0x3e7961e8	0.24353755
114	0x3e6c9179	0.23102368
115	0xbe2a1d2c	-0.1661269
116	0xbda4b2b9	-0.08041901
117	0xbcbf2d6b	-0.023337087
118	0x3cf4490b	0.029819986
119	0x3ea531ee	0.32264656
120	0x3d91b292	0.07114138
121	0xbe22d6c6	-0.15902242
122	0x3cddb76e	0.027065005
123	0x3eb19d14	0.34690154
124	0xbef3c537	-0.476114
125	0xbb904fdc	-0.004404051
126	0xbe103842	-0.1408396
127	0xbcba3446	-0.022730004
128	0xbe12e40b	-0.14344804
129	0xbe3850d8	-0.1799959
130	0xbc57d016	-0.01317217
131	0x3e27d622	0.16390279
132	0xbe758fd4	-0.23980647
133	0xbd2e57b3	-0.042564105
134	0x3e54ca1b	0.20780222
135	0x3dfbe300	0.12299156
136	0x3d854035	0.06506387
137	0x3dac0c6a	0.08400805
138	0x3e8c27b9	0.27374056
139	0x3e5f43c5	0.21803196
140	0x3eb4108e	0.3516888
141	0x3ee2b385	0.44277588
142	0x3d9ff41c	0.07810232
143	0x3dd1c642	0.10242893
144	0xbe9b40c3	-0.30322847
145	0xbe4f0981	-0.20218469
146	0x3e80bbba	0.25143224
147	0xbd829d69	-0.0637768
148	0xbd58f66f	-0.052969392
149	0xbe8c8095	-0.2744185
150	0xbe56ac3e	-0.20964143
151	0xbe0ea167	-0.13928758
152	0x3c818930	0.015812486
153	0x3e31d3dc	0.17365974
154	0xbcd39c01	-0.025831224
155	0xbe93feaf	-0.28905246
156	0x3e5a3ec8	0.21313012
157	0xbe744778	-0.23855388
158	0x3ea12c37	0.31479046
159	0xbecf6a47	-0.4051077
160	0x3e517fa1	0.20458843
161	0xbe390baa	-0.18070856
162	0x3cae7c19	0.021299409
163	0xbe699065	-0.22808988
164	0xbdba82a4	-0.09106949
165	0xbd96cad3	-0.073629044
166	0xbe00c5d7	-0.1257547
167	0x3e094233	0.13404159
168	0xbeb31e67	-0.34984133
169	0x3d0af193	0.03392179
170	0x3d4d68a9	0.05014864
171	0x3cbd96f9	0.023143278
172	0x3e6a59cb	0.22885816
173	0xbe2e2f77	-0.17010294
174	0xbe493ed8	-0.19652879
175	0xbeae7e30	-0.34080648
176	0x3f25ed79	0.6481548
177	0xbe7e593c	-0.24838728
178	0x3e18315d	0.1486258
179	0xbd6e76cb	-0.05821876
180	0x3d9d3154	0.07675424
181	0xbd7696eb	-0.06020252
182	0xba6df88d	-0.00090778695
183	0x3cf2f9fb	0.029660216
184	0x3e2cf889	0.16891684
185	0x3e9492b9	0.2901819
186	0x3cece3d8	0.028917238
187	0xbd2373a2	-0.039905198
188	0x3e6732a0	0.22577906
189	0x3e7d806c	0.2475602
190	0x3e10c250	0.14136624
191	0x3ed26d37	0.4109895
192	0xbde938e7	-0.113878064
193	0x3edbb53c	0.42911708
194	0xbdad42cb	-0.084600054
195	0xbc978f98	-0.018501088
196	0xbecd97fe	-0.40155023
197	0x3e0e66e2	0.13906434
198	0xbe174276	-0.14771447
199	0xbe4154fa	-0.18880072
200	0x3db53e71	0.088498004
201	0x3dabf311	0.083959706
202	0xbde5bc94	-0.11217609
203	0xbe55d734	-0.20882875
204	0xbeae6422	-0.3406077
205	0x3ec5b154	0.38611853
206	0x3d51b704	0.051199928
207	0x3e76e568	0.24110949
208	0xbcfad107	-0.03061725
209	0x3ecb4997	0.39704582
210	0xbd0081e5	-0.031373877
211	0xbe8b600b	-0.27221712
212	0x3da002f4	0.07813063
213	0xbd270fa6	-0.040786408
214	0x3cae0e40	0.02124703
215	0x39317ac3	0.00016925768
216	0xbd1ad59f	-0.03780138
217	0xbe34422d	-0.17603369
218	0x3e4b9eaa	0.19884744
219	0xbe25344d	-0.16133232
220	0xbe152320	-0.1456418
221	0x3d88e6b2	0.06684627
222	0xbebbe3ca	-0.36697227
223	0xbd9985ef	-0.07496249
224	0xbe0db59c	-0.1383881
225	0x3dd69fb5	0.104796804
226	0xbdbfdddf	-0.093684904
227	0xbb228c8b	-0.0024803008
228	0xbe865432	-0.2623611
229	0xbe11041a	-0.14161721
230	0x3eb5c5f9	0.35502604
231	0x3dc7dab7	0.097585134
232	0x3d22e129	0.03976551
233	0x3e995d5e	0.29954046
234	0x3e1f5990	0.15561509
235	0xbe4d2d34	-0.20036775
236	0x3e755459	0.23957957
237	0xbd65d2bd	-0.05610918
238	0xbe098256	-0.13428625
239	0x3eb93bc2	0.36178404
240	0x3dcf5fc8	0.10125691
241	0x3f086c29	0.5329004
242	0xbdf4221d	-0.11920569
243	0x3ea8b5d3	0.3295122
244	0x3e5d4dca	0.21611705
245	0xbe9695b8	-0.294111
246	0x3e8ac29a	0.27101594
247	0xbe543463	-0.20723109
248	0x3e25cd67	0.16191636
249	0xbdd23985	-0.10264877
250	0x3cb0c62f	0.021578876
251	0xbb2291a8	-0.0024806056
252	0x3e613b26	0.2199522
253	0x3cba6c9c	0.022756867
254	0xbe3a6476	-0.18202385
255	0xbe6d13f9	-0.2315215

bias f4 [32]
0	0x3c8b8b3d	0.017034167
1	0x3ebfaeac	0.37437952
2	0xbd43dfab	-0.04782073
3	0xbc572840	-0.013132155
4	0x3d1c0269	0.038088236
5	0x3e2143d3	0.15748529
6	0xbe8c9474	-0.2745701
7	0x3b2ecbb2	0.0026671705
8	0x3e981080	0.29700089
9	0xbe21bb78	-0.1579417
10	0xbdaaa3c5	-0.08332018
11	0x3d4951ec	0.049150392
12	0xbe6338e6	-0.22189674
13	0xbe831b3c	-0.25606716
14	0x3e0303c3	0.12794404
15	0xbdcad2fb	-0.099035226
16	0x3c09e847	0.008417196
17	0xbe3b401c	-0.18286175
18	0xbe1e7d30	-0.15477443
19	0xbd20b972	-0.039239354
20	0xbe88081a	-0.2656868
21	0x3eb5a8cf	0.35480353
22	0x3ce57c6c	0.02801343
23	0x3dc9e186	0.09857468
24	0x3e0f9e12	0.14025143
25	0x3da3b485	0.07993416
26	0x3e981369	0.2970231
27	0x3e8673b9	0.26260164
28	0xbe265eb2	-0.16247061
29	0xbb1e1544	-0.0024121562
30	0xbcbb5744	-0.02286876
31	0x3e88252a	0.26590854

weight f4 [32, 32]
0	0xbdb7132d	-0.08939204
1	0xbe3a9077	-0.18219171
2	0x3e8b283a	0.27179128
3	0x3e2e96c9	0.17049707
4	0xbdb2ac1f	-0.08724236
5	0xbe23ae48	-0.15984452
6	0x3b81f825	0.0039663487
7	0x3e202fb3	0.15643196
8	0xbe16c78c	-0.14724559
9	0xbd6a45dc	-0.05719553
10	0xbdb8ffed	-0.09033189
11	0x3e12d77d	0.14340015
12	0x3deeffe0	0.11669898
13	0x3dfbbd69	0.122919865
14	0xbe0f3c55	-0.13987859
15	0xbe560ae0	-0.20902586
16	0xbe1e5b3f	-0.15464495
17	0x3e292e36	0.16521534
18	0x3ea8a7a5	0.32940403
19	0x3e17e419	0.14833106
20	0xbcf5b31e	-0.029992636
21	0x3e0584cd	0.1303894
22	0x3e885bf3	0.26632652
23	0x3e60889f	0.21927117
24	0xbe89516a	-0.26819927
25	0x3e287c61	0.16453697
26	0xbe4f914e	-0.20270273
27	0x3e9b01fc	0.3027495
28	0xbdf83694	-0.12119785
29	0xbe0cd654	-0.13753635
30	0x3e2e1f06	0.17004022
31	0xbe0a89c1	-0.13529111
32	0xbd95f6ea	-0.07322486
33	0x3e6285d0	0.22121358
34	0x3d9fc353	0.07800927
35	0xbde7b609	-0.11314017
36	0x3e1ec136	0.15503392
37	0xbe0dd668	-0.1385132
38	0x3eb611b6	0.35560387
39	0x3df5ed87	0.12008195
40	0x3e71f1ea	0.23627439
41	0x3c97b7ad	0.0185202
42	0x3e468c68	0.19389498
43	0x3c316541	0.0108273635
44	0xbdda5dee	-0.10662447
45	0x3e11b29e	0.14228293
46	0x3db4a1c5	0.088199176
47	0xbe8ccf72	-0.27502018
48	0xbe4a084e	-0.1972973
49	0xbd63f0fc	-0.055649742
50	0x3e00be3d	0.1257257
51	0x3e68ba6e	0.22727367
52	0xbd1bbe83	-0.038023483
53	0xbd3408f2	-0.043953843
54	0x3e78a2c3	0.24280839
55	0x3da621b1	0.08111895
56	0x3e173cd0	0.14769292
57	0xbd847ac8	-0.06468731
58	0x3d4b6169	0.049653444
59	0xbe1507a0	-0.1455369
60	0xbc086a6d	-0.008326155
61	0xbe3e23f3	-0.18568401
62	0xbe4ce045	-0.20007427
63	0x3e49b047	0.1969615
64	0xbe1ab61b	-0.1510853
65	0xbe61c690	-0.22048402
66	0xbda1d384	-0.079016715
67	0x3d33bb3b	0.04387973
68	0xbdd8c35c	-0.10584137
69	0x3e995e5f	0.29954812
70	0xbe6c2221	-0.23059894
71	0x3e98b31d	0.29824153
72	0xbe0c6223	-0.13709311
73	0xbe231aa0	-0.15928125
74	0x3ddf7a33	0.109119795
75	0xbd9b523c	-0.07584044
76	0x3e546c16	0.20744357
77	0xbccca77e	-0.02498221
78	0xbc5a592e	-0.013326926
79	0xbd967202	-0.07345964
80	0xbcb51c63	-0.022108262
81	0x3e272b1f	0.16325043
82	0xbbf4402f	-0.0074539403
83	0x3cf74d17	0.030188126
84	0x3d90262e	0.07038532
85	0xbdeedbf6	-0.11663048
86	0x3e76e608	0.24111187
87	0xbddaf1b6	-0.10690634
88	0x3d4b17a4	0.049583092
89	0x3e1a9bbf	0.15098475
90	0xbd93462f	-0.07191121
91	0x3d9e9fe3	0.0774534
92	0xbd8370a0	-0.06417966
93	0x3e47d4f4	0.19514829
94	0xbe14ceaf	-0.14531969
95	0x3cb5f822	0.022213046
96	0xbda05c0a	-0.07830055
97	0x3e94dd02	0.29074866
98	0xbd91f5d5	-0.07126967
99	0x3eb86a01	0.36018375
100	0xbcc05e8e	-0.023482587
101	0x3c24627a	0.010033244
102	0x3e316db7	0.17327009
103	0x3d9a687c	0.0753946
104	0x3d62ae88	0.055342227
105	0xbc4d34d0	-0.0125247985
106	0xbe270b38	-0.16312873
107	0xbddb535b	-0.10709258
108	0x3d16784f	0.03673583
109	0x3deb1a1e	0.11479591
110	0xbda70bc1	-0.08156539
111	0xbe240bb6	-0.16020092
112	0x3db86ecc	0.09005508
113	0x3dbafd28	0.09130317
114	0x3dda57e3	0.10661294
115	0xbd814ec7	-0.06313854
116	0x3ea4f8af	0.3222098
117	0x3cb45c66	0.022016715
118	0xbc95fee6	-0.018310022
119	0xbe4f816b	-0.20264213
120	0x3eac1d65	0.33616176
121	0xbd657f9d	-0.056029905
122	0xbdc49448	-0.09598595
123	0xbd0d80f4	-0.034546807
124	0xbe86260d	-0.26200905
125	0xbd3f1747	-0.04665306
126	0xbe39f8e9	-0.18161358
127	0x3e016a27	0.1263815
128	0xbd3d3b6d	-0.04619925
129	0x3d87090f	0.06593525
130	0x3db9f3ba	0.0907969
131	0x3e14efb6	0.14544567
132	0xbe0b77a1	-0.13619854
133	0x3d950dc2	0.07278015
134	0xbbbc15f9	-0.005739924
135	0xbc59316f	-0.013256415
136	0xbdb37f76	-0.087645456
137	0xbd938b78	-0.07204336
138	0x3cd61141	0.026131274
139	0xbe7e570c	-0.24837893
140	0x3d9ec7a4	0.07752922
141	0x3c4e1886	0.012579089
142	0x3e1b57f0	0.15170264
143	0x3dea72dd	0.1144769
144	0x3dea70eb	0.11447319
145	0xbe2435b6	-0.16036114
146	0x3c8f6674	0.017504908
147	0x3c276039	0.010215812
148	0xbd07b1d5	-0.03312858
149	0x3e0f2272	0.13977984
150	0x3e23d063	0.15997462
151	0xbe5aab46	-0.21354398
152	0x3e682243	0.2266932
153	0xbce03dd4	-0.027373232
154	0x3d52d8bb	0.05147622
155	0x3d8a438b	0.06751164
156	0xbe26934e	-0.1626713
157	0xbdc8a9dd	-0.09798024
158	0xbd0bfb3b	-0.03417514
159	0x3e88ebff	0.2674255
160	0xbe002c4b	-0.12516896
161	0xbe265b24	-0.16245705
162	0xb991763a	-0.0002774464
163	0xbe4539ad	-0.19260283
164	0xbdab4ad0	-0.08363879
165	0xbcf11de5	-0.0294332
166	0xbde05221	-0.10953165
167	0x3bf92676	0.007603462
168	0xbd43337e	-0.04765653
169	0x3dae8d10	0.08522999
170	0x3d8ab922	0.067735925
171	0xbc15b5f3	-0.009137618
172	0xbcff9660	-0.031199634
173	0x3d4a9c28	0.04946533
174	0xbe0c9b22	-0.13731053
175	0x3cd433c2	0.025903586
176	0x3ea4d07b	0.32190308
177	0x3de4c2e6	0.111699864
178	0x3dd5dd0e	0.104425535
179	0xbd873b8c	-0.066031545
180	0xbced884b	-0.028995654
181	0x3e878c0d	0.26474038
182	0xbe020f0d	-0.12701054
183	0xbe65476d	-0.22390528
184	0xbc8ef0dc	-0.017448835
185	0x3e920190	0.28516817
186	0xbe1ed3f6	-0.15510544
187	0x3e8c0330	0.27346182
188	0x3d8fc8d7	0.07020729
189	0xbdde5557	-0.10856121
190	0x3d332fd5	0.043746788
191	0x3e199e53	0.15001802
192	0xbe712c73	-0.23552112
193	0x3d9c0933	0.07618942
194	0x3dd9ecea	0.10640891
195	0xbe671e5e	-0.22570178
196	0x3b18a8be	0.0023293938
197	0x3da54ba8	0.08071071
198	0x3e0e8349	0.13917269
199	0x3d6c7436	0.057728015
200	0x3da51d0f	0.08062183
201	0xbe14b1bd	-0.14520927
202	0x3e8a6a66	0.270343
203	0xbea9250f	-0.33036086
204	0xbe857ee9	-0.26073387
205	0x3e46ac2c	0.19401616
206	0x3ce98bc0	0.02850902
207	0xbe5f6549	-0.21815981
208	0xbe29d7b5	-0.16586192
209	0xbd8a4199	-0.06750793
210	0xbdc78876	-0.09742825
211	0xbd05205a	-0.032501556
212	0xbb78673c	-0.003790333
213	0x3ccf58bb	0.025310865
214	0x3bba1311	0.0056785424
215	0x3e0e51c8	0.13898385
216	0x3e84c531	0.25931695
217	0x3d9a427a	0.07532211
218	0xbdf6347d	-0.1202173
219	0xbe26ab6d	-0.16276331
220	0xbdc9b5bb	-0.098491155
221	0xbe1dd6fa	-0.15414038
222	0x3d7c1d23	0.061551224
223	0x3dfcef4d	0.123503305
224	0x3e803c99	0.25046232
225	0xbdee9477	-0.11649411
226	0x3e9aeb1b	0.30257496
227	0xbd249f46	-0.040190957
228	0xbcc42b79	-0.02394651
229	0x3df57cde	0.11986707
230	0x3e15dbc1	0.1463461
231	0xbe483202	-0.19550326
232	0x3e1ef8e6	0.15524635
233	0x3ded11f2	0.115756884
234	0xbe464995	-0.19364007
235	0xbe9782ed	-0.29592076
236	0x3ddcdc9f	0.10784268
237	0xbe012703	-0.12612538
238	0xbc8b5644	-0.017008908
239	0x3e36c54e	0.17848703
240	0xbe0fc686	-0.14040574
241	0x3e1f4702	0.15554431
242	0x3c1bcb0e	0.009508861
243	0x3e2521e6	0.16126212
244	0x3d9e5b92	0.077323094
245	0x3d7e4971	0.062081758
246	0x3e2adb86	0.16685304
247	0xbdc1faae	-0.094716415
248	0xbd8c0c09	-0.06838233
249	0x3cdef656	0.027217072
250	0x3e5096a7	0.2036997
251	0xbd8869ad	-0.06660781
252	0xbcee4e23	-0.029089993
253	0xbe221b11	-0.15830638
254	0x3e2c0612	0.1679919
255	0xbd207523	-0.03917421

bias f4 [32]
0	0xbe93d563	-0.2887374
1	0x3e3e0009	0.18554701
2	0x3d2c7ef1	0.04211325
3	0xbd459a92	-0.048243113
4	0x3dae314d	0.08505497
5	0xbd0f416e	-0.034974508
6	0x3e137f7d	0.14404102
7	0x3e072552	0.1319783
8	0xbda1174e	-0.07865773
9	0xbd0c4dc4	-0.03425385
10	0x3d6cd43e	0.057819597
11	0xbe47fa77	-0.19529139
12	0xbe4115cc	-0.18855971
13	0x3e496452	0.19667175
14	0xbe55a7e0	-0.2086482
15	0x3e2b5841	0.16732885
16	0xbc1762ec	-0.009239893
17	0xbd446ad2	-0.047953434
18	0xbe118d1a	-0.14213982
19	0xbc0709c6	-0.008242076
20	0x3da0bbf4	0.07848349
21	0xbe22a668	-0.15883791
22	0xbe32c7f1	-0.17459084
23	0x3e854aae	0.2603354
24	0x3e8cda47	0.27510282
25	0xbd8dc92a	-0.069231346
26	0x3d532f8e	0.051559024
27	0xbd94387d	-0.07237337
28	0xbda005f3	-0.07813635
29	0x3e2d0299	0.16895522
30	0x3c9c92ef	0.019113032
31	0x3e482d3e	0.19548509

weight f4 [6, 32]
0	0x3ea9d146	0.33167475
1	0x3db3522e	0.08755909
2	0xbe042ada	-0.12906972
3	0xbe7039dd	-0.23459573
4	0x3d77ffb8	0.060546607
5	0x3eb297a7	0.34881327
6	0x3e58b4a0	0.21162653
7	0xbd653933	-0.055962753
8	0x3de219a7	0.11040049
9	0xbe3e9fea	-0.1861569
10	0xbeb93cab	-0.36179098
11	0xbe8aedd3	-0.2713457
12	0x3e485c63	0.19566493
13	0xbe1b6dfd	-0.15178676
14	0xbe2311cb	-0.15924756
15	0x3dd556d2	0.1041695
16	0xbe7bd067	-0.24591218
17	0xbe3a59f2	-0.18198374
18	0x3e2ed9d6	0.17075285
19	0xbdc47142	-0.09591915
20	0xbe8aa787	-0.27080938
21	0xbe155c85	-0.14586075
22	0x3e098cdf	0.13432644
23	0x3e039bae	0.12852356
24	0x3db32152	0.0874659
25	0xbdb34fa4	-0.087554246
26	0x3ae5412d	0.0017490737
27	0x3e1ddf85	0.15417297
28	0xbe206074	-0.15661794
29	0xbe2e0636	-0.16994557
30	0x3d896815	0.06709305
31	0x3e5eeb87	0.21769534
32	0xbe3753f0	-0.17903113
33	0x3d1f170f	0.03884035
34	0xbe37ea30	-0.17960429
35	0x3e73ecca	0.23820797
36	0x3dd6a4e2	0.10480668
37	0x3d89c8a3	0.067277215
38	0x3d097bd4	0.033565357
39	0x3ce79e23	0.028273648
40	0xbe6da875	-0.23208793
41	0x3d05c838	0.032661647
42	0x3d3d7d68	0.046262175
43	0x3d1a0431	0.037601653
44	0x3e309bd1	0.17246939
45	0xbc88b666	-0.016688537
46	0xbeaeb70f	-0.34124038
47	0xbe9e20d8	-0.30884433
48	0xbe92641c	-0.28592002
49	0x3e558d41	0.20854665
50	0xbe255a1c	-0.16147655
51	0xbebef7a6	-0.37298316
52	0xbd884e30	-0.06655538
53	0xbe08dc6f	-0.13365339
54	0xbe548bb5	-0.20756419
55	0x3e566f1c	0.20940822
56	0xbe84d897	-0.25946495
57	0x3e4056e6	0.18783149
58	0x3e6e5040	0.232728
59	0xbdfaa1dd	-0.12237904
60	0x3ea7cf6f	0.32775447
61	0xbe0f83d3	-0.1401513
62	0x3e8000bc	0.2500056
63	0x3e9be2b1	0.3044639
64	0xbc85c9e1	-0.016331615
65	0x3e95d468	0.29263616
66	0xbe76c79f	-0.24099587
67	0x3d2e2a43	0.042520773
68	0xbb0eb4ec	-0.0021775318
69	0xbe73e8b8	-0.23819244
70	0x3d445be7	0.047939207
71	0xbd9f2d83	-0.077723525
72	0xbdcdc366	-0.10047035
73	0xbeb7076c	-0.3574785
74	0x3e3ba225	0.18323572
75	0xbddfc651	-0.10926498
76	0x3e2c84a6	0.16847476
77	0x3e26b031	0.16278149
78	0x3df230f6	0.11825745
79	0xbd10071b	-0.035163026
80	0xbe6735e5	-0.22579153
81	0xbec31ce2	-0.38107973
82	0x3e295d5f	0.16539524
83	0xbd12ce9b	-0.035841566
84	0x3e24c7f4	0.16091901
85	0x3e3880ad	0.18017836
86	0x3e10d5f0	0.1414411
87	0xbe61326d	-0.21991892
88	0x3e1bc782	0.15212825
89	0xbdffcf30	-0.1249069
90	0x3d671001	0.056411747
91	0xbc876949	-0.016529696
92	0x3e0eb9c8	0.13938057
93	0xbd005ab6	-0.03133651
94	0x3ea031ab	0.31287894
95	0xbe467f50	-0.19384503
96	0xbcd1f65f	-0.025630174
97	0xbde195ec	-0.110149235
98	0x3de58b0b	0.11208161
99	0x3e837a34	0.2567917
100	0x3e817e16	0.25291508
101	0x3e13759a	0.1440033
102	0x3e44a66d	0.19204111
103	0x3d3b8dc9	0.045789514
104	0xbd42718b	-0.047471564
105	0xbd67c4e6	-0.05658426
106	0x3e8e0631	0.277391
107	0x3e5640b6	0.20923123
108	0xbe6b7605	-0.2299424
109	0x3e867782	0.26263052
110	0xbe93829c	-0.28810585
111	0x3d14d8a9	0.036339436
112	0xbcbdbaf8	-0.023160443
113	0xbd9d585d	-0.076828696
114	0xbd319d75	-0.043363053
115	0xbe53b9ac	-0.20676297
116	0xbe356832	-0.17715529
117	0xbe385ed7	-0.18004929
118	0xbdeb6c3e	-0.11495255
119	0x3edb0f4c	0.42785108
120	0x3e5f002e	0.21777412
121	0xbe8364d9	-0.25662878
122	0xbb96eab7	-0.004605617
123	0xbe48fa55	-0.19626744
124	0xbdeae06d	-0.11468587
125	0x3d7c3aae	0.0615794
126	0xbd017051	-0.031601254
127	0x3ca64a8b	0.020299217
128	0xbe15dc08	-0.14634717
129	0x3e1bcf60	0.15215826
130	0xbe3d3298	-0.18476331
131	0xbde85ec0	-0.11346197
132	0x3e4cecea	0.2001225
133	0xbd9cc611	-0.07654966
134	0xbc7e1dc3	-0.015510025
135	0x3ee0f4e8	0.4393685
136	0x3de6aba9	0.1126321
137	0xbd8c823a	-0.06860776
138	0xbe4e7e51	-0.20165373
139	0xbe07b683	-0.13253216
140	0xbe27a5f8	-0.16371906
141	0xbbae179d	-0.0053128735
142	0xbe2c141e	-0.16804549
143	0x3eabf8e5	0.3358833
144	0xbdede44c	-0.1161581
145	0xbc75a68f	-0.014993324
146	0xbdb0bcc6	-0.08629756
147	0x3e3708d8	0.17874467
148	0x3e9ddc34	0.30832064
149	0xbdd176ef	-0.10227763
150	0xbed417b2	-0.41424328
151	0x3b8042ec	0.0039142277
152	0x3e394e94	0.18096381
153	0xbe238cb4	-0.15971643
154	0x3c371840	0.011175215
155	0xbe6a6351	-0.22889449
156	0xbde73a57	-0.11290424
157	0x3e13497f	0.14383505
158	0x3aabde09	0.0013112436
159	0x3e6a259c	0.2286591
160	0x3da109cb	0.07863196
161	0x3eca60be	0.39526933
162	0x3d80e8d8	0.062944114
163	0x3e1ee9f5	0.15518935
164	0x3e29ad69	0.16570057
165	0xbe040b7d	-0.12895007
166	0x3e240fb9	0.16021623
167	0x3e280751	0.16409041
168	0x3d835f27	0.06414633
169	0x3dd3d16e	0.1034268
170	0xbe048a95	-0.1294349
171	0xbd610b3c	-0.054942355
172	0xbe80c392	-0.25149208
173	0x3ef3af11	0.47594503
174	0xbea4e160	-0.32203197
175	0xbdee541f	-0.116371386
176	0xbead1262	-0.33803087
177	0x3ccf40b5	0.02529941
178	0xbee86214	-0.45387328
179	0x3d9b7e61	0.07592464
180	0x3eb1c4d9	0.34720495
181	0x3e8df186	0.2772333
182	0x3d8decc4	0.06929925
183	0x3e1afb19	0.15134849
184	0x3eaa65ff	0.33280942
185	0x3c8a25c0	0.016863704
186	0x3e25ef0d	0.16204472
187	0xbec489cc	-0.3838638
188	0xbcca3584	-0.024683721
189	0xbdca4224	-0.098758966
190	0xbd5d71e9	-0.05406371
191	0xbe0c4f11	-0.13702036

bias f4 [6]
0	0xbe143bba	-0.14475909
1	0xbd4257ef	-0.04744714
2	0x3dc9aa44	0.09846929
3	0x3e690666	0.22756347
4	0xbbe3b6c6	-0.0069492785
5	0x3e14c9c3	0.14530091

weight f4 [32, 17]
0	0xbece2035	-0.40258947
1	0xbf65bd09	-0.8974157
2	0x3fb58f0c	1.418428
3	0x3ead5975	0.33857313
4	0xbf4bd6bf	-0.7962455
5	0x3e86bf8e	0.2631802
6	0x3eae41f6	0.340347
7	0x3f2a10fa	0.66432154
8	0x3d74755e	0.059682243
9	0x3f0b5b46	0.5443615
10	0xbf29ead5	-0.6637395
11	0x3d2a505a	0.041580535
12	0xbeb48a13	-0.35261592
13	0x3e2fb0e0	0.17157316
14	0x3ed2ba5d	0.4115781
15	0x3d2af257	0.04173502
16	0x3e8d5b68	0.276088
17	0xbccae719	-0.0247684
18	0x3fd6f39a	1.6793091
19	0xbf8e9981	-1.1140596
20	0xbf7088cf	-0.93958753
21	0xbfaef61b	-1.3668855
22	0xbffd79b3	-1.9802765
23	0xbee70a90	-0.45125246
24	0xbef1c741	-0.4722233
25	0xbdb8a7c9	-0.090163775
26	0x3ec6d4b3	0.38834152
27	0x3e8282d8	0.2549045
28	0xbe1711ff	-0.14752959
29	0xbe950895	-0.2910811
30	0x3d78a4e7	0.060704138
31	0xbe48f8a1	-0.19626094
32	0xbdeb7332	-0.11496581
33	0xbd01b86b	-0.031670015
34	0x3ee6995f	0.45038888
35	0x3d4ce31f	0.050021287
36	0xbec8a020	-0.39184666
37	0xbed59d88	-0.4172175
38	0xbf922825	-1.1418501
39	0x4012b76b	2.292445
40	0x3fdfe6cb	1.7492307
41	0xbca1f819	-0.019771622
42	0xbf9bc6fe	-1.2170103
43	0x3f1d0013	0.6132824
44	0x3f43f775	0.76549464
45	0xbda922d0	-0.08258593
46	0x3bb636c3	0.0055607273
47	0x3d733ec6	0.059386037
48	0xbee679b3	-0.45014724
49	0xbe152f70	-0.14568877
50	0xbbd0faa2	-0.006377534
51	0xbd0bc120	-0.034119725
52	0x3e603e8f	0.21898864
53	0x403ed447	2.9817064
54	0x3fbd4562	1.4786799
55	0x3f00d9ec	0.5033252
56	0xbfef57ec	-1.8698707
57	0xbfb39550	-1.4029942
58	0x3f48a515	0.78376895
59	0xbf7c6681	-0.9859391
60	0xbfe29e61	-1.7704583
61	0x3dfc84ae	0.12329994
62	0xbc004c08	-0.007830627
63	0x3d415b71	0.047206346
64	0x3c0b5c1b	0.008505846
65	0xbe433bd6	-0.19065794
66	0xbe066766	-0.13125381
67	0xbca5c854	-0.020237125
68	0xbe5a0650	-0.2129147
69	0xc037d66d	-2.8724625
70	0xbf615ef3	-0.88035506
71	0x3fe18b49	1.7620631
72	0x3de3aa6d	0.111164905
73	0x3ff4c843	1.9123615
74	0x3f7d2ffb	0.9890134
75	0x3d122edc	0.03568922
76	0xc00b05e0	-2.1722336
77	0x3d2531b2	0.040330596
78	0x3c809a5a	0.0156986
79	0xbdf5f72c	-0.12010035
80	0x3d00fda6	0.031491898
81	0xbce1396b	-0.0274932
82	0x3e3ee73f	0.18642901
83	0x3d6ce210	0.057832778
84	0x3de3ed8d	0.111292936
85	0xbf20f1e1	-0.6286908
86	0x3ede3e98	0.4340713
87	0x3fc5ec6e	1.5462778
88	0x3f260384	0.64849114
89	0xbdd309f4	-0.10304633
90	0xc0094ee1	-2.1454394
91	0xbf4e2cc7	-0.80537075
92	0xbd5968b2	-0.05307836
93	0x3fd1a6d0	1.6379032
94	0xbe4f3ad9	-0.20237292
95	0xbd8d1c2f	-0.06890141
96	0x3d850506	0.06495099
97	0xbcc29b36	-0.023755651
98	0x3da0883f	0.07838487
99	0xbdf0890b	-0.11744889
100	0xbd38711e	-0.045029752
101	0xbc39b418	-0.011334442
102	0xbc91d130	-0.017799944
103	0xbf50f950	-0.8163042
104	0x3f7ca16a	0.986838
105	0xbde1c970	-0.11024749
106	0xbf24d526	-0.6438774
107	0x3d077981	0.03307486
108	0x3cc03074	0.023460604
109	0x403200e3	2.7813041
110	0xbd42d599	-0.047566984
111	0xbf34f8f8	-0.70692396
112	0xbe4c891d	-0.1997418
113	0x3e7961e6	0.24353752
114	0x3e051a9c	0.12998432
115	0xbe3e8bc4	-0.18608004
116	0xbdb9817f	-0.090579025
117	0xbdf7a363	-0.120917104
118	0xbb71ab0a	-0.003687563
119	0xbf81fc58	-1.0155134
120	0x3f9c28d4	1.219996
121	0x3e8bfb46	0.27340144
122	0xbe47ea3d	-0.19522949
123	0xbee40841	-0.44537547
124	0xc056a3b7	-3.3537424
125	0xbfcff15c	-1.6245532
126	0xbe3aefe4	-0.18255574
127	0x3ebb068e	0.36528438
128	0x3ec4f3fa	0.3846739
129	0xbe222a41	-0.15836431
130	0x3d74c6fe	0.059760086
131	0xbd3bb3b4	-0.045825675
132	0xbc2eac8d	-0.0106612565
133	0xbade00b3	-0.0016937464
134	0x3bce5cc6	0.0062976805
135	0xbbf6c92b	-0.0075313053
136	0xbf277a15	-0.6542066
137	0x3d72a40a	0.05923847
138	0x3dcee53d	0.101023175
139	0x3e6e7f57	0.23290764
140	0xbe8e85c5	-0.27836433
141	0x3cfd0aa9	0.030888872
142	0xbfa79079	-1.3090965
143	0xbfef0efc	-1.8676448
144	0xbe8deff0	-0.2772212
145	0xbf75d281	-0.9602433
146	0x3e9e7bdf	0.3095388
147	0xbe310b76	-0.17289528
148	0xbdad2215	-0.08453766
149	0xbcece00c	-0.028915428
150	0xbc995978	-0.01871942
151	0x3d896e4c	0.067104906
152	0x3c020ecf	0.007938101
153	0x3d6ad90a	0.05733589
154	0x3f8e061a	1.1095612
155	0x3fac856d	1.3478218
156	0x3ef2cff2	0.47424275
157	0xbecdfe51	-0.4023309
158	0xbfb48a44	-1.4104695
159	0xbf6db4ea	-0.9285418
160	0xbf04c8b0	-0.51868725
161	0xbe9b0af9	-0.3028181
162	0xbf820e52	-1.016062
163	0x3e11e321	0.14246799
164	0x3d0949c9	0.033517633
165	0x3d489692	0.04897172
166	0x3c0693b3	0.008213925
167	0x3bb90fdb	0.005647642
168	0xbcd081c3	-0.0254525
169	0xbd5fb222	-0.05461324
170	0x3f7ec091	0.99512583
171	0x3ebd40f3	0.36963615
172	0x3d1c3782	0.038138874
173	0xbeea9163	-0.45814046
174	0x3f953fd7	1.1660107
175	0xbf171156	-0.5901083
176	0x3e3a2fa1	0.18182231
177	0xbfd6143b	-1.6724924
178	0x3ea9c4a5	0.3315784
179	0x3fd44172	1.6582472
180	0xbf40d005	-0.7531741
181	0x3e067785	0.1313153
182	0x3dcc71da	0.09982653
183	0x3d1d12c2	0.038347967
184	0x3f05d772	0.5228187
185	0x3eb0a235	0.34498754
186	0x3d6bd9cd	0.057580758
187	0x3d599b50	0.053126633
188	0x3f0f3788	0.5594411
189	0xc075eccd	-3.8425782
190	0xc011dcb0	-2.2790947
191	0xbea330e3	-0.31873235
192	0x4009f600	2.1556396
193	0xbd5124d7	-0.051060524
194	0xbf637149	-0.88844734
195	0x3a2d9a3c	0.0006622409
196	0xbf4e9777	-0.80699867
197	0xbf116bc0	-0.5680504
198	0xbe88c7fd	-0.2671508
199	0xbe3400ac	-0.17578381
200	0xbd79c8a1	-0.06098235
201	0x3f2e10fe	0.6799468
202	0x3ea5d3f0	0.32388258
203	0xbd0edb2b	-0.034876984
204	0xbf141f3a	-0.5786015
205	0x3f8c92a7	1.0982255
206	0xbeb9e8f3	-0.3631054
207	0xbec3f0ee	-0.38269752
208	0xc03d8818	-2.9614315
209	0x3e4400f3	0.19140987
210	0x3f282be5	0.6569198
211	0x3d77c035	0.060486037
212	0x3edfd8c8	0.43720078
213	0x3eece8fc	0.46271503
214	0x3ec527b8	0.38506866
215	0xbdcace01	-0.099025734
216	0xbe61cf86	-0.2205182
217	0xbd42f6d8	-0.04759869
218	0xbeb3a578	-0.3508718
219	0xbe8fd6ba	-0.2809351
220	0xbcd86ed3	-0.026420033
221	0x3ea43b88	0.3207667
222	0x3f690511	0.91023356
223	0x405a421d	3.4102852
224	0x3fcecb1b	1.6155733
225	0xbdaf170f	-0.0854932
226	0xbfd89996	-1.6921871
227	0x3ed565bd	0.41679183
228	0x3e8aa5f7	0.27079746
229	0xbedfb3b0	-0.43691778
230	0x3e546142	0.20740226
231	0xbdf9445d	-0.121712424
232	0x3eb8094c	0.35944593
233	0x3ded84bb	0.11597582
234	0x3d426195	0.047456343
235	0xbe657c0f	-0.22410606
236	0xbe6e0bc5	-0.23246677
237	0x3d2ff181	0.042954925
238	0xbf159667	-0.5843262
239	0x3eb6848e	0.35648006
240	0x3f35a5e1	0.70956236
241	0x3eefa6ca	0.46806937
242	0xbf3a810c	-0.7285316
243	0x3d43f94d	0.047845174
244	0xbf3c166c	-0.73471713
245	0xc026a3e0	-2.6037521
246	0xbe073b6c	-0.13206261
247	0x3db224b8	0.0869841
248	0x3f069b70	0.5258093
249	0xbea2759d	-0.31730357
250	0xbe8369c9	-0.25666645
251	0xbdf1894e	-0.11793767
252	0xbe9808e3	-0.2969428
253	0xbe8867cf	-0.266417
254	0xbbc0e478	-0.0058866106
255	0x3f795af1	0.9740439

bias f4 [32]
0	0xbe38f222	-0.18061116
1	0x3e6c7e74	0.23095113
2	0x3f17fa92	0.59366715
3	0x3da62495	0.08112446
4	0xbe67901a	-0.22613564
5	0xbf0ce2ce	-0.55033576
6	0x3f4d898f	0.8028802
7	0xbf346d87	-0.70479625
8	0xbf29f61e	-0.6639117
9	0xbcd298d6	-0.025707643
10	0x3df61f26	0.1201766
11	0xbee12ac8	-0.43977952
12	0xbd644f81	-0.055739883
13	0x3d7b330f	0.06132799
14	0xbf0f713a	-0.56032145
15	0x3f52cf6b	0.82347745
16	0x3ecc756d	0.3993334
17	0xbde32e6e	-0.1109284
18	0xbe8bfa91	-0.27339604
19	0x3ebdda54	0.37080634
20	0x3d3ba2e6	0.04580965
21	0x3d2ab987	0.04168084
22	0x3f0ff7f0	0.562377
23	0x3ea580e6	0.32324904
24	0xbe4c141b	-0.19929545
25	0xbf1c8c67	-0.61151737
26	0x3e9de46c	0.30838335
27	0xbe2b97ed	-0.16757174
28	0x3ce7ba5a	0.028287102
29	0x3f734dee	0.95040786
30	0xbec12c59	-0.37729147
31	0x3f503b81	0.81340796

weight f4 [32, 32]
0	0xbe838344	-0.25686085
1	0x3f0f8874	0.56067586
2	0xbf6cf250	-0.9255724
3	0x3df118a0	0.11772275
4	0x3e21f2ad	0.1581523
5	0x3f5c2f44	0.8600962
6	0xbf8123a0	-1.0088997
7	0x3fe004f8	1.7501516
8	0x3f9f42ca	1.2442257
9	0x3f1345cb	0.5752837
10	0x3efabfd5	0.4897448
11	0xbf1e7f97	-0.61913437
12	0x3f8fa302	1.1221621
13	0x3f1191bb	0.5686299
14	0x3f772135	0.96535045
15	0xbf8403cc	-1.0313659
16	0xbeb46cda	-0.35239297
17	0xbd78d43b	-0.060749274
18	0x3e208fd0	0.1567986
19	0xbe781e3f	-0.24230288
20	0xbfb7a2d2	-1.4346564
21	0xbf686288	-0.90775347
22	0x3fa4ad23	1.2865337
23	0x3b0e8f6b	0.0021752964
24	0x3f31c857	0.6944632
25	0xbdb60e07	-0.08889394
26	0xbd1b25c5	-0.037877817
27	0x3fedd69e	1.8581121
28	0xbebc1b96	-0.36739796
29	0xc0198fc7	-2.3994005
30	0x3f5ce36d	0.86284524
31	0x3f1299ea	0.57266104
32	0xbe8ccf22	-0.2750178
33	0x3e8c90f2	0.27454334
34	0x3e9b4dcf	0.303328
35	0xbeb59bd7	-0.3547046
36	0x3c49e8ff	0.012323617
37	0xbf6b9a5a	-0.92032397
38	0xbf98cf01	-1.1938173
39	0x3e29ef48	0.16595185
40	0x3fa079a4	1.2537122
41	0x3f887dc8	1.0663385
42	0x3e37b5e2	0.17940477
43	0x3f1416d8	0.57847357
44	0x3d539c73	0.051662873
45	0xbf0a53ab	-0.5403392
46	0x3f5606a1	0.83603865
47	0xbf03a4a1	-0.5142308
48	0x3e68dd46	0.22740659
49	0xbe86a850	-0.26300287
50	0xbda7f7fe	-0.08201598
51	0xbf7bd1a0	-0.9836674
52	0xbf31634f	-0.6929216
53	0x3cc52505	0.024065504
54	0x3f4ffe0e	0.8124703
55	0x3d37c846	0.04486873
56	0x3f10966c	0.56479526
57	0x3f36cd31	0.7140685
58	0x3e685d21	0.22691776
59	0xbe460710	-0.19338632
60	0x3cbfb43d	0.023401374
61	0xbf93d255	-1.1548563
62	0xbc167a4b	-0.00918443
63	0x3f064498	0.52448416
64	0x3f6f15fb	0.93392915
65	0xbf6745de	-0.90340984
66	0x3e659d11	0.22423197
67	0xbf7b1dc9	-0.98092324
68	0x3f0aadad	0.5417126
69	0x3f8e92b6	1.1138523
70	0xbd5266ed	-0.05136769
71	0x3e649266	0.22321472
72	0x3f2ab6ed	0.6668537
73	0xbea6b2db	-0.3255833
74	0xbf2c1225	-0.67215186
75	0xbeead15c	-0.45862854
76	0xbe8c4c9d	-0.274022
77	0x3e444e04	0.19170386
78	0x3f6c184a	0.9222456
79	0x3ef0aff0	0.4700923
80	0x3ef981a9	0.48731735
81	0x3f3d492d	0.7393978
82	0x3ffd66aa	1.9796956
83	0xbf8c6e4f	-1.0971164
84	0x3fd82af6	1.6888111
85	0x3ef1d634	0.47233737
86	0xc01e2693	-2.4711044
87	0x3f95dbd3	1.170771
88	0xbf047bd7	-0.51751465
89	0xbe20d976	-0.15707955
90	0xbf977db0	-1.1835232
91	0x3f84d683	1.0377964
92	0x3f1094a5	0.56476814
93	0xbee68cfd	-0.4502944
94	0xbf706c62	-0.9391538
95	0xbe1fe431	-0.15614392
96	0x3e330ac9	0.17484583
97	0xbd941c7c	-0.072319955
98	0xbec55cb8	-0.385473
99	0xbeaff605	-0.34367386
100	0xbe145064	-0.14483792
101	0x3f910854	1.1330667
102	0xbf0efbde	-0.5585307
103	0x3f7d3396	0.9890684
104	0x3f286d4b	0.6579177
105	0xbf290cc7	-0.6603512
106	0xbefd991d	-0.4953088
107	0x3f307e8c	0.68943095
108	0xbf45bd46	-0.77241933
109	0xbf6cfb76	-0.925712
110	0x3ea8983b	0.32928643
111	0xbed18354	-0.40920508
112	0xbe362a6f	-0.17789625
113	0xbd289137	-0.041154113
114	0xbebcd569	-0.3688157
115	0x3f7002df	0.9375438
116	0xbd8eee54	-0.06979051
117	0x3eea30fb	0.45740494
118	0xbeef22c5	-0.46706215
119	0xbf5c57e7	-0.8607163
120	0xbdbbd0f3	-0.09170713
121	0x3e968a33	0.29402313
122	0xbd69e393	-0.057101797
123	0x3d630ed8	0.055434078
124	0xbd03d337	-0.032183852
125	0xbf59a644	-0.85019326
126	0x3e5268e7	0.2054783
127	0xbf273452	-0.6531421
128	0x3f408081	0.7519608
129	0xbf3b937f	-0.73271936
130	0x3e5a5128	0.21320021
131	0xbfc066b6	-1.5031345
132	0x3f694227	0.91116565
133	0x3fa7f07c	1.3120265
134	0xbe340e40	-0.17583561
135	0x3ee297ac	0.4425634
136	0x3f26f92f	0.65223974
137	0xbf18c184	-0.5967028
138	0xbeece0aa	-0.46265155
139	0xbe94c5e5	-0.29057232
140	0x3f02718f	0.50954527
141	0xbd3661ec	-0.04452698
142	0x3f426ead	0.7595013
143	0x3f435624	0.76303315
144	0x3f1e2ef5	0.617904
145	0x3f47fa0b	0.7811591
146	0x400efc3e	2.2341456
147	0xbf703b69	-0.9384065
148	0x3fc7459c	1.5568118
149	0x3ea1f15e	0.3162946
150	0xc0076670	-2.1156273
151	0x3f6486ec	0.89268374
152	0xbf53ef94	-0.8278744
153	0xbc69e81a	-0.014276529
154	0xbf66e296	-0.9018949
155	0x3fc13b20	1.5096169
156	0x3f58df12	0.8471538
157	0xbe72319c	-0.23651737
158	0xbfae93c8	-1.3638849
159	0x3e3f649d	0.18690725
160	0xbdad4f6f	-0.084624164
161	0x3deee9f1	0.116657145
162	0x3f9f39b8	1.2439489
163	0xbe8f4e60	-0.27989483
164	0x3e64442b	0.22291629
165	0xc0107a79	-2.2574751
166	0x3f37b35a	0.71758044
167	0xc00c0636	-2.187879
168	0xbe63290b	-0.22183625
169	0xbdf7189f	-0.12065243
170	0x3f5d3990	0.8641596
171	0x3ecb20ab	0.3967336
172	0xbec59b0b	-0.3859485
173	0xbe3dcc80	-0.18535042
174	0xbeae0cca	-0.33994132
175	0x3f28d639	0.6595188
176	0x3eb8f0da	0.36121255
177	0xbe93ccc2	-0.28867155
178	0x3f3f50dc	0.74732757
179	0xbe21c3ae	-0.15797302
180	0x3f8dc299	1.1075011
181	0x3f0a45b8	0.5401263
182	0xbec4e063	-0.38452443
183	0x3f30fc04	0.69134545
184	0xbec6fa04	-0.38862622
185	0xbe357e1a	-0.17723885
186	0xbd0ff50d	-0.035145808
187	0xc01bc6df	-2.4340131
188	0x3f3aba11	0.72940165
189	0x3fa56c6b	1.2923712
190	0xbf61e401	-0.8823853
191	0x3e724f7c	0.23663133
192	0x3ead045d	0.3379239
193	0xbf05dc91	-0.5228968
194	0x3f9810df	1.1880149
195	0xbf09409f	-0.5361423
196	0x3e354a96	0.17704234
197	0xbf369bbd	-0.7133139
198	0x3f8dc931	1.1077024
199	0xc0053822	-2.081551
200	0xbf2afa67	-0.66788334
201	0xbee52a18	-0.44758677
202	0xbebe3f3b	-0.37157616
203	0x3eeb5dd4	0.45970023
204	0xbf5149e4	-0.81753373
205	0x3d899a0a	0.06718834
206	0xbf939ea9	-1.1532794
207	0x3fa871a7	1.3159684
208	0x3e7a9f60	0.24474859
209	0x3d9085ad	0.07056747
210	0xbe1cbebc	-0.15307134
211	0x3dea0ec6	0.11428599
212	0x3f85f540	1.0465469
213	0x3f82918a	1.0200665
214	0xbf961089	-1.1723796
215	0x3ee4de04	0.44700634
216	0xbe57e702	-0.21084216
217	0xbdaa5dc9	-0.08318669
218	0x3ecff771	0.4061847
219	0xbffdd826	-1.9831588
220	0x3fbb503e	1.4633863
221	0x40454323	3.0822227
222	0xbf404040	-0.7509804
223	0xbe310bbb	-0.17289631
224	0xbf31f6c5	-0.69517165
225	0x3f6c5c15	0.92328006
226	0xbe9e0a6b	-0.30867323
227	0xbf1f95c8	-0.62337923
228	0xbfbc8f79	-1.4731284
229	0x3dc901d2	0.098148
230	0xbe8ddc5f	-0.27707192
231	0x3e5bfd5d	0.21483369
232	0xbf001664	-0.50034165
233	0xbe16bd6a	-0.14720693
234	0xbc893a58	-0.016751453
235	0xbe1e6257	-0.15467201
236	0x3f643bc4	0.89153695
237	0xbf35601c	-0.70849776
238	0xbf11d2c6	-0.5696224
239	0xbe8b96ea	-0.27263576
240	0xbf8ae358	-1.085063
241	0x3e28da28	0.1648947
242	0xc004891b	-2.0708683
243	0x3fb999d0	1.4500065
244	0xbfdccb76	-1.7249591
245	0xbe42511b	-0.18976252
246	0x3fae6487	1.3624429
247	0xbf5ff87b	-0.87488526
248	0x3fc74eab	1.5570883
249	0x3ed1d05c	0.40979278
250	0x3e8ebac3	0.27876863
251	0xbed77251	-0.42079404
252	0xbdac0fcb	-0.0840145
253	0x3e7dcf6c	0.24786156
254	0x3fa3af87	1.2787942
255	0xbeab88a5	-0.3350269

bias f4 [32]
0	0xbf731514	-0.9495404
1	0xbedc9659	-0.43083456
2	0xbf907900	-1.1286926
3	0xbd816696	-0.06318395
4	0xbf578736	-0.8419069
5	0x3ed448c7	0.41461775
6	0x3f88cd48	1.0687647
7	0x3f0cef87	0.5505299
8	0xbf9d7b6e	-1.2303293
9	0xbf3314b1	-0.6995345
10	0xbec36d94	-0.3816954
11	0xbf809e98	-1.0048399
12	0xbfbccb83	-1.4749607
13	0xbf66b189	-0.9011465
14	0xbe84313e	-0.2581882
15	0xbf6155ae	-0.8802136
16	0x3f9be660	1.217968
17	0x3f535f7b	0.82567567
18	0x3f8c72bb	1.0972513
19	0xbf7e0dca	-0.9923979
20	0x3f880c00	1.0628662
21	0xbf58dd1e	-0.847124
22	0x3f87ad59	1.0599777
23	0xbf096a21	-0.53677565
24	0xbf3175d1	-0.693204
25	0xbed8501f	-0.42248628
26	0xbf9c6002	-1.2216799
27	0x3f84e43a	1.0382149
28	0xbf80a7b6	-1.0051181
29	0x3f827cef	1.0194377
30	0xbfa20ee1	-1.2660791
31	0x3f263d9b	0.6493775

weight f4 [1, 32]
0	0xc12968b7	-10.588065
1	0xc11874fc	-9.528561
2	0xc10c0100	-8.750244
3	0x4119a78e	9.603407
4	0xc10c1a60	-8.756439
5	0xc1302ca8	-11.010902
6	0x4129cfe3	10.613254
7	0x410be4a7	8.743323
8	0xc128ad8e	-10.542372
9	0xc12a6abe	-10.65106
10	0xc13475bc	-11.278744
11	0xc10bb4a4	-8.731602
12	0xc125603f	-10.335998
13	0xc10d3e40	-8.827698
14	0x4112355c	9.138027
15	0xc12600db	-10.375209
16	0x41250f45	10.316228
17	0x412be808	10.744148
18	0x410c4c3c	8.768612
19	0xc10c270d	-8.759534
20	0x410bbbb8	8.73333
21	0xc12d729d	-10.840482
22	0x410b7ab8	8.717461
23	0xc12f8baf	-10.971602
24	0xc10d99fd	-8.850095
25	0xc1298e82	-10.597292
26	0xc12beb1a	-10.744898
27	0x410a59ce	8.646925
28	0xc10b33c2	-8.700136
29	0x412a87ad	10.658124
30	0xc10af621	-8.68509
31	0x410b97a3	8.724521
