2IWIL_Repo/log/Mixed2IWIL/Ant-v2_1111_True_mixture_0.2_4000.pt (torch_old, 178037 bytes, 7 tensors)

action_log_std f8 [1, 8]
0	0xc003805ad41c43c1	-2.4376732417226497
1	0xc00512987d015658	-2.634079910853682
2	0xc000ef383f89144b	-2.116806503649547
3	0xc001875b33597c5a	-2.1910919200595744
4	0xc002405e4802eab4	-2.2814298272981777
5	0xc00425229a651dc2	-2.5181324064357975
6	0xbfffc23cc8eafb34	-1.9849212501864715
7	0xc000f67374ac7bbf	-2.12033740188005

affine1.weight f8 [100, 111]
0	0x3f9e7e76882e6ca7	0.0297792931192872
1	0x3fc0302209668ae5	0.12646890124332014
2	0x3f9b6d4f8c2dece2	0.026784174853202176
3	0x3f90f81e0450e248	0.01657149220793233
4	0x3f92c8b7ea4c081b	0.018343805003503726
5	0x3f846b77d61edaa0	0.009970604154529383
6	0x3fbef0eb8e7ef974	0.12086364964395618
7	0xbfbe4911bc9d779c	-0.1183024487959003
8	0x3fa64220f4045b06	0.04347327212069811
9	0x3f79f1a8b1bd6d23	0.006333979570480683
10	0xbf95f1a23e6163c3	-0.021429572160147858
11	0x3fbe8ad4d3019995	0.11930589820403832
12	0xbf9e6a4fb76d9045	-0.02970242077880438
13	0x3fbfc8744c089751	0.1241524396542364
14	0x3fa6137d6e38d532	0.043117446617922175
15	0x3fa12aab94750648	0.033528673050125024
16	0x3fbd41b42c2f5162	0.11428381041270577
17	0xbfbcde78287c0950	-0.11276961315528422
18	0x3fbe4753cbfde6fe	0.11827586870449733
19	0x3f429a82ef95bbb1	0.0005677356086105559
20	0x3fc248ca7a4a933a	0.14284640284781763
21	0xbfb173ec35bc8efd	-0.0681750899498716
22	0xbfd5589b0b2b7731	-0.33353305903243596
23	0xbfb1d2087f90112a	-0.06961110224080316
24	0xbfce24c886432594	-0.23549753719116195
25	0x3f90db3de52d4787	0.016461341011854393
26	0x3fbaf29c09ccd363	0.10526442755947367
27	0x3fb4aeac16e3a387	0.08079028662508679
28	0x3f84a44b6c331830	0.010078992118348479
29	0xbfa7492e94ff2627	-0.04548020905310706
30	0x3fb28c960019ca1b	0.0724576711889217
31	0x3faf363331c2fb52	0.06096038801614746
32	0xbf3d3a7f8ec37700	-0.000445991651543895
33	0xbfb2d9f857a43c2a	-0.07363845958410367
34	0xbfb3bb5a23e6b747	-0.07707751633162473
35	0xbfa40753ee8bd0da	-0.0391184071249044
36	0x3fafea1731919bca	0.06233284454429329
37	0xbf960fa2bc7480d8	-0.021544020416627813
38	0xbfa7620b4335cebe	-0.045669891313904185
39	0xbfaa2686d41a2e2b	-0.05107518519534112
40	0xbfb452162e40e724	-0.0793775427745485
41	0xbf754d535aaefba0	-0.005200696566077051
42	0x3fb8287ff60d47e7	0.09436797864080369
43	0xbfb5ee539dc4463a	-0.08566782571531287
44	0xbfb6b74dc3b7f831	-0.08873449352538
45	0x3fb72bfbd87667ad	0.09051488909463386
46	0x3f68817f990f48a0	0.002991437162998059
47	0xbfa5282509de0dfa	-0.04132190461589498
48	0x3fa36491240f4316	0.03787663998776318
49	0xbfa14e836983136f	-0.033802134160885504
50	0x3fa7b42dd7c87d5a	0.04629653224059878
51	0xbf989119624e1c64	-0.023991009354656603
52	0xbf83b13c55aa13c0	-0.00961539398600475
53	0xbf742ceaf4b47b90	-0.004925649448778283
54	0xbfabe77ff5908349	-0.05450057861913266
55	0x3fb23d5aebb98f35	0.07124870543480884
56	0x3fab5d696866a13e	0.05344705008912108
57	0xbfa712e89264294f	-0.045066135282541546
58	0x3fa85df15b4f0192	0.0475917266808238
59	0xbf8f542040a0b560	-0.015297176334650942
60	0x3f929c17a781683c	0.018173570250248114
61	0x3fa3ddfe8bf7d7ce	0.0388030572757284
62	0xbfa42750abb6794d	-0.03936245056250929
63	0xbf6863ac9a7aea80	-0.002977215877618733
64	0xbfb767197e6d58d6	-0.09141692482566852
65	0x3fac5d932fa1d8c2	0.05540142017791673
66	0xbfa7327135ed7f09	-0.04530671866700515
67	0x3fb4e5f79082cb81	0.08163401868914201
68	0x3faff657d2643876	0.06242632334952784
69	0x3fa8e0c527cee6b2	0.04858986006679568
70	0xbfad70aa72bd13b7	-0.057500196939634866
71	0x3fb0fd4f02efe941	0.06636518308360896
72	0x3f85aa2369771038	0.010578419357337152
73	0x3f8cdc0e88995ee0	0.014091599982904268
74	0xbfa8dc10d3a4e84d	-0.04855396827265732
75	0x3fa373c0c3a8a39e	0.03799250019466814
76	0xbfb610cbb5269724	-0.08619378254533366
77	0x3fb80021b1c79649	0.09375200834582488
78	0xbfb289071ce4f254	-0.07240337806155966
79	0x3f965cb7980a495c	0.021838062910839326
80	0x3fb53b66e8bc7bbb	0.0829376524165885
81	0xbf8707012624ec98	-0.011243828751153637
82	0x3fa4ac0c929b8fa6	0.04037513055462165
83	0x3fb70ab30ceaba83	0.0900070101294919
84	0x3f13433e8e58fc00	7.348126708793534e-05
85	0xbf90aac6fb792ff0	-0.016276463602750313
86	0x3f9d1498efff9a5c	0.02839888539156231
87	0xbfb1de8a881ca8c0	-0.06980195830388691
88	0x3f97e954f3a13f3c	0.023351027841555835
89	0x3fa78d580f962bbe	0.046000244047796
90	0x3fb4af6abfff64e5	0.08080165088121623
91	0x3fa304c316ae402a	0.0371457066713677
92	0xbf90da9989c1797c	-0.016458891900009473
93	0x3fb3f113621b1077	0.07789727349433116
94	0xbf985a4725f00844	-0.02378188294461149
95	0xbf9163f00dcc7f70	-0.016982794611180407
96	0xbf7b4755ec5fabb0	-0.006659827840830454
97	0x3f98faf1496fcaa8	0.024394769770831687
98	0x3fb151ec990123dd	0.06765631423435488
99	0x3f851b3f54e7bc38	0.010305876520730547
100	0xbfb2a5a1cd78045b	-0.07283984438255812
101	0x3fb3df268e772147	0.07762375810773846
102	0x3f81c0c2b1c5b140	0.008668442773988816
103	0x3fb000106e0b1bdb	0.06250097929579061
104	0x3faa9316929e66ca	0.05190344371585594
105	0x3f949f2259ef4f84	0.02013829873960972
106	0x3f9573595022e524	0.020947833553440223
107	0x3fa400632b1cdd52	0.03906545544890129
108	0xbf96597039e5850c	-0.02182555535671775
109	0x3fb3d471cf58fd3b	0.07746039688298804
110	0xbfa992f359797e81	-0.0499492689821155
111	0xbf9e70786130efef	-0.02972591489036341
112	0xbfbe2a57fc16d5bc	-0.11783361343881088
113	0xbfb95feb631560e7	-0.0991198651221371
114	0x3fb378ec144eaed6	0.0760638761118416
115	0xbfa7b251940a1b46	-0.046282338448739455
116	0x3fbc0ce793a660d4	0.10957190851911786
117	0xbfb00b8d8f526078	-0.06267628430430416
118	0xbf608bf0f6a4a99a	-0.002019854194391613
119	0xbf73f139fdc0b389	-0.004868723419389273
120	0x3fa1973b1ed555e7	0.03435692550071306
121	0x3fa35e7b1ffc667c	0.037830207495244544
122	0xbf8fbac8c1a083a5	-0.015492981347110144
123	0x3fb1ac89e92229c8	0.06903898183569546
124	0xbfaf7ccba3c48813	-0.06149898885838936
125	0xbf833c08ade82387	-0.009391849333967318
126	0x3f73322422c63723	0.004686490207303415
127	0xbf943a480eb5218f	-0.0197535761811039
128	0xbfbc95861871a5ed	-0.11165655228401024
129	0xbfabcd78eceb22b1	-0.054302004738535976
130	0x3f8993be35de3eb7	0.012488828677106196
131	0x3f98eb29dd113d68	0.024334577672843777
132	0x3f6a052578d89abb	0.0031762821079327186
133	0xbfa27e076bcb71d0	-0.03611777487614953
134	0xbfbcf8835a50819a	-0.11316700892394352
135	0xbfa96f55e345b6ec	-0.04967754744835226
136	0x3fd13c5894eba274	0.2693082289029356
137	0x3fc264b04d29ab47	0.14369777457917562
138	0x3fb09fe94a84c6a5	0.06494005269339682
139	0x3fb24a83236bc067	0.07144946684616259
140	0x3fb6de69735be58d	0.08933123651867998
141	0xbfa5ff14dc21a0bb	-0.04296174227857948
142	0x3fb169e9ae91f895	0.06802235137908703
143	0xbfa90dd292028593	-0.04893358261439142
144	0xbfa901f369f3c5ed	-0.048843008693335445
145	0x3f968c4e82dff1f0	0.022019602525675752
146	0xbf43c202963c0b80	-0.0006029617911454815
147	0xbf9695d252e1a7dc	-0.022055898960765194
148	0xbf82e7fc6ad55178	-0.009231540689747617
149	0xbf792455b38b73b0	-0.006138167162785743
150	0xbf913ad0b8c00d24	-0.016825925136811595
151	0xbf85f6f9990ab930	-0.010724973662345677
152	0x3fb7109739a5016f	0.09009690434777949
153	0xbfb1de4e0f209ae7	-0.06979835385628129
154	0x3fb794ef2d4abe23	0.09211630683670839
155	0x3f9728136f21db10	0.022613814981435942
156	0x3fb7645ba46e0acb	0.09137509121323288
157	0xbfb1b9f60d0d973d	-0.06924379175833635
158	0xbf96285f9fc67e3c	-0.021638387801088607
159	0x3fa00ff98504030e	0.031371877181305505
160	0x3f85f59f60d4fa48	0.010722394125534454
161	0x3f9a7b75f6c2dff4	0.025861590562925543
162	0xbfa53ab85d7890d5	-0.04146362439158372
163	0x3f9ae798bbf6ef90	0.02627409598584013
164	0x3fb7f8d3fe43bcbb	0.09364056546813775
165	0x3f795b22714b45b0	0.006190428296308267
166	0xbfb23e803266954a	-0.07126618605123727
167	0xbfa392f3181af641	-0.0382305113721313
168	0xbfada7dbbdff0a7b	-0.05792128271379667
169	0x3fa0e70026f8379e	0.03301239467337712
170	0x3f98dff9617d7868	0.024291893554043403
171	0xbfb4378331691bf7	-0.07897205311120091
172	0xbfb29015e42c663d	-0.07251107044830803
173	0xbfa3ec6a8e71c318	-0.0389130877382568
174	0xbfb190095cd6db32	-0.0686040736826328
175	0xbfb26e006c26dd99	-0.07199099197793259
176	0x3f5e195a05c83f40	0.0018370989920448305
177	0x3f9812946ff59bbc	0.02350837643953317
178	0xbfb615e657e66e51	-0.08627166410445254
179	0x3f897076d6c68c78	0.01242153971617753
180	0x3fb171eee9c20e55	0.0681447334955519
181	0x3f938793d5b3718c	0.019071874540587383
182	0xbf86d3ca51164c88	-0.01114614543874938
183	0xbfb4ae52d5d4709e	-0.08078496666388665
184	0xbfb466012cda9f01	-0.07968146653240284
185	0x3fac4e0f19b25ea2	0.05528304279976949
186	0x3f802abf1c8cae60	0.007894032534372986
187	0x3f9eaa782a761aa4	0.029947164146075025
188	0xbfa3789191e6c043	-0.0380292406656513
189	0x3f932c6f99ed86d8	0.018724197168359463
190	0x3fb594b9a125ae2f	0.0843006151605372
191	0xbfaddd684b6fe4c4	-0.05832982941496703
192	0x3f8990cac6ccbed0	0.012483200256240862
193	0xbfa5ec92370ac605	-0.04282051965618553
194	0xbfaf1650d5ef3c29	-0.06071713077073355
195	0xbfb6b8f1cbeee45d	-0.08875952938878258
196	0xbfa2262c97d1ba09	-0.035447495968458816
197	0xbfa8dd9d962834f9	-0.048565792636603385
198	0xbfb606a1460e546b	-0.08603866539336173
199	0x3f866de655f0b778	0.010951804635705761
200	0xbfab38e9f2aba78d	-0.05316859328543364
201	0x3f86104718744ae0	0.010773234781060237
202	0xbf19c069a65ae000	-9.8234604218983e-05
203	0xbfb4ceff9e009de1	-0.08128354651909532
204	0xbfb6cf8f31ecb6c6	-0.08910460442413201
205	0xbfb0c1cf1848c1e5	-0.06545729010463892
206	0x3fb2bf8463f03383	0.07323481979274331
207	0x3f94d9b5755098bc	0.020361743245438588
208	0x3f9b7cc23849aeb4	0.026843104062591563
209	0xbf993099b0b59784	-0.024599458132250188
210	0x3f684e642614c5c0	0.002967067339931545
211	0xbfb5687f94004ff9	-0.08362576831160586
212	0xbfb6b576b3040ab8	-0.08870641584875727
213	0x3fb671063d1cc1c3	0.08766211502075465
214	0x3f361738d87c7c00	0.0003370775016139915
215	0xbfa3ee05a3a25eb2	-0.03892533895958418
216	0xbfb2808b4f177e50	-0.07227392846061176
217	0xbfa19f64e0d2ed03	-0.03441920513565757
218	0x3fae1272bc09421e	0.058734498456605375
219	0xbf9b6db6e5c9da88	-0.026785714888740958
220	0x3f5503d225c7b340	0.0012826492521711003
221	0x3fb14ce68da4acf1	0.06757966001594064
222	0xbfc718a7d14b050f	-0.18043992728602418
223	0xbf94a579c6d6fadd	-0.02016248966333022
224	0x3fabf839e7523e5a	0.05462819050546548
225	0xbfa982b2779b318f	-0.04982526502644468
226	0xbfb7af52e3098ac7	-0.09251897852804368
227	0xbfbf60f1da19c72e	-0.12257300924991618
228	0xbf99c070280c2561	-0.02514815563612183
229	0xbfaf91da13c364fd	-0.06165963641405801
230	0xbfb92284f31e3a36	-0.09818297324657341
231	0x3fa2b2ac2eab99be	0.036519413659152886
232	0xbfab6bdac4c0c158	-0.053557240026182285
233	0xbfb56d448d9ac019	-0.08369854409352263
234	0x3fa13b7aab02d052	0.03365691506897463
235	0xbfbba562217bcd7d	-0.10799229924650962
236	0xbfb0a675df5fc161	-0.06503998473613627
237	0xbfbc5f0618bb52e6	-0.11082494834711162
238	0xbfafb67015162c8a	-0.06193876511960024
239	0x3fa037731d421476	0.03167304737238734
240	0xbfae9d841a37f069	-0.05979550190019795
241	0xbf96e5f3c02687e6	-0.022361572840630027
242	0x3f9fadc04ac5d58c	0.030936245502251533
243	0xbfc2145fe23b13be	-0.1412467817919189
244	0x3fb0a7b1c93f4e8b	0.06505881465209933
245	0xbf981d1eb8c7dd06	-0.023548584011192218
246	0x3fbfc4c3aed9b713	0.12409613627252396
247	0x3fbb17b322cc5563	0.10583037948193445
248	0xbfbb0ed5b8138f26	-0.10569511169483956
249	0xbfb3f1413159279a	-0.07790000395576016
250	0x3fb1ae0420b4282f	0.0690615253298865
251	0x3f975209efa9e810	0.022773890736495217
252	0xbfb264ae45abdb6d	-0.07184876633605848
253	0xbfb689020fc7697e	-0.08802807698467593
254	0x3fa9fbb284f51346	0.05074842331899858
255	0x3fa0234dddacd632	0.03151934939380076

affine1.bias f8 [100]
0	0x3fad6f43ad47b7eb	0.05748950472103317
1	0xbf86727fe79664f0	-0.01096057820795912
2	0x3fbf6df049a68d8f	0.12277128027067462
3	0x3fad6de602289514	0.057479083789340774
4	0xbf967107dc476b3d	-0.02191555292106816
5	0xbfbbc7f7d7a5f6b2	-0.10852002158022847
6	0xbfa3388b5797f571	-0.03754077381379773
7	0x3fa480d00fc3eafe	0.04004526321837963
8	0xbfcc4c8389126e8a	-0.22108501618355475
9	0x3fb296b7bdaf7836	0.0726122701739492
10	0x3fc08e177d336078	0.1293362962085245
11	0x3f72a7bfc585d1d0	0.004554509265620912
12	0x3fabb18bdbe5f2ae	0.05408894595436685
13	0xbf8e641b32e52621	-0.014839375010200108
14	0x3fa92becf71296f5	0.04916325107596534
15	0xbfc853562a4e3a04	-0.19004323068334383
16	0x3fc08fcc457cbb93	0.12938836472445966
17	0x3fb707ad3fce72d5	0.08996088798307807
18	0xbfc351b1ac59afb0	-0.1509306041292553
19	0xbf57a25fb438e08c	-0.0014425215348534996
20	0xbfb1a256de17d272	-0.0688833515376446
21	0x3fbe10507bcca018	0.11743643782085689
22	0xbfb5d2ac19956b36	-0.08524585365868806
23	0x3fb13a17194d7811	0.06729263656367858
24	0x3fb4ed61ac0b5f39	0.08174715471556916
25	0xbfb99183660ffe12	-0.09987660638579879
26	0xbfb13576d080e3d0	-0.06722204771439455
27	0xbfb99a162ccd178c	-0.10000742524888845
28	0xbf93befcf43af10f	-0.01928324928916064
29	0x3fa10df60de31f29	0.03330964011689581
30	0xbfbb2665bbad835b	-0.10605464775063693
31	0x3f9226c8bbbbc89a	0.017726074655862158
32	0xbface00402ebca7b	-0.0563966039243455
33	0x3f8a30636ba900fc	0.012787605975177467
34	0xbf92aaa81ee5fcca	-0.018229128728759737
35	0xbfa620f9b36840fc	-0.0432203322890263
36	0x3f9ec87b0d98d273	0.03006164808739915
37	0x3f901ea66792b0a6	0.015741920539469455
38	0xbfaae8b2b322638f	-0.05255659519861588
39	0x3f9dad2fac2a7c2f	0.028980965502906905
40	0x3fac9313f253760f	0.05580961545068074
41	0xbfb158e03b8b86dd	-0.06776238874183656
42	0x3fac47f2a333a0d6	0.05523641817291185
43	0x3fb6d37c2fcefff6	0.08916450659944516
44	0xbfbc91599b6dbe59	-0.11159286541600845
45	0x3fa9362e3329dcf2	0.049241489167735866
46	0xbfb243c7321ebe9f	-0.07134671186099205
47	0xbfbcaeeafbb36d2f	-0.11204403538743145
48	0x3f93a681cae08f07	0.019189861304893998
49	0xbf73d2d08b33911d	-0.004839720367474845
50	0xbfb662d40ab4d571	-0.08744550000559116
51	0xbfbf15c8828acafc	-0.12142613589348267
52	0x3fbd78dd9a266aec	0.11512551320485515
53	0xbf9ca173cfeff6d2	-0.027959641996850255
54	0xbf76a4a97dfd892c	-0.005528127745352312
55	0xbfab7daeada20bf9	-0.053693255134042724
56	0xbfb0287560462251	-0.06311734772146706
57	0xbfb8a643365beac6	-0.09628696515202781
58	0x3f759b8bbc9d53e3	0.005275293204097561
59	0x3f450ac77494d4ae	0.0006421541121769592
60	0xbfb695a4defe307a	-0.08822088665164243
61	0xbf9ecf9a52abce9a	-0.03008881692490082
62	0xbfbf03ecb0e079d4	-0.12115363424570741
63	0xbf9a8fc1b1fe7c5e	-0.025939012993714143
64	0xbfa764f40980467a	-0.04569208732585835
65	0x3fb22d134a08c626	0.07100029523351079
66	0x3f936abfc864c20d	0.018961903196386177
67	0xbfae9ab5b92fc4aa	-0.05977409253672168
68	0x3f8c1a293609bfe9	0.01372177311097285
69	0xbf95f3c161a71f12	-0.021437665543799396
70	0xbf8575586fc16d6e	-0.010477724943646929
71	0x3fc40b5494e726c3	0.15659577627802976
72	0x3f7104ddc003c8f4	0.00415503140560446
73	0xbfa2b9d7e8913bae	-0.03657412256199365
74	0x3fb960b262efe814	0.09913172641236684
75	0xbfb286fd68c16d66	-0.07237228209981125
76	0x3fac2a50d7c0aae0	0.055010343873012735
77	0xbf9194225c428694	-0.017166649705024087
78	0xbfb07359b744673c	-0.0642601082257927
79	0xbfb98822b0349be9	-0.09973351289646327
80	0xbfaa5bb13399b65e	-0.05148080592048808
81	0xbfb172d030622edc	-0.06815816098440614
82	0xbfbabf4a5bbe9ee2	-0.10448136081560791
83	0xbfc14c27ae40c7b1	-0.1351365662426907
84	0xbfa192ba05203312	-0.034322560430245855
85	0x3fb39a9b7ac91ab9	0.07657787082380708
86	0xbfbced2789d352bd	-0.11299368967895425
87	0xbfc20c899b9ebc66	-0.14100761507640697
88	0xbfa3642bbe25b481	-0.03787361808904511
89	0xbfc049d72559281c	-0.1272534305920211
90	0xbfb661575247dc9f	-0.08742280730062867
91	0xbfccfd29a5e23357	-0.22647591209206538
92	0x3fbc790e5b4dc796	0.11122216919991809
93	0x3fd05d1091e391ae	0.25568022009818037
94	0x3fc732949605a49d	0.1812310917405612
95	0x3f6585b04986b85b	0.0026272242650611627
96	0x3fb11fd1ee7a226d	0.0668917853564694
97	0xbfae94e21e6ea9a3	-0.05972963925826782
98	0x3f96459b2482ab76	0.02174990091649983
99	0xbfa1ea15182d84fb	-0.03498903198375022

affine2.weight f8 [100, 100]
0	0x3f90b5789667d5d7	0.01631725709917994
1	0xbfbacda052b88d97	-0.1047001077609394
2	0x3fade13ef21f898e	0.05835911470036868
3	0xbfa288f1467430a0	-0.03620103821785503
4	0xbf90de1f29f10b2f	-0.016472327170286846
5	0xbfab4a41876e685e	-0.05330090311254375
6	0xbfb59f962dcd4756	-0.08446634882173262
7	0xbf82c3f109563681	-0.009162791345058043
8	0xbfb212e51a981db9	-0.07060081385872409
9	0x3fabb2fc82cc3421	0.054099932638657096
10	0xbfa6477724d978ba	-0.0435139877779291
11	0x3fa67c6a66c83150	0.04391796593344799
12	0xbfaab68be29ac3fb	-0.052173968707741346
13	0x3f94de40de759ac5	0.020379079416126062
14	0xbf96154fa6362d56	-0.021565670509102595
15	0x3fa6a5cb1060b020	0.04423365187571471
16	0x3fab3771652519ca	0.05315737113646753
17	0xbfb09d2927e2b471	-0.06489808295983025
18	0xbfb890178bae3d17	-0.09594866905375841
19	0x3faf81caec36a467	0.06153711446251791
20	0xbf74d6b9bb2de2cd	-0.005087590706232614
21	0x3fa00909fb291044	0.03131896201060205
22	0xbfaf74d010261309	-0.061438085528641
23	0x3f950b54cf8eefef	0.020551037948948133
24	0x3f3d99d3ab71b988	0.00045167367665657114
25	0xbfbe7cff7dcb712a	-0.11909481831702765
26	0xbfbf3ee59422a3ce	-0.1220534788759686
27	0xbfbe9135b2a5ddb6	-0.11940322505494447
28	0x3fb736a9983b04d5	0.09067783323827723
29	0xbf801c83c0ed3d3b	-0.007866887402683367
30	0xbf9a4de86ca87cdf	-0.02568782008358716
31	0xbfa8f7e0a0a9ef13	-0.04876615487316207
32	0xbfb47c94b61d2d46	-0.08002595373289009
33	0xbfa9933823ecb400	-0.049951319108323844
34	0xbfb3e1fd39803228	-0.07766707090213087
35	0xbfb43c35a4f324c5	-0.0790437247952865
36	0xbfa818680d1d855a	-0.04706120643710206
37	0x3f6ebdcbb5ce7c50	0.0037526110376826863
38	0x3f8ccb1c78107829	0.014059278883049657
39	0x3fb421da3a4e0a89	0.07864154742677888
40	0xbfb4f68fd7d414c0	-0.08188723582505286
41	0xbfa454521861b71e	-0.03970581576946429
42	0xbf82b978a83d7e01	-0.009142820963176314
43	0xbfa7df4c9b7c72a2	-0.0466255130579374
44	0xbf9506cd30eaeb4c	-0.02053375826902064
45	0xbfb368d7fb030402	-0.07581853750436099
46	0xbfbe6d3cd6d1901f	-0.11885433430285318
47	0xbf8f3e807c5a95d3	-0.015255931658724109
48	0xbfac8ff1aa59657a	-0.05578570560892167
49	0x3fb4996c4ea048ff	0.08046605033476693
50	0x3f6611e10dca6f98	0.0026940723021890538
51	0xbf41a7ffc74e2961	-0.0005388258856425071
52	0x3fbd09455de5ad06	0.11342271368419085
53	0xbfc0dff889647d02	-0.13183504780406713
54	0xbfa9f4ce5a809322	-0.05069584707988485
55	0x3fa8a1ae24c3b13c	0.04810852240356886
56	0xbfb8fe56b738b804	-0.09763090108091893
57	0x3fb4fdcc06672a01	0.08199763447115772
58	0x3fbc5401acebfda5	0.11065683814739787
59	0x3fb5ecdca5255f1d	0.085645475691646
60	0xbfa2345286cd234d	-0.03555543799899983
61	0x3fb67857beb0ac22	0.08777378469010036
62	0xbfaa5c98ec7ab096	-0.05148771177968674
63	0x3fa4beaa1357af6f	0.040517153607509175
64	0x3fb1d30d6ef157d4	0.06962665518344063
65	0xbf82f5ac72e0add8	-0.00925764775828146
66	0x3fab942fc8b53468	0.05386494946524395
67	0x3fa47fc6ee1cbd89	0.040037361685217716
68	0xbfb11468108c8f9f	-0.06671762851743644
69	0xbfb236364b9807f8	-0.07113971086076265
70	0xbf8ee950c8c22be3	-0.015093451620733894
71	0x3fc142dd427ec05f	0.13485303637344523
72	0x3fb14fdb5f433177	0.06762476993316634
73	0x3fb87453bcea0704	0.09552501070177405
74	0xbf66d9c43570d55a	-0.002789386005611999
75	0x3fa029e3a5b5614c	0.03156958959397346
76	0x3fb064a577baa1ac	0.06403574154922492
77	0x3fa993e932ccbd12	0.04995659585108049
78	0x3fad3a70996bac3d	0.057086485603428085
79	0xbf559d57255af804	-0.0013192511591308973
80	0x3fb08f24db0b1be9	0.06468420360316397
81	0x3fb4544ed520c6f9	0.0794114370662803
82	0xbfacd14bc4bbb388	-0.05628430153397007
83	0x3f9f6ab0ef12f659	0.030680431930468852
84	0xbf9a02437a8d17ec	-0.025399259905746804
85	0xbfb0284b75a43051	-0.06311484930137225
86	0xbfbd007d59661469	-0.11328872139536518
87	0xbfa208d88f343132	-0.035223739129011014
88	0xbfa8931a1fbb7c65	-0.04799729955060953
89	0xbfbc5f85fd1d97e4	-0.11083257131176044
90	0xbfaa2fc3e6cd7086	-0.05114566986478146
91	0xbfc10a58ce337f3d	-0.1331282622186282
92	0x3fa2e12750b928de	0.03687403545753097
93	0xbf93755324ace40a	-0.01900224601124382
94	0xbfb042585cca27a5	-0.06351234689114323
95	0xbf830deb18a83d20	-0.009303890886285304
96	0xbfa3c82e867a5ffe	-0.03863664046838265
97	0xbfa98c1052502242	-0.049896726654030235
98	0xbf77aaa6881a5162	-0.005777979387535078
99	0x3f9dd48e5f2e7403	0.02913114982549204
100	0x3fb0d3789e456432	0.06572679389991334
101	0xbf85f7157bb13944	-0.01072518142441637
102	0x3fba420ef20b2e6e	0.10257047089833701
103	0xbf98815bf8051026	-0.023930966389585383
104	0xbfabb67a3db06179	-0.05412656786956211
105	0xbfa233096646fd1e	-0.03554562924864001
106	0xbf9e8387f4b48e69	-0.029798626242281055
107	0x3f9de3f34cf970f6	0.029189874241965584
108	0x3f575dcd5ca32772	0.0014261727797468507
109	0xbfba8c5ed38712f9	-0.10370438255547389
110	0xbf9a209487d490b3	-0.02551490859072265
111	0x3fb06f8805e64608	0.06420183319121275
112	0x3fa015e8819671f7	0.031417146509941256
113	0xbf911f39daf8b67a	-0.016720680227243247
114	0x3fc09e49e5669863	0.1298305864449417
115	0xbfb87ffeaca93d84	-0.09570304599150431
116	0xbfb38c556839d43e	-0.07636007113053808
117	0xbfb152c2ecc2acb2	-0.06766908912929884
118	0xbfb3e7bc931bcb35	-0.07775477019803818
119	0x3fb2186c3b422bbd	0.07068516203632576
120	0xbfa7e700b631a04a	-0.04668428634687467
121	0x3fbd3a1410c57b79	0.11416745576341993
122	0x3fb273811d705e63	0.07207495659565093
123	0x3f93b7cbbf8f7a6f	0.01925581318561814
124	0x3fac4231cc3577ea	0.05519252412589977
125	0xbfbb050d6ac368b6	-0.10554584366346628
126	0xbfb8ecb5438738f1	-0.09736187838209155
127	0xbfc0aae4b6a43428	-0.13021525304830672
128	0xbf6c05ab0fdf9209	-0.0034206715636051527
129	0x3f9a1fd75117ff85	0.025512089085168128
130	0x3f786490df58112d	0.005955282123526734
131	0xbfb1df848f414933	-0.0698168611282071
132	0xbfa353c50564c0d7	-0.03774848643149802
133	0x3fbcc5651ee8a7d0	0.11238700871095308
134	0x3fb140a99fe4be05	0.06739292291307926
135	0x3fb81ee0478e8d54	0.09422113177293073
136	0xbfa61082985c4de3	-0.04309471235151443
137	0x3fa38101f8163831	0.03809362557795771
138	0xbfc15be2ac2df68a	-0.13561662108616118
139	0xbf7164ef34820ee8	-0.004246649165114504
140	0x3fb1ef7598ffdb68	0.07006010995233469
141	0xbf5eb8b96295c48c	-0.0018750963593812424
142	0x3f83b37501c1c1ed	0.009619630924334788
143	0x3fab2e5cee5957dc	0.05308809670957235
144	0xbfacfccdfeb3dbce	-0.05661624654924645
145	0x3fbf32c31bdc09e7	0.1218683188454076
146	0xbfb7c3e561125794	-0.09283288593209554
147	0xbfb0918e6f9605b3	-0.0647210142542665
148	0x3faddf3a7a5b143c	0.05834372275925445
149	0x3fa471c9ab39f214	0.039930631782201825
150	0xbf9a152d1156bb6f	-0.025471405204082694
151	0x3fb6ac79c9389a13	0.08856927073120628
152	0xbf917c3b2d0ab52c	-0.017075466751227328
153	0x3fa6d846c5b6bd2f	0.044618808398235614
154	0x3fb327d1dc117159	0.07482635138280126
155	0xbfb3cdf75392b748	-0.07736154356345282
156	0xbfba03c32dd94cb4	-0.10161990994793052
157	0x3fc11c4422a3ba5e	0.1336751145494927
158	0x3fb3b506f52802dc	0.0769810055280788
159	0xbf8ee08eec16ace0	-0.015076748447276633
160	0x3f863e0035408625	0.010860444665072919
161	0xbfb168411d3d37dd	-0.06799704517217671
162	0xbfb46d9017897940	-0.0797967965567965
163	0x3f7aba7f8819cbc1	0.006525514765246266
164	0xbfafce90587f4a90	-0.06212283211029501
165	0xbfa95039f218535a	-0.04944020347844598
166	0x3fb34713d5d038aa	0.07530330629399154
167	0x3fb16d32dda51e63	0.0680724898457981
168	0xbfb666dfe91d6989	-0.08750724259645017
169	0xbfc0c8a6119f2007	-0.1311233125727542
170	0xbf7ed9b497c49342	-0.007531838837427087
171	0x3fa182dfda667ed2	0.03420161763210462
172	0x3fb93a0eda3cc2b9	0.09854214504299365
173	0x3f7356ac2c57bd1f	0.004721329261413914
174	0xbf8a7d0a6767c0e9	-0.012933808594397482
175	0xbfa854f2b9f0fd79	-0.04752310294906698
176	0xbfaeb71950b63a3b	-0.059990683653371644
177	0x3fafe45aac8c9b45	0.06228907924951569
178	0xbfafcbc637f6eb16	-0.06210154946480466
179	0x3fa63c135f4a9495	0.04342709100937118
180	0xbfbc81de675cd320	-0.11135664008618251
181	0xbf9f298e1af9d029	-0.030431957622980264
182	0x3fb340bfb313b4a4	0.07520673868175948
183	0xbfb004a8065c7bd4	-0.06257105021766957
184	0xbfb96d4cfd9dcab4	-0.09932404701047909
185	0xbfa09fb171663830	-0.03246836194294678
186	0x3fb48c6d3af2ce8c	0.08026774110003937
187	0xbf981e7a444eadb5	-0.02355376283564477
188	0xbfb9accd9932d87f	-0.10029301634026132
189	0x3f824ec99d332ddd	0.008939337835179135
190	0xbfb99e0638ec2626	-0.10006750955303598
191	0x3f942a1cc352f681	0.019691895887027137
192	0x3f815c085acdc874	0.008476319571603087
193	0xbf62026706743b18	-0.0021984111987260017
194	0xbf9578aed326a34c	-0.02096818126452442
195	0x3fb109d18d48f5eb	0.0665560693677986
196	0x3f924c9e9a33a831	0.01787040535138135
197	0xbfb7e1ab130d5536	-0.09328717436922748
198	0x3f824c8f5ed16c56	0.008935089188687833
199	0x3fad8ec90ab53112	0.05772999053678708
200	0x3fb611e4cb058bbd	0.08621053654273587
201	0xbfb1d83159c93c43	-0.06970508997004381
202	0xbf8fc7c8e02cd383	-0.015517777768403246
203	0x3f9cf6617117e152	0.028283617522874956
204	0x3fad384b6595667d	0.05707011809381599
205	0xbfbf6c1e5ce514a8	-0.12274350898686015
206	0x3fb0861d90476af6	0.0645464398616403
207	0x3fb153c9d9ad3730	0.06768476070757568
208	0x3fc655f083dd344b	0.17449766577411405
209	0xbfa3d6867d43ee10	-0.038746073523693636
210	0xbfb9e971cfd21110	-0.10121833156341986
211	0x3f961f67b4cb2fcb	0.02160417595841561
212	0x3fb1c72fd9d131b9	0.06944560115625266
213	0xbf7106d4c759e530	-0.004156905333382796
214	0x3f780c91bb1d5ea4	0.005871361981767773
215	0x3fb48b87780f0b7a	0.08025404626009261
216	0xbfbbe3c357f22547	-0.10894413849941485
217	0x3f8fe76a9546a546	0.015578110390225174
218	0x3fbcf2cb6c7085fa	0.1130797519440633
219	0x3fb07f7b926d3d7a	0.06444523167487218
220	0x3fbc7816602eb265	0.11120738838389739
221	0x3f9ef468d41ef47c	0.03022922320063913
222	0xbfb8c8cfacc84b81	-0.0968141362030064
223	0xbf41a3f9e1ba1100	-0.0005383463025770141
224	0xbfb2770a135d1e17	-0.07212889645335739
225	0xbf93eda5c8f280fc	-0.019461241140221283
226	0xbf8f832747446918	-0.015386874067691056
227	0x3fc07f20d7d84457	0.1288796476297047
228	0x3fad95a3cca89c87	0.0577822863891067
229	0xbfb1048850ac9688	-0.06647541017135883
230	0xbf99f40b7dd3abec	-0.02534501986967179
231	0xbf9f03ffed470f58	-0.0302886951992741
232	0x3f65d65eaad6955f	0.00266569604601112
233	0xbf934407b418d4c3	-0.01881420170521576
234	0xbfb53f40293d0af0	-0.08299637800977755
235	0xbfb90b981814c232	-0.09783316219250862
236	0x3f94f127c795a99b	0.020451184803656024
237	0x3fb63a3583c8751f	0.08682569949492745
238	0x3fb6bc254df44925	0.08880837586574282
239	0xbfb0050de65338dd	-0.0625771224324327
240	0xbfa0bc54b89e5136	-0.032686851059369124
241	0xbfa9a66174dc3c94	-0.050097508921788464
242	0xbf9369849fc4df90	-0.018957206965950102
243	0x3f98b45878029cd1	0.024125463795510897
244	0x3fabccd152ca6c3e	0.05429700980786166
245	0xbfc2f1d46cb8598b	-0.1480050593242591
246	0xbf98f2a7ba400061	-0.024363156073377804
247	0xbfb00a111a740376	-0.0626536073286966
248	0xbfa5e099b23eecc9	-0.04272918988086755
249	0x3f8a972f2834adc8	0.012983673490984851
250	0x3fc61fab01ecff16	0.17284143060714346
251	0xbfa0777237b4587d	-0.03216130189882536
252	0xbfaf326607918ca5	-0.0609313854445415
253	0x3f8d8bae2002e1ff	0.014426575042635113
254	0xbfbd690e02f4da2c	-0.11488425800494245
255	0x3fb659a6f4c27328	0.08730548358512336

affine2.bias f8 [100]
0	0x3fbcebb9f7dc9de8	0.11297189999878976
1	0xbfb0f78881c97a37	-0.06627705734852261
2	0xbf72742055e0ca36	-0.004505277929683296
3	0xbfb3ae1687eb476f	-0.07687512224518199
4	0x3fa250810a6cd695	0.03577044727573512
5	0xbfa7080bb3cad006	-0.04498325891236736
6	0x3f978c48a804513e	0.022996077780662143
7	0xbfc104ca88091129	-0.13295871393541717
8	0x3fac6cfa5fc5025c	0.05551893633901692
9	0x3fa16f75e06bb81d	0.03405350079070522
10	0x3fb7cb150fb80410	0.0929425395370489
11	0x3faa745c78911aec	0.051669015615109476
12	0x3fb0d16af3ab9cba	0.0656954617403355
13	0xbf9b4a8b7cbe7ebf	-0.02665155362012572
14	0x3f94fe972c582db1	0.020502435761995567
15	0xbfaa5ae94d341d33	-0.051474848436607344
16	0xbf88db5a38f2057e	-0.01213713156016882
17	0x3f72929dfbdc0b02	0.00453435623581089
18	0x3fa7aeca77948f63	0.046255423638540426
19	0x3f83fd86c967ae13	0.00976090719355852
20	0xbfb3758c36f31c5a	-0.07601238576454375
21	0x3fb3e0eeaaa17a76	0.07765094438352968
22	0xbfa046addfc2764b	-0.031789239468008455
23	0x3fa6f577e84b3ae0	0.044841525179085684
24	0x3fa97a78d360028b	0.04976251201879219
25	0x3fb00a0b992cbea0	0.06265327920550101
26	0x3fa689ec544757d7	0.044021020210194876
27	0x3f92a7c4dfd49490	0.018218113099596922
28	0xbfb0953ef27c0768	-0.064777311516108
29	0x3f950fa380b743a4	0.02056746934050903
30	0x3fb6856793c62a76	0.08797309263005978
31	0xbf969e3de5eb7ffd	-0.022088019521902414
32	0x3fa096608a914737	0.032397286334016
33	0x3fba787ede44f573	0.10340111662386224
34	0x3f99273c403eb521	0.024563733502579347
35	0xbf77e3a4b1a74ccd	-0.005832331977632066
36	0x3fb03e687bebb57e	0.06345227265747685
37	0xbf90c68554a0da08	-0.016382296839049487
38	0x3fbc0d5a9361bd3d	0.1095787629908402
39	0xbfc32dc5c2eea8c4	-0.14983436601807487
40	0x3fb5227250e8ae6b	0.08255686259570331
41	0x3f9b791d906560b2	0.026829206407769042
42	0x3f8ee8f37014d70a	0.015092756135895797
43	0xbf81ea1d5303cf11	-0.00874731931296638
44	0x3f81d87d945bd176	0.008713704195067545
45	0xbfa384dd6b909d58	-0.03812305391357523
46	0x3fb6b1255910e03b	0.08864053177319502
47	0xbf9cb8d9e77dd8d1	-0.028048901323438017
48	0x3fbe91933d612d18	0.11940880058789494
49	0x3f7af43719351fec	0.00658055804098721
50	0x3fb0a879ac15d575	0.06507072879124627
51	0x3fbef0ded0630790	0.12086289012498086
52	0xbfb415a00a0bab1d	-0.07845497365239536
53	0xbfaf8c2d5044d608	-0.06161634068341121
54	0x3facb47b3ed237cb	0.05606446401462469
55	0xbf9f39e90a4198df	-0.030494347811690466
56	0xbfb2df6a5df65227	-0.07372154993056111
57	0x3f9636f0df7b874f	0.021693957939425797
58	0x3fb635700b2373ae	0.08675289413390772
59	0x3f893b6af95c8a7c	0.012320361838253684
60	0x3fb450334a627f9b	0.079348760280935
61	0xbfa77bbd1b661a4b	-0.04586592635591965
62	0xbfaceb568b1dadfe	-0.05648298690979557
63	0x3f9ea061eadf4560	0.029908685646494404
64	0x3f70a4eb0998fe16	0.004063528170774619
65	0xbf74ba306f5bca8d	-0.0050603763572662054
66	0xbfb8800a856bfc81	-0.09570375211113637
67	0x3fb6bf09785f3c61	0.08885249317903422
68	0xbfa7a0914b31ba02	-0.04614690821550839
69	0x3fbf8e9bbfb85997	0.12326978140513344
70	0xbf95817f776b6cc7	-0.02100180784587449
71	0xbfb7b35b77ca7a71	-0.09258052515586158
72	0x3f690e53c51fbddf	0.003058589566528033
73	0x3f9e5c75cbb53544	0.02964958244165429
74	0xbf923c9e7835fe21	-0.017809368216601954
75	0xbfb6325c486c3acf	-0.08670593994268504
76	0x3fb187bd8fa80b21	0.06847748524891674
77	0x3f97d18e8f4d69bf	0.023260333534702356
78	0x3fbb05e742600879	0.10555882807241969
79	0xbfa96f5be82f20ad	-0.04967772683409186
80	0x3fbb5f9ec0043185	0.1069277972021095
81	0xbfaacd93a2fbefb6	-0.052349675794146774
82	0x3f927ad5f7fe141d	0.018046706448803563
83	0xbfa1c58e40e70645	-0.034710355208073675
84	0x3fb43e4f1a0d4910	0.07907575975449199
85	0x3fb6819d5de9ce45	0.08791526358418718
86	0x3f836f1c54eb7255	0.00948927053598784
87	0x3fa819c874119201	0.04707170883992618
88	0xbf91c2c223b29e72	-0.01734450667268423
89	0x3faad11154e315f1	0.0523763099786655
90	0x3fa7f11b0ffcdec7	0.04676136560595761
91	0x3fb45baeaa0f639b	0.07952396060808413
92	0x3f8561a4f2fc4aab	0.010440148034409921
93	0xbfb0b187185cff3d	-0.06520885796362293
94	0x3f981a1ce562962a	0.02353711271339002
95	0x3fb75ea0ba5c935e	0.09128765630573585
96	0x3fb14092e2b64824	0.067391567563647
97	0xbfbd2e219570095e	-0.11398515604381518
98	0xbfa80512707d45e3	-0.046913696509942836
99	0xbfa81cff53ec32c7	-0.04709623240896615

action_mean.weight f8 [8, 100]
0	0xbfc56f1aeb7bb967	-0.1674531602688589
1	0xbfd0a7f8dc9b4acd	-0.2602522043572833
2	0xbfb412730c66a418	-0.07840651562459333
3	0xbfd0e84f881ff931	-0.26417911809393774
4	0x3fb6d1c99c16a764	0.08913860378984634
5	0xbfc0cf48903f0d35	-0.1313257889106382
6	0x3fa62872697056e5	0.04327733552069705
7	0x3fb694bd765147ad	0.08820709360705221
8	0xbfc8ca042a37a6ec	-0.19366504727741274
9	0x3f970d286f727ccf	0.02251113109798269
10	0x3fc62b17a1d33373	0.17319007302867426
11	0x3f9b533b3779e80f	0.026684689770696986
12	0xbfc1a3ec5ec2410a	-0.13781504275221607
13	0x3fb0a4b5acbd4c0c	0.06501327006598973
14	0x3fc4180209a74efa	0.15698266478886308
15	0xbf6076b46976c29e	-0.0020097278281457484
16	0x3faee7819e1e977d	0.06036000304383913
17	0xbfa002aa2d6a6a61	-0.031270330470950077
18	0xbfb1d80a4c98bce5	-0.06970276231799095
19	0xbfbe093d399661cb	-0.11732847839301212
20	0x3fa0706456c9de2e	0.032107482523255335
21	0x3fc4ec313073a9bc	0.1634580122548196
22	0x3f8148cad47bc397	0.008439621552925476
23	0xbfa3e4451aaa7214	-0.03885093641767781
24	0xbfc81dba9c9375d0	-0.18840725560487082
25	0x3fbf295a90e56383	0.1217247585058328
26	0xbfb4468fedb60840	-0.07920169404499777
27	0xbfb224adb46465a3	-0.07087217001062256
28	0xbfbcee26d61828c3	-0.1130089066211069
29	0xbfb3e8d3a8d45c26	-0.077771404951236
30	0xbfc727d95a50fd34	-0.18090359601954165
31	0x3fb36c7ac26aa3f4	0.07587401625154638
32	0x3fa880a2bb86c7ff	0.0478564123071834
33	0xbfae90aa5147031b	-0.059697458669239555
34	0xbfa0bfe2684f64d8	-0.032713961823626014
35	0x3fac271b4812f2c3	0.05498585943994307
36	0x3fbf3dd63a93bc1d	0.1220373051653358
37	0xbfc67333815b6395	-0.17539066139468376
38	0xbfb91c020a03da2f	-0.09808361763484962
39	0x3fb7d76d99f07e83	0.09313092239653468
40	0xbfc04605299db627	-0.12713684589418614
41	0x3fc3a4cac9cd6ca8	0.15346655706057288
42	0x3fb7048cc833f626	0.08991317641990601
43	0xbfa151cd9317086c	-0.033827232556647185
44	0x3fb2c1a9b3659ea7	0.07326756124313737
45	0xbf64b69ae0646634	-0.0025284790928139737
46	0xbfaf3b38e3aefd0d	-0.06099870471325106
47	0x3fc7295740087da5	0.18094912172908298
48	0x3f8d6b4ee68b29b1	0.014364830408699488
49	0xbfc8ac45c76dc8ec	-0.19275734174477266
50	0xbfbd9153c9cdb10f	-0.11549876858561368
51	0xbfb11278a027f4d4	-0.06668809804974113
52	0x3faa3be6deb13b00	0.05123826473628945
53	0xbfa0794be7d5b3c9	-0.03217541890158022
54	0xbfb2b7c5ebae697c	-0.07311665538728634
55	0x3fb07d760501d668	0.06441438314672043
56	0x3faa3067539612da	0.051150540307423234
57	0xbfc06efef5e6042b	-0.12838732725870847
58	0xbfc088ce97807a72	-0.12917501828720251
59	0xbfc7f9f4392b5080	-0.1873154906412573
60	0xbfbd43926af1e347	-0.11431231604536861
61	0xbfbd019c9f316841	-0.11330584417865543
62	0x3fb3beb3a5c6ff11	0.07712862775133213
63	0x3fbc133c7e0acad5	0.10966852261735067
64	0x3fa0efc30963bae0	0.03307923783892419
65	0xbfa90a74d078b6fb	-0.04890790028399113
66	0x3fa038fb11361323	0.03168472848032013
67	0xbf94fab881ae2777	-0.020487673678452247
68	0xbfaea1ff2a651a9c	-0.05982968704716038
69	0x3fa1169ffc7447f5	0.03337573963848676
70	0x3fc686b45b522fab	0.17598585566554212
71	0xbfb9648e0925f301	-0.09919059489579853
72	0x3f8f3b31dd479017	0.015249623837867472
73	0xbfbeefae5f3c13ea	-0.12084474396768
74	0x3fa8f99145d08f0f	0.048779048702526244
75	0x3fc5bb69e8202ac7	0.1697819121767081
76	0x3fbb964fd5671a2c	0.10776232681301029
77	0xbfb67af8e14ab393	-0.0878139066723647
78	0xbf734a0f27d79017	-0.004709300233546563
79	0x3f991714418b4750	0.02450210237549949
80	0x3fcf41c5602cc5c5	0.24419467159309086
81	0xbfa7af8da129f9b1	-0.04626123993238041
82	0x3fb0d301c50f80a1	0.06571970997856848
83	0x3fb0a6c1110dd45c	0.06504446665151548
84	0x3fbe26fdaf59af78	0.11778245478643423
85	0xbf85b5530b87080b	-0.010599755086222037
86	0xbfb25b3ee4489352	-0.07170479844405733
87	0xbfad5ac27b16117d	-0.057333066487475805
88	0xbfc96bbd562797ac	-0.1986004515339891
89	0x3fa396a6afadd94a	0.03825875181694245
90	0xbf561292d7fcf3c9	-0.0013472017307798337
91	0x3f85cbd5d8a0c8f7	0.010642691300834601
92	0x3fc344b85a614ed5	0.1505346719082953
93	0x3f903c39e0b0af30	0.01585474428081496
94	0x3fb5952e4b7673cb	0.0843075689540022
95	0x3fb1466555110f2d	0.06748040510961735
96	0xbfa068c44236dcfe	-0.03204930599479815
97	0xbfba5b91e2079520	-0.10295974510480166
98	0x3fa9bbce61569f5d	0.05026097238743319
99	0xbfc246718001ec45	-0.1427747607266118
100	0xbfae7e3f807a346b	-0.05955694621398141
101	0xbfa430a3a793dd47	-0.03943358822464887
102	0x3fb6b071287d0167	0.08862979162677719
103	0x3fc6cbfb3135dc7d	0.17810001280642843
104	0x3f9d1599776c3ae8	0.02840270797156111
105	0x3fa92d00bc6c62ea	0.049171469689275174
106	0x3fc316d8dd1e2a39	0.14913473889130716
107	0xbfba03093a95930c	-0.10160882644920494
108	0x3fadd1422c48675d	0.05823714056550842
109	0x3fa4070877ecbecc	0.03911615814138045
110	0xbfd08d346b48bce4	-0.25861845471349754
111	0xbfb907d88780e58f	-0.09777596767607676
112	0x3fc034eb9c63fd99	0.12661500107058712
113	0x3fb6fdf1d154cd1b	0.08981238709093413
114	0xbfbcf1024f7be6ba	-0.11305250587966045
115	0x3f8bf915cb373432	0.013658685936116386
116	0xbfae350dc6aa5536	-0.058998518468039426
117	0xbfae790ea881c99a	-0.05951734358758927
118	0x3fa8baeec15ba341	0.04830118284536989
119	0x3fb9052c89e5f472	0.09773519865662353
120	0xbfa0f9d1368dc0ab	-0.03315595427454928
121	0xbfbc2347873699ed	-0.10991332102876301
122	0xbfb82111ed33c818	-0.09425460854598133
123	0x3fa3ef96d7d5f3a8	0.0389372957679151
124	0xbf9536a53b863a63	-0.02071626830871266
125	0x3fa4e2ff399fa563	0.04079434946454332
126	0xbfc207bee979b285	-0.14086138153233577
127	0x3fb7d20b0378e01c	0.09304875216264502
128	0xbfb38d07484d6f18	-0.07637067332455805
129	0x3fb84836a342080d	0.09485188947476804
130	0x3fbcd7fc163e2d58	0.11267066519774482
131	0xbfae4ac2040a1157	-0.059164107316095275
132	0x3f99bcc5f5940dbf	0.025134175409233125
133	0x3facf5c79e6b1bec	0.056562650764639816
134	0x3fa255bfc124175d	0.03581046326330182
135	0xbfafa689fa246564	-0.06181746653073608
136	0x3f7cfda0a4bc9dde	0.007077815545734249
137	0x3fb71b5bfd688ad8	0.09026122032859563
138	0x3fa73b3db6137a6b	0.04537384841545563
139	0x3f7790acba389012	0.005753206936365289
140	0x3fc07ded8e69ce6a	0.12884301618361188
141	0xbfb28f80acbb1925	-0.0725021764475043
142	0x3fc8bf7b95c58bca	0.19334358990735573
143	0xbfc0c2b7c0de29ca	-0.13094231526731753
144	0xbf919bb100068410	-0.017195478083184723
145	0x3f801084ba5296a4	0.007844006477465477
146	0x3fb6bdf0f993f57f	0.08883577435695676
147	0x3f8f3a7e088fc5be	0.015248283993034014
148	0x3fc80bef29eb23dd	0.18786420389940775
149	0x3f997493637f5cb2	0.024858763645025213
150	0x3fc016fe7e63da46	0.12570172473324898
151	0x3face71cc10f1069	0.05645074707675308
152	0x3fa48501a00140af	0.04007725790199978
153	0x3fa72ac867c6adef	0.04524828211591713
154	0x3fbb6d8effe1e3a8	0.10714048144462984
155	0xbfa0b48c8852f114	-0.03262747921096057
156	0xbfbe9d10785a27e2	-0.11958411157880236
157	0x3faab6a5c8b14ce4	0.0521747405515727
158	0x3f9f220999ccc63f	0.030403280269814422
159	0x3fb1d9dc0fa96d2f	0.06973052389496524
160	0x3fb0c5c401025416	0.06551766419063684
161	0xbfb55eaec7bfa0ff	-0.08347599388764947
162	0x3fb119a22a62a9a9	0.06679738554763638
163	0xbfc15ea784d09de2	-0.13570112214186653
164	0xbf95a6a91cb16f7a	-0.021143572212494167
165	0x3f987fc8cba2f275	0.02392495863817819
166	0xbf857317c131e4fe	-0.010473428328838793
167	0x3fb3c8cc9ae7f9e5	0.07728270322693438
168	0xbf90c459f5f95098	-0.016374021184973303
169	0x3f8813332070959f	0.011755370547755826
170	0xbfaf587f4db26f61	-0.061222055658815895
171	0x3fa49b3df612dbef	0.0402469027407547
172	0xbfb558051119a08d	-0.08337432544215258
173	0x3fb080b0c6ac3767	0.06446366167457783
174	0xbfb4ce852e824f39	-0.0812762487933555
175	0xbfc277079163ed1e	-0.14425749396455328
176	0xbfbcfc70e8c38d26	-0.1132269447585271
177	0x3f9c8d02114574c8	0.027881653122098254
178	0x3f96c35d1a30ec10	0.02222962829931069
179	0x3fa4ed923b09d345	0.04087502451594686
180	0xbfc9f8d20c1e41f4	-0.20290589896877942
181	0xbf805165fb6f0c14	-0.00796775506558415
182	0x3fb66655bedfa6a8	0.0874990073204126
183	0xbf8ed41b1c758dd3	-0.015052997404103962
184	0x3fa3718eefa6c839	0.037975756410915947
185	0xbf9e8da79cc36c26	-0.029837244933201522
186	0xbf58cbfa5ccd9d6d	-0.0015134758898172854
187	0x3f9528b4faab2a9d	0.020663097190473868
188	0x3fd03ec588e8fd2a	0.2538312756550619
189	0xbfaa81c283c1dc2f	-0.051771238883638986
190	0xbfa2fba5687810af	-0.03707615757233051
191	0xbfb35ecbb7436a60	-0.07566521858408626
192	0xbfcebfc57a866992	-0.24022739870708826
193	0x3f90d04738a402a0	0.01641951831061539
194	0x3f796f3fbf0bf7ad	0.006209610947505978
195	0xbfa08e45b07633da	-0.03233545092653119
196	0x3f842d755780a97a	0.00985232995306683
197	0x3fb3e43121e63998	0.07770068242664363
198	0x3faaa334458cb1ba	0.05202639912599545
199	0xbf91d3ea0f63f777	-0.017409951390610936
200	0x3fa68e5fd6487964	0.044054980189900644
201	0x3fc09fa6bf717bea	0.12987217281167257
202	0xbfbacf4cf1d028c8	-0.10472565559044533
203	0x3f9c2065e6236d44	0.027467338725597715
204	0x3fc02c28937dd599	0.12634761049018264
205	0x3fa011cbb71c02da	0.03138577089521784
206	0xbfb8c8b075163aac	-0.0968122754913831
207	0xbfb86fd9bf14bf6b	-0.09545670428337664
208	0x3fb83651fa8ced31	0.09457886092143465
209	0xbfc5162ab1759003	-0.164738976144804
210	0xbf9d621c1234bb7e	-0.028694571124272532
211	0xbfceefe7711f2e66	-0.24169629119420505
212	0x3fb12231b43e0d9b	0.06692801142167186
213	0x3fb410a785489b09	0.07837912563318751
214	0xbfce993569cabd4e	-0.2390505568086873
215	0x3fba2c1e8541bb44	0.10223570588435132
216	0xbfba69b35c3df666	-0.10317536355975107
217	0xbfc5e71fa6be7cec	-0.17111583368112038
218	0xbf9a254594b06af9	-0.025532805633797093
219	0x3fb3134ee8978d4d	0.07451337030902501
220	0xbfc05a29c9fc0ca2	-0.12775156366851542
221	0xbfa6e66e21e2d41b	-0.04472679294250544
222	0xbfbf8750396b723a	-0.12315846826408797
223	0x3f7a285e532a637c	0.006386154610162783
224	0xbfa4a7ff30893585	-0.04034421412925852
225	0xbfb2c20af0ca7973	-0.07327335718807663
226	0x3f48764be2c7ab96	0.000746523908273888
227	0x3fa1fdc59abc69fd	0.03513925088755696
228	0x3fb11ebf3d0c3efb	0.06687541237283405
229	0xbf9f8c5a84e10887	-0.030808843956272838
230	0x3fb36bd1fb62ad2d	0.07586395633068284
231	0xbfcb3867b9e822a9	-0.2126588495014137
232	0xbfae0798a644692b	-0.05865170507077474
233	0xbfabff2f7c592477	-0.05468128579065817
234	0xbfaf94d5a12314d3	-0.06168239204411354
235	0xbfa2b506a6cab27d	-0.03653736864121002
236	0x3f895a1fd9729607	0.012378929923509764
237	0x3f7e275e0d6b3821	0.007361762420897506
238	0xbf8ee29533c220fe	-0.015080609933889818
239	0x3fabb9ab847cda1e	0.05415092460900815
240	0x3fa8861f11714e6f	0.047898264769767766
241	0xbfc2121e8f81089d	-0.14117795950921144
242	0xbfb18cb3051a9e93	-0.06855315088852824
243	0xbf7765a9f53597c1	-0.0057121886232831
244	0xbf866adcaf768a27	-0.010946010689456177
245	0xbfa329bb90a569c6	-0.037427770049095296
246	0x3fb3dc64f89d9f23	0.0775817019435832
247	0xbf9434277af69949	-0.01973020256050376
248	0xbf87ca7c2b5a31c9	-0.011616678307540778
249	0x3faaa97a7b70d457	0.05207426792950603
250	0xbf923ae6186975b2	-0.017802806129443467
251	0xbf9c31a5a58d8285	-0.027533138494052273
252	0x3f8703b58fecb607	0.011237543539745166
253	0x3fb8968e1a368196	0.09604728832210294
254	0x3faec40cd7651e79	0.06008949403127146
255	0x3fc1e30eb96ae868	0.13974174550623109

action_mean.bias f8 [8]
0	0xbfc639ef41302efc	-0.17364302332895665
1	0xbfb693c80ed10763	-0.08819246637088222
2	0xbfbc35e079de85db	-0.11019709563563344
3	0xbf98c105c9bdc947	-0.024173822820963833
4	0xbf8a2fbbab25c126	-0.012786356125361008
5	0x3fcb17e94da834ef	0.2116672162232258
6	0xbf4bfef3cff80a3e	-0.000854367302906951
7	0x3fc935b28cec450a	0.1969512165165173
