ppo_swimmer_v2_300/ppo_swimmer_v2_300_s0/pyt_save/model.pt (torch_old, 43012 bytes, 12 tensors)

log_std f4 [2]
00000000: 873e d8bf 7af0 13c0
-1.6894082 -2.3115525

weight f4 [64, 8]
00000000: 072f a23d 15e2 2b3e 1235 00bf 6782 1fbe
00000010: 5a29 d2bd bbce 1f3e c775 933c 4816 003f
00000020: d27e 98bd 65f1 223e ccf1 45be c245 9bbe
00000030: 18c7 b7be ba0f c8be cbd4 8cbc 7fda f83d
00000040: a910 313e 3061 4a3e e521 b1be d484 d63d
00000050: 9837 373d a487 c83e 3d97 88bd e656 053f
00000060: d322 c3bd 3a8d 953d 653b 9e3e 46e2 e2be
00000070: 1864 4fbe ee18 3dbe be8f e1bd f3a3 013f
00000080: 8b97 70be d8aa 36be 4f5b 5fbe 58e8 d3be
00000090: 4204 1dbe 45f1 1a3e 98ca 543e 5cef 833e
000000a0: 7c91 8abc 12bc 4fbe 119f 743c 7b58 c2be
000000b0: 57ee 75be f817 abbe da75 483e 6659 a73e
000000c0: 9475 2fbe 4daf 95bc 2cc6 a73e fc85 613c
000000d0: f548 a03e 7932 31be 7f57 d23e f180 f1be
000000e0: 9db2 983d 574e 93be 3253 c5be 393f 93bd
000000f0: 6e48 a23e 429f 0f3e 9e5a 27be 9f16 fbba
00000100: 19bb 453e e674 95bc bfb1 933b 5cd1 c23d
00000110: 9d3e 8c3e 0cbb ce3e 09db 69be 2b5a 72be
00000120: 3138 243e 35be a53e cc3e e73e a303 8b3e
00000130: 4c9c c73d 2824 96be 5e68 e23d bbe4 22be
00000140: eec5 f2be c17e ed3e 85db c23e ac50 aabe
00000150: 93bb 28bd ec99 b8bb f9c3 e7bd 1116 c3bd
00000160: f21c 063e 4971 8abe 2858 b63e e891 ab3e
00000170: f2f1 ab3e 296b 7e3e 07aa c2be 22fd e5be
00000180: 98a2 0a3e e8f6 213e 70f9 3abe 758f 57be
00000190: ecb1 8e3e 380e c63e 9648 3ebe c421 66be
000001a0: d946 b7be d459 af3c 27f6 d4be a760 a9be
000001b0: 551d a73c 490f b43d 9419 b7bd 8b8c 373d
000001c0: fcaf 6cbe 7d0e be3e 7eaa a43e 57c7 a2be
000001d0: 85eb 1dbe 8204 7c3d 03d0 933c 2740 003e
000001e0: 092d 113e a39a b63b cf2b 59be 005d 773e
000001f0: c3c5 91be 766d 7abe fdf0 b5bd c30e 3dbe
00000200: 65ce 24be 6a23 a0be 78bd 83bd 864f 7c3c
00000210: 0779 7cbe c709 1bbe ea6f 563e f47f 7f3d
00000220: 2adc 48bb bc55 3d3c c7e3 de3d 085e 553e
00000230: f18c da3e e85d 953e 61a1 ca3e d839 253d
00000240: e1aa cdbe 57b0 dabd 4713 cb3e 4cef 15bf
00000250: 49ea c6be 3fc8 9fbe f844 f7be a132 ffbe
00000260: ce3e 70bd c5fa 253e 398f 8d3e adad 2abf
00000270: 9cd9 a43e d3fb cdbe dc5f 523c 76fc efbe
00000280: 84a8 a7bd ceb6 c7bd 28ec b6be 5d80 9fbe
00000290: e682 a83d 857f 9cbd e0b2 15be 6b2c 833e
000002a0: f6ac 92be 81cf e2bc f29e 1a3e 550f 1ebe
000002b0: ea6a f93e a4cc a4bd 6b2f 26be 3aa7 013f
000002c0: 7d2b 24bd 693c 5fbe cdea aa3e fd24 27be
000002d0: 5440 8fbd 8bec 23bd 4ef1 ec3d 4e2c c63d
000002e0: 7027 473e 403c 233e bff7 0cbe 9680 dbbb
000002f0: 2a35 9cbe 65a3 873e a16f 9c3e 0e5d a33e
00000300: a6a2 81be c4f8 bfbc 859b 0ebe cc30 35be
00000310: 9208 d8bd e76f 783d 2e8f 80be 82b4 d53d
00000320: 7798 203d 3b32 5e3e f2f5 bdbe 3231 5abe
00000330: 832e 12be 04cc bd3e 5002 bebd dd80 903e
00000340: d85a 953d 8ef5 ba3d 9667 483d 7f26 15be
00000350: f75d be3d 0d0c dabc c9f1 f93c e870 8b3c
00000360: 78b1 90be e10b 2abe b2a5 aa3e caeb a9be
00000370: 0720 023c 9b44 ae3e ddc3 0f3e 39a4 2c3e
00000380: 3171 54be dbd2 a13d 7037 c1be fc90 ca3e
00000390: 2f07 84be 617c a8bd 8df3 02be 6774 673f
000003a0: 52bb df3c 5958 923e 9431 a23e 935d d1be
000003b0: eb57 bc3d 999b 3cbe b0d9 8bbe 226f 313e
000003c0: b895 f33d 13c1 963e 3177 bebd a4ea 923d
000003d0: 75b4 2d3e 2469 b4be bbf1 113f 06e1 4bbe
000003e0: 98b2 a13c d402 3dbd d98e 3dbe 33c3 febc
000003f0: 459a a53e 703a f1bc 39fe 54be 92dc 36be
0.07919126 0.16785462 -0.5008098 -0.15577088 -0.102617934 0.15606205 0.018000497 0.50034
-0.07446064 0.15912397 -0.1933052 -0.30326658 -0.35894084 -0.39074498 -0.017191311 0.1215105
0.17291512 0.19763637 -0.34596172 0.10474554 0.044730753 0.39165986 -0.066694714 0.5208572
-0.095281266 0.073023275 0.3090469 -0.44313258 -0.20253026 -0.18466541 -0.11013745 0.5064079
-0.23495309 -0.17838609 -0.21812175 -0.41388202 -0.15333655 0.151311 0.20780408 0.25768554
-0.016915075 -0.20286587 0.0149305025 -0.3795813 -0.240167 -0.33416724 0.19576207 0.32685393
-0.17134696 -0.018272066 0.3276838 0.0137648545 0.31305662 -0.1730441 0.4108238 -0.47168687
0.07455943 -0.28770706 -0.38540035 -0.07189793 0.31695884 0.14025596 -0.16343161 -0.0019156522
0.19309653 -0.018244218 0.004507273 0.095125884 0.2739152 0.4037708 -0.22837462 -0.23667209
0.1603706 0.3237168 0.45165098 0.27151212 0.09746608 -0.2932446 0.11055063 -0.15907566
-0.47416633 0.46385768 0.38058105 -0.33264673 -0.04119451 -0.0056335833 -0.11316676 -0.09525693
0.1309698 -0.27039555 0.35614133 0.33509755 0.33583027 0.24845566 -0.38020346 -0.44919688
0.13538587 0.15816844 -0.18259215 -0.21050818 0.2787012 0.38682723 -0.18582377 -0.22473818
-0.3579624 0.021405138 -0.4159405 -0.33081552 0.020399729 0.08791978 -0.089404255 0.044811767
-0.23114008 0.3712043 0.32161325 -0.3179271 -0.15421875 0.061527736 0.018043524 0.12524472
0.14177336 0.0055726334 -0.21208118 0.2415657 -0.28471193 -0.24455819 -0.088838555 -0.18462662
-0.16094358 -0.3127702 -0.06432623 0.015399819 -0.24655543 -0.15140449 0.2094113 0.062377885
-0.0030648806 0.011556085 0.10883289 0.20836651 0.42685655 0.29173207 0.39576247 0.040338367
-0.40169433 -0.106781654 0.39663145 -0.58568263 -0.3885062 -0.31207463 -0.48294806 -0.49843314
-0.058653645 0.16208942 0.27648333 -0.6667126 0.32197273 -0.4023119 0.0128402375 -0.468723
-0.08186439 -0.09751664 -0.35727048 -0.3115262 0.08228092 -0.0764151 -0.14619017 0.25619826
-0.28647584 -0.027686836 0.15099695 -0.15435536 0.4871438 -0.080468446 -0.16229026 0.5064579
-0.040080536 -0.21800388 0.33382264 -0.16322704 -0.069946915 -0.040020507 0.11569463 0.09676419
0.19448638 0.15940952 -0.13766383 -0.0066986782 -0.3050931 0.26491848 0.30553916 0.31906933
-0.25319403 -0.02343405 -0.13926513 -0.17694396 -0.1054851 0.060653593 -0.25109237 0.1043482
0.0392079 0.21698849 -0.37101704 -0.21307829 -0.14275555 0.37069714 -0.09277785 0.28223315
0.07292718 0.09128867 0.048926912 -0.14565466 0.09295266 -0.026617074 0.0305108 0.017021611
-0.28260398 -0.16606094 0.3332954 -0.33187705 0.007942206 0.34036717 0.1403956 0.16859521
-0.20746304 0.079015456 -0.37737608 0.3956374 -0.2578673 -0.082268484 -0.1278822 0.9041199
0.027311001 0.2858303 0.3167845 -0.40891704 0.091964565 -0.18418731 -0.2731452 0.1732755
0.11893791 0.2944418 -0.09300078 0.071736604 0.1696337 -0.35236466 0.57009476 -0.19910058
0.01973848 -0.046145275 -0.18511523 -0.031098938 0.3234426 -0.02944681 -0.20800103 -0.17857578

bias f4 [64]
00000000: 3d3e 40bd 7300 2cbe c185 fe3d 7f08 c33d
00000010: be3f 36be 4e6c 133d 96a2 463e 5d5e 5dbc
00000020: 796b d53d 454a 9dbd 9051 e33d 5cf3 6dbe
00000030: 84df 73be 1e2a 35be 90ea ae3e f393 aabd
00000040: 4235 2ebc 1e22 4abe f21d a83e d46d ae3e
00000050: 6678 93be d436 b1be cbae 68be bc40 f03c
00000060: 60fc 97bd 4358 5abe ce66 36be 5605 4a3d
00000070: c203 d8bd 56d2 983d 2850 0bbe f563 40be
00000080: c6a6 3f3d 0b10 813e 904c 63be 92f5 82bc
00000090: 2b60 18be 37b4 a43e 553a b4be aac5 a8be
000000a0: 81bb a43e 33aa 46be f8d8 783d 2566 bcbb
000000b0: 49d9 89bd 6864 463c 50f9 8b3e 129a 233c
000000c0: 4c15 a4be 12a1 8ebe 2525 f8bd 8c71 fe3d
000000d0: e932 67be b970 c83e 4d91 abbd 8d8e 01bd
000000e0: 2124 843e 70d3 623e 453b 883e 819c 803e
000000f0: e968 33be c7ab 6cbe 2a29 f8bc dc7f 993e
-0.046934355 -0.16797046 0.12427855 0.09523105 -0.17797753 0.03599196 0.19397959 -0.0135112675
0.104208894 -0.076801814 0.11099541 -0.23237365 -0.23815733 -0.17691848 0.34163332 -0.08329
-0.010632815 -0.19739577 0.32835346 0.34068167 -0.28802794 -0.34612143 -0.22722928 0.029327743
-0.074211836 -0.21322732 -0.17812654 0.049321495 -0.10547592 0.074619934 -0.13604796 -0.1878813
0.046789907 0.25207552 -0.22197175 -0.015986238 -0.14880435 0.32168743 -0.35200754 -0.32963306
0.32174304 -0.19400863 0.060753793 -0.0057494813 -0.06730897 0.0121089 0.27338648 0.009985464
-0.32047498 -0.27857262 -0.1211646 0.12424001 -0.22578014 0.391485 -0.08377323 -0.031630088
0.25808814 0.2215097 0.2660772 0.25119403 -0.17520489 -0.23112403 -0.030293066 0.2998036

weight f4 [64, 64]
00000000: df66 103c bd13 dabd cf87 c83d 2ad7 113e
00000010: f07a 86bd b70d 5abe 8eb9 e3bd 738d 2b3b
00000020: 1aef af3c 270f 15bd 8e85 8e3d 4f70 0b3e
00000030: 2c43 2e3e e27f db3d c9e5 083d d792 f7bd
00000040: 4d9b 2bbe 5b73 173e 8c31 47bd e9ff 663d
00000050: 77ab 1bbe b6b9 ec3d dc24 fb3d 3c08 343e
00000060: e411 b9bd f6e0 07bd 671a cbbd 4775 1e3e
00000070: bba1 16be e194 ffbc 8ef0 e43d 3cf4 cbbd
00000080: df0f a1bd af3d 90bc 82fb 23bd 15fe 01be
00000090: cd79 0a3e 45b3 90bd 3788 22bd f749 1d3d
000000a0: 2171 773d f6c5 0fbd 0652 2e3e 1685 463d
000000b0: 36d9 3abd 7caf 033e 9924 94bc 667e 0fbe
000000c0: 4cab 5c3c 9d66 6abe dc54 203e bb94 0a3d
000000d0: 9594 54be 1eb6 5cbc fc0d 0f3e ff44 d33b
000000e0: 514f c63b 4d4d 083e ffbb e73d 7564 60bd
000000f0: 8a8d f5bd 66b4 2bbe 8932 52bd d8c3 5b3d
00000100: f2a1 34be 5014 f7bc f618 99bc 4308 283b
00000110: 915a cfbd 5abe 303e 2979 4ebc 3b2f 263d
00000120: 1a04 c5bd fc18 173c 118c b73d ea56 8b3d
00000130: e222 b9bc 1a6d abbd aea9 bcbd 9977 fcbd
00000140: 6508 9f3d ee09 a63d d837 b8bd 0eff d33d
00000150: 1aa1 8dbd 474a 3a3d 639f 513e 53bf d8bd
00000160: ddab 1e3c b98c 173d ec81 2fbc fd56 033e
00000170: 136f 00be dac6 213e 7ef6 72be b5a9 c5bd
00000180: 6381 b2bc 7539 79bb afc2 de3d 4a69 f53c
00000190: 6dfd debd c768 08bd 32c6 083e f2c5 ac3d
000001a0: 92d8 2c3c 9a51 09be bc2b 753d 558f 44bc
000001b0: ee73 5b3d 1516 753e 2dae 86bd 1ec5 c5bc
000001c0: fb4a e63b a723 c23c 68ed 263e 5461 0ebe
000001d0: e678 253e 58d3 843d e48a b63c 8890 dcbc
000001e0: 94e6 233e b05f 37be a28b 293b dc8b 8e3d
000001f0: ae25 82bc 0695 563c 2e74 c1bd 699e 7abc
00000200: 1421 7dbc caa4 8bbc 8029 be3d e681 0f3e
00000210: 91d8 a9bd ace3 103d 4541 0abd bb51 66bd
00000220: 157c 82bd c714 edbd 5b64 0d3e 8b13 df3c
00000230: 5e62 443d 3e07 043d 19f5 e63d 2671 d63d
00000240: c76b cc3d 3b41 4bbd 18ac 0bbe 20f2 07be
00000250: 9fd8 a8bd f647 b93c 1dd0 ea3d beb9 63bc
00000260: 75b2 953d 535d 5abd 705f 19bd 08a9 eb3d
00000270: 84eb bfbd 4301 843c 2dd6 2ebd f1b9 5b3d
00000280: 7a3a eabc 7714 a0bd f0f8 e9bb f519 a9bd
00000290: f22e ddbd 08d1 083c fe2d 243d 29f1 50bd
000002a0: 0a36 bc3d 9e9f c23d 5296 123e 1476 3fbd
000002b0: 3df8 cebc 9886 b0bd ef73 16be bd2a c33c
000002c0: 52db e33d aadf dc3c 5163 6f3d 25a8 553d
000002d0: e4ba fabd 1acc e13d 7f12 80bb 9685 cbbd
000002e0: 2645 ae3b 7520 fc3d 0e06 cabc a184 aa3d
000002f0: b47c dc3a 79a5 d3bd b84b 02bc 101b 043e
00000300: 9b7a 46be dcc3 0fbd bc35 36bd e556 08be
00000310: f42d 433d d3d5 1b3e f2f7 d03d bf04 69bd
00000320: bc90 d43d dff9 99bd 5602 ac3d abbf 4ebe
00000330: 5680 26be f00f 4a3d df8c eabc 9a70 033d
00000340: 8fbd 3abd 023b d8bd b25b fc3d 1afa b3bd
00000350: 58ca 393c 0027 db3c 8a28 ddbc f60a 0dbd
00000360: f32f b83d 8beb 01bc 73ed 21bd c090 adbd
00000370: b5ef b53b 1aec dbbd e3c7 91bc 09aa 9e3c
00000380: a545 8f3d a25b 37bd 48a1 ee3d b6a1 5dbd
00000390: 5db7 1fbc 2ecd 0a3e d93c 373e fc76 28bd
000003a0: a9a4 863c eb87 683d 2b21 f1bd 7874 8fbd
000003b0: 92f9 b53c ed91 c8bd 6336 bf3d ed89 ed3c
000003c0: 58b3 a1bd b8b2 363e e936 babd 50ad 5e3c
000003d0: 10e7 373e ac37 04bd 5f76 f03c e5a3 74bd
000003e0: 9597 33bd 0aea 60bd 2dbe 2bbd 9402 e8bc
000003f0: cfa0 1f3d 9d5a 1f3d d08b 2d3d 1b21 95bc
0.008813589 -0.10648296 0.097915284 0.14242235 -0.06566417 -0.21294294 -0.11119376 0.002617684
0.021476317 -0.036391404 0.06959067 0.13617061 0.17017812 0.10717751 0.033422265 -0.12088554
-0.16758461 0.14790098 -0.048631236 0.0563964 -0.15202127 0.11558859 0.1226289 0.17581266
-0.090366155 -0.033173524 -0.09917145 0.15474425 -0.14710133 -0.03119892 0.11178695 -0.099586934
-0.07864355 -0.017607538 -0.04003478 -0.12694581 0.13523026 -0.07065443 -0.039680686 0.038400616
0.060410623 -0.0351009 0.17023477 0.048466764 -0.045617305 0.1285991 -0.018083857 -0.14013061
0.013468575 -0.22890706 0.15657371 0.033833247 -0.20759805 -0.0134711545 0.13970178 0.006447434
0.0060519357 0.13310738 0.11315154 -0.054783303 -0.11989887 -0.16768035 -0.051317725 0.053653568
-0.17639902 -0.030161053 -0.01868866 0.002563969 -0.10124696 0.17260113 -0.012602129 0.040572386
-0.09619923 0.009222265 0.089622624 0.06803687 -0.022599641 -0.08370419 -0.09212051 -0.12327499
0.07765273 0.08107363 -0.08995026 0.10351382 -0.06915493 0.045480993 0.20470957 -0.10583367
0.00968453 0.036999438 -0.010712128 0.12826152 -0.12542371 0.15798512 -0.23726842 -0.0965151
-0.021790212 -0.0038028632 0.10876977 0.029957432 -0.10888181 -0.03330305 0.13356856 0.084361926
0.010549681 -0.13410035 0.05985616 -0.011997064 0.053577356 0.23934205 -0.0657619 -0.024141844
0.0070279813 0.023698641 0.16301501 -0.13904315 0.161594 0.06485623 0.022283025 -0.026924387
0.16005927 -0.17907596 0.002587058 0.0696027 -0.015887108 0.013097053 -0.09445988 -0.015296557
-0.015449781 -0.017046351 0.09285259 0.14014396 -0.0829326 0.035373375 -0.033753652 -0.056230288
-0.06371323 -0.115762286 0.13807814 0.027230999 0.047945373 0.03223347 0.112772174 0.104708
0.099814944 -0.049622755 -0.13639867 -0.13275957 -0.08244442 0.022617321 0.11465476 -0.013899265
0.073094286 -0.053311657 -0.037444532 0.115068495 -0.09371093 0.016113883 -0.042684723 0.053644124
-0.028592337 -0.07816403 -0.0071402714 -0.08256904 -0.1079997 0.008350618 0.040082924 -0.05101124
0.09189995 0.09503101 0.14315155 -0.046743467 -0.025264854 -0.08619422 -0.14692663 0.02382409
0.111258164 0.02696212 0.058444325 0.05216231 -0.12242678 0.110252574 -0.003908455 -0.09937589
0.0053183017 0.12310878 -0.02466109 0.08326078 0.0016821832 -0.10334296 -0.007952623 0.12900949
-0.19382708 -0.035098895 -0.04448484 -0.13314398 0.047651246 0.15218286 0.10203542 -0.05688929
0.103791684 -0.07518362 0.08398883 -0.20190303 -0.16259894 0.049331605 -0.028631626 0.032089807
-0.045590933 -0.1055813 0.12322177 -0.087879375 0.011339746 0.026751995 -0.02699687 -0.03443428
0.089935206 -0.007929693 -0.03953309 -0.084748745 0.005552257 -0.10738392 -0.017795509 0.019368188
0.069957055 -0.044765122 0.11651856 -0.054109298 -0.009748307 0.13554832 0.17894305 -0.041129097
0.016435938 0.056770246 -0.117739044 -0.070046365 0.022213731 -0.09793458 0.09336545 0.028996432
-0.07895535 0.17841613 -0.090925045 0.013591126 0.17959237 -0.032279655 0.029353319 -0.059726615
-0.04384573 -0.054910697 -0.041929413 -0.028321542 0.03897172 0.038904775 0.042369664 -0.018204262

bias f4 [64]
00000000: 2474 033d 3c21 31be dcb8 84bd 6bc5 d63d
00000010: 51eb a13d d15f 153d 0d21 eebc 76b9 51ba
00000020: 69b4 c73d 81e3 dcbd 61a6 bdbc 687f d7bd
00000030: 35e4 d2bd 424b a6bc af26 9a3c 9f7f d13d
00000040: c3e9 08bc 2af8 10bc 890f 063c 420f 343d
00000050: b5ae 27bc 7e35 e5bc 1f37 08bd e3df f0bd
00000060: 01a9 67bd 6247 06be 0bf6 b6bd 39b2 24bd
00000070: 0141 083e 04aa cdbd afaf cd3d 4016 f33c
00000080: 7afc a1bd 2cfe a13d e050 41bd 7ed2 93bd
00000090: a22d 9dbc 07a1 0a3d 901e e6bd cc58 b9bb
000000a0: 8666 d53c 4dbc bfbd 037e f8bc 6ef3 03bd
000000b0: 5bc5 d2bd 8e4a 013e 4964 bfbd 95ad 993b
000000c0: c0da 913d 5518 c0bd 6b58 213d 56c1 04be
000000d0: aaf8 673d 2179 5b3d 50ea 56bd 767e 14be
000000e0: 52f2 a43c c0d0 863d 65ba b3bd ad40 adbc
000000f0: a690 d2bd 8b59 ffbd b9b9 f5bc 5949 003e
0.032093182 -0.17297834 -0.06480572 0.10486873 0.07906211 0.03646833 -0.029068494 -0.0008000353
0.097512074 -0.107855804 -0.023150625 -0.10522348 -0.10297433 -0.020299558 0.018817274 0.1022942
-0.008356514 -0.008848229 0.008182415 0.043959863 -0.0102345245 -0.027979609 -0.033255693 -0.11761453
-0.05655766 -0.13113168 -0.08933648 -0.04020903 0.13306047 -0.100421935 0.100432746 0.029673696
-0.07909484 0.079098076 -0.04719627 -0.072178826 -0.019186798 0.033844974 -0.11236298 -0.0056563374
0.026049864 -0.093620874 -0.030333525 -0.032214575 -0.10291549 0.12626097 -0.093453 0.004689882
0.071218014 -0.09379641 0.039390963 -0.12964377 0.05663363 0.053582314 -0.05246955 -0.14501366
0.020135079 0.06582785 -0.08775786 -0.021149004 -0.10281496 -0.12468251 -0.029995786 0.1252798

weight f4 [2, 64]
00000000: 5f71 be3d 824c 7d3e 26a1 613c 14c9 1cbd
00000010: aa5d d73e 16b5 40bd ed18 853e 5672 8f3e
00000020: 147e 7ebe 1e04 f93d 674d c6bd 66bc f03b
00000030: 83da e43d ce12 b9bd 507e 72be 7a5b 70be
00000040: d96c 553e 5242 aabd 8cd3 9a3d 9779 333e
00000050: 555d 12be 239a d53b 6691 663e bd85 08be
00000060: d88b cf3d 0bf5 793e f650 2f3e 29e2 40be
00000070: 7157 05be 9d03 2bbe 27db 6f3e f209 033e
00000080: 319a 3fbd f783 1e3d 3a0d 353e 2f31 9ebd
00000090: 186c b33d cfd4 993e aa92 e03c f847 e2bc
000000a0: 8952 b63d 9e2f 243e 9033 253e 7267 c4bc
000000b0: d290 ccbd 503a 1fbe c8ec 593c 61c4 90bd
000000c0: 74a5 14be e380 f53d 311c e83d 50c6 e8bc
000000d0: e31f b4bd 469c cebd eb50 f83d 3e93 163e
000000e0: 1393 8ebe b093 2dbd a7c1 ab3d ebd7 8cbb
000000f0: 9202 dcbd 322c 393d 3233 eb3d 8029 a2be
00000100: a3a3 aa3e a77f 2f3c 02bc 123e 23aa 8cbe
00000110: 9dc4 d3be e2df 8bbe bbdc 843d fa6f 32be
00000120: 741e 803e fef5 a0be 4778 83be 34fe cebd
00000130: 1c15 913e cb86 2cbe 7795 f13d 1354 c73e
00000140: e898 263e 4f10 333e 1e9f 853e 4d22 d9bd
00000150: 9cda f1bc 62b8 3b3e 31a4 7b3e 251b 49be
00000160: 651f efbd b6bf c13d d3c0 393e 99c0 96bb
00000170: c63e 85be 9615 66be 20b1 a3bd d570 0b3e
00000180: 764d acbe 5e7f f3bd 7a19 96bc 58fd 413e
00000190: 752d 75be c7c1 0fbe e5e2 a53e 844b b93e
000001a0: d186 5cbe 3603 0cbe 52f8 3cbd 420f ce3e
000001b0: 7608 82be fb66 1dbd 66fc 653e 6ca3 23be
000001c0: 11e4 89bd a40f 34be bca1 1c3e 3a92 373e
000001d0: 318f 573e 5cde c83e 7ffa 403b a51e 08bd
000001e0: 30fe 1dbe 3b0e 673e c019 09be cf94 fdbd
000001f0: c5e1 15be bfe8 c13d 038f 083e ac83 39bd
0.092989676 0.24736217 0.013771331 -0.0382777 0.42063648 -0.047047697 0.2599558 0.2801692
-0.24852782 0.121589884 -0.09682732 0.0073466776 0.1117449 -0.0903679 -0.23680997 -0.23472396
0.20842303 -0.08313431 0.075598806 0.17526852 -0.14293416 0.0065186187 0.22516403 -0.13332267
0.10134095 0.24409883 0.17120728 -0.18836273 -0.13021637 -0.16700597 0.23423444 0.12796763
-0.046777908 0.03870007 0.17680827 -0.07724225 0.087608516 0.30045173 0.027413685 -0.027622208
0.08902461 0.1603379 0.16132951 -0.023975108 -0.0998856 -0.15549588 0.013301082 -0.07068706
-0.1451624 0.11987474 0.11333502 -0.028414875 -0.087951444 -0.100884005 0.12124809 0.14704606
-0.27846584 -0.042377174 0.08386546 -0.0042982004 -0.10742678 0.045208164 0.11484374 -0.31672287
0.3332797 0.010711587 0.14329532 -0.27473554 -0.41360942 -0.27319247 0.064874135 -0.17425528
0.25023234 -0.31437677 -0.25677702 -0.10107079 0.28336418 -0.16848294 0.11796086 0.3893133
0.16269267 0.1748669 0.2609796 -0.106022455 -0.029523186 0.18332055 0.24574353 -0.19639261
-0.1167591 0.09460394 0.18139963 -0.004600596 -0.26024455 -0.22469172 -0.07992768 0.13617261
-0.33652848 -0.11889528 -0.018322695 0.18944299 -0.23943122 -0.14038764 0.3239967 0.36190426
-0.21535803 -0.136731 -0.046135254 0.40246016 -0.2539708 -0.038428288 0.22459564 -0.15980309
-0.06732953 -0.17584091 0.15296072 0.17926875 0.21050717 0.39232147 0.0029446182 -0.03323235
-0.15428996 0.22564022 -0.13388729 -0.123818986 -0.14636905 0.09468221 0.13335805 -0.045291588

bias f4 [2]
00000000: 4bce 1abe aee5 95bd
-0.15117757 -0.073191985

weight f4 [64, 8]
00000000: 2df5 a3be ba95 573e c9b5 e73e cba7 a8be
00000010: 29fd 063d 2a5d 773d 3259 773e a9f9 003f
00000020: 3821 823e afb9 cb3d 1099 8c3e 4360 5fbf
00000030: 7db9 23be 4806 b4be 86f6 723d 13c8 12be
00000040: 8ee7 86be 7324 8dbe 9d8d a53d 1f11 afbe
00000050: ba4b 4d3c 3566 313c 258d 063e 678c 603f
00000060: 9ba2 9ebe 858c b9be d8cc 1bbf 4fd1 dd3d
00000070: 143d 713e fbea e43e 49e9 8ebe e7b2 f43d
00000080: 52b1 20be 1e00 8fbd 1d0c 703e 39c1 0fbf
00000090: 5fd9 ed3d ceca da3e a47f 34bf d1d1 50bf
000000a0: fac5 b7be 8d29 803e 5616 593e 01a0 823c
000000b0: 764a bdbe cf75 a1be e5f3 45be 4d4b 2ebe
000000c0: 2896 ddbe cf89 bbbe 898e 81be df8f 72bf
000000d0: 8cd3 f53d 9dfe 5a3e e733 1bbe c2dc 9dbe
000000e0: d0f8 cb3d bb47 05bd 52e1 eb3c 86d7 6e3f
000000f0: 9a06 b0be 9906 c73d 3aa6 d3be ab9a c23f
00000100: 35f0 873e 17df e7be 7ae1 c8be e616 fa3d
00000110: 2907 093f de42 ebbd e856 0ebb 2f73 1b3e
00000120: 3484 c8bd 7993 45bd 1591 f8be 6cd0 30be
00000130: 7105 633d 6a68 b53e 6fd5 053c f7a4 903e
00000140: b378 ae3e ecc9 88be 0b2b 94be 46f9 1abf
00000150: b1c1 b53e b29a ba3d 31d1 12be f3e3 c6bd
00000160: f924 9d3c 5d80 02bf e988 2cbf b9cf 94be
00000170: 2df6 213f 394d 833e 87b2 fbbe 7a35 cfbe
00000180: b3dd 8bbe ec03 1abd 2b1f 9a3e 3e5c 0cbf
00000190: 87c7 2f3f f4bf 053c a1c7 9abd 0405 473e
000001a0: d752 1c3e 3767 adbe c3d6 ab3e c9cc 8ebf
000001b0: 84e6 113f de59 ca3c 6140 5ebf 6b51 c73d
000001c0: d4da 21bf a4bd 123e 36cc c13e daa6 18bf
000001d0: c6a7 a1bc 4dcc 33be 661d a8bc 4130 e9bd
000001e0: 8bc0 643e 3231 c0be 97b2 0bbe 0941 91be
000001f0: c33d 383e 82f2 463e 2e0a a1bc bd47 593d
00000200: d0fd a3bc 2ab9 89be 44e0 13bf 5676 b73e
00000210: 39c1 e7be 87b3 c4bd 4769 2d3d 55bf 23bb
00000220: 1c90 48bf 9fa1 783e 454f 98bd 432c 73bf
00000230: 86d7 a73e f6bc f6be 27c0 afbc 9a94 013f
00000240: 84f7 943d fbf4 f13e 7318 9f3c 44e7 f8bd
00000250: fd1d 863e 1798 12be 12ed 9ebe 1f97 4ebe
00000260: 5154 483e 8aca abbe 0252 6c3c a1fe 78bd
00000270: 5441 7f3e 986a 38be 9103 5bbe 4046 68bc
00000280: 30e7 123d 3fa2 bbbd f048 0e3f 9582 15bf
00000290: 277f 2e3e 2067 80be 836c 1fbd 8304 dfbe
000002a0: 979c 85be a235 10be 5140 e43d 1f02 e5be
000002b0: 6784 cb3e bc74 2e3e a4d9 313c cbe5 94be
000002c0: 03a9 ae3e f1e3 443d bc9f 2c3e 2dcc 8cbf
000002d0: cc5a 473f f3aa a0bd b55e 62bf 758d 8f3d
000002e0: 79ad a2bd bcd5 073f 52bd 113e 5c2b 6abf
000002f0: bc53 5f3f 3694 a63d dbe4 693d 7d4c 133f
00000300: 1d16 533e b101 133f b27c 513f cfd4 063f
00000310: b54f f8be 41a0 1abf 428a bc3e 3eec 7a3e
00000320: 87fa 883e 9ae5 0ebe c814 06be e508 8e3e
00000330: 1e1e abbe 8a6e a53e 72e4 003e 8bed 8bbd
00000340: 385c acbe 915b 80bd a98c b83d b214 a1be
00000350: 069a 083f fc9f 913e 02c2 163e 5808 cf3d
00000360: 528b 793d 39ba 8fbe eafc 283e cf77 3abf
00000370: 3302 b2bd 7d7a 85be fb1a 803b e759 98be
00000380: 0a98 b2bd b4be ba3d 9f4f 283f 607c a13d
00000390: d305 0a3f f946 413e b829 6a3e 4177 263e
000003a0: 9226 4cbe 3d2f 1b3f 62ee 613e 909f 883e
000003b0: 58bc 2bbe 0b0a fabe 8a46 ee3e c84a 203f
000003c0: 3a57 033e 40e2 a2be df9a 3ebf d3ed 743f
000003d0: 9628 7abd 5c3a 0ebe 7c3f 973a 4771 d1be
000003e0: e519 313e 45ef f3be 225c 52be ee9e b83e
000003f0: 1ffb c83e a756 47be 57be d5bd f91f 093e
-0.32022992 0.2105321 0.4525588 -0.32940516 0.032956276 0.060391583 0.24155119 0.5038095
0.2541597 0.09947526 0.27460527 -0.8725626 -0.15988727 -0.35161042 0.059317134 -0.14334135
-0.26348537 -0.2756687 0.08083651 -0.3419275 0.012530262 0.010827591 0.1313978 0.87714237
-0.30983433 -0.3624002 -0.6085944 0.10830938 0.23558456 0.44710526 -0.27912357 0.119481854
-0.15692642 -0.06982444 0.23442121 -0.5615421 0.11613726 0.42732853 -0.70507264 -0.81570154
-0.35893232 0.250317 0.21199927 0.015945436 -0.36970872 -0.31535193 -0.1933132 -0.17020912
-0.43278623 -0.36628577 -0.25304058 -0.9475078 0.1200324 0.2138619 -0.15156518 -0.30832487
0.099595666 -0.03253911 0.028793965 0.9329761 -0.34380037 0.09718055 -0.41337758 1.5203451
0.2655045 -0.45287392 -0.39234525 0.12211399 0.5352655 -0.11487363 -0.002171928 0.15180658
-0.09790841 -0.048236344 -0.4854819 -0.17267007 0.05542511 0.35431224 0.008168562 0.28250858
0.3407646 -0.26716554 -0.2893909 -0.6053661 0.35499337 0.09111537 -0.14337613 -0.097114466
0.019182669 -0.50977117 -0.6739641 -0.2906473 0.6326626 0.25644854 -0.49159643 -0.40470487
-0.2731758 -0.037601396 0.30101904 -0.5482825 0.6866383 0.008163441 -0.075576074 0.19435507
0.15265976 -0.3386781 0.33562288 -1.1156245 0.56992364 0.024701055 -0.86816984 0.09732326
-0.6322453 0.14330155 0.37851113 -0.59629595 -0.01973332 -0.17558403 -0.02052183 -0.11386157
0.22339074 -0.37537533 -0.13642345 -0.2836993 0.1799231 0.19428447 -0.019658174 0.05304693
-0.020018488 -0.2689908 -0.5776408 0.3583247 -0.45264605 -0.096045546 0.04233673 -0.002498587
-0.78344893 0.24280404 -0.074369945 -0.94989413 0.3278162 -0.4819104 -0.02145393 0.50617373
0.07273772 0.47257218 0.019420838 -0.121534854 0.26194754 -0.1431583 -0.31040245 -0.20174836
0.19563414 -0.33552963 0.014423849 -0.060789708 0.24927264 -0.18009412 -0.21388079 -0.014176905
0.03586501 -0.09161805 0.55580044 -0.5840238 0.17040692 -0.25078678 -0.038921844 -0.4355813
-0.2609603 -0.1408296 0.1114508 -0.4472818 0.39749452 0.17036718 0.010855112 -0.29081568
0.3411332 0.048068944 0.16857809 -1.099981 0.7787292 -0.07845106 -0.8842576 0.07009403
-0.079432435 0.5306051 0.14232376 -0.9147241 0.87237144 0.08133738 0.05710302 0.57538587
0.20613904 0.57424456 0.81830895 0.5266847 -0.48498312 -0.6040078 0.36824232 0.24504182
0.26753637 -0.13954774 -0.13093865 0.2774116 -0.33421415 0.32310897 0.12587145 -0.06832417
-0.33664107 -0.06267465 0.09011204 -0.31461102 0.5336002 0.2844237 0.14722446 0.10109013
0.06092388 -0.28071764 0.16502729 -0.72839063 -0.08691826 -0.26070014 0.0039094663 -0.2975609
-0.087204054 0.09118405 0.6574649 0.07885051 0.5391514 0.1887473 0.22867477 0.1625643
-0.19936588 0.60618955 0.22063592 0.26684237 -0.16771066 -0.48835787 0.46538192 0.6261411
0.12826243 -0.3181324 -0.74455065 0.9567539 -0.061073862 -0.1388945 0.0011539306 -0.40906736
0.17295034 -0.47643486 -0.20542958 0.36058754 0.3925409 -0.19466649 -0.10436695 0.13391103

bias f4 [64]
00000000: 680e 18be 5382 c8be 95e1 51be 5c80 c93e
00000010: 66aa ffbd f652 813e 5279 8f3c 68b0 89be
00000020: d050 003f 86d1 a73e c755 c1be 786b 143f
00000030: 7236 9abe d49b a2be a329 02bf 0a34 dbbe
00000040: f696 0e3f 9026 933d e560 5c3e 6870 05be
00000050: f044 203d 1c2d 65be aef6 a9be e66a 80be
00000060: eb6b 04bf 1478 bd3e b560 c2be 46e0 c8bd
00000070: 46cc 493d 0846 ebbe c062 d83e 3c88 913e
00000080: f899 a53e 700f d13d 3de5 b73e 66ac e53c
00000090: 986e 533e 1d57 a63e 055b c0be 3cd6 b33d
000000a0: 39ec f3be c778 8a3e 40c9 7ebd bd3d cabe
000000b0: 1663 a63e 8e4c 82bd f365 81be f84b f0bd
000000c0: c566 bc3e 975c 663e 3621 8f3d 3eb5 59bd
000000d0: 0282 8b3e c4fd 34bf 11ef 3d3e a5c9 1bbf
000000e0: 13aa dd3e 9ad4 be3e 7937 a63e 4ed2 bb3c
000000f0: f91d 79bd 01db acbe 4371 9abe 89c1 e9bd
-0.14849246 -0.3916193 -0.20496209 0.39355743 -0.12483673 0.25258607 0.017513905 -0.268924
0.5012331 0.3277704 -0.37760755 0.57976484 -0.30119663 -0.31759512 -0.5084478 -0.4281314
0.556991 0.071850896 0.21521337 -0.13031161 0.039128244 -0.22380489 -0.33196014 -0.25081557
-0.5172717 0.37005675 -0.37964407 -0.09808402 0.049267076 -0.45951867 0.4226284 0.2842425
0.3234403 0.102080226 0.35917082 0.028036308 0.20647657 0.32488337 -0.37569442 0.08781096
-0.4764116 0.2704527 -0.062203646 -0.39500228 0.32497472 -0.06362258 -0.25273094 -0.1173324
0.36797157 0.22496258 0.06988756 -0.05315136 0.27247626 -0.70699716 0.18548228 -0.6085456
0.4329382 0.37271577 0.32464197 0.02292743 -0.0608196 -0.33760837 -0.30164537 -0.11413867

weight f4 [64, 64]
00000000: 2a23 053f 3894 2e3e 4268 d93e db39 0cbe
00000010: ce03 573d 74b9 303e 8e47 54bc dedc e03d
00000020: a268 bfbd 2ad9 5bbe a1d9 e3bd 8db7 87be
00000030: 62c2 373f 3ccc 223e 73ba a13e 36b6 e4bd
00000040: fd9a a7be c376 343f 8922 943d f9b6 d9bd
00000050: 860f 89bd 0bfb 603e c457 413e 1b30 943e
00000060: aaf7 533e 4ac4 9bbe d15c 603e 4454 6f3c
00000070: 9ef5 c23e b662 ce3e afee e0be 21c3 4d3c
00000080: 3c89 51bd 94cb a73e 8264 d2be c047 f03d
00000090: 399d e7be e40b 1abf 0a2b da3e 986b 813d
000000a0: e459 5fbe 1b20 643d f1c3 08bf a7a1 2b3e
000000b0: 1a8e 65bd 29cd aa3c 9fb3 6cbe 105c 5c3e
000000c0: 1a91 b23d a93a f03d 3bbb 5dbe 3469 afbe
000000d0: c4f6 113f 0da2 243e f23f bb3e 2f26 8f3d
000000e0: 3c24 49be 4aa3 32be 3dee e33d 4664 473e
000000f0: 1b49 f6bb 0a40 91bd 2918 483d 3e93 3abd
00000100: e1d7 9bbe 86d5 8cbd d239 d6be c008 fdbd
00000110: cc9b bbbd a8c0 c03d 6d04 c0be 8525 48be
00000120: f946 fd3d 9496 c2bd 550e b7bd 51ab d53d
00000130: c665 3bbf dc9f debe 6cd9 19bf 43c1 2e3d
00000140: a5af 9d3d 9850 12bf 3875 0d3e 61cf c63c
00000150: 9014 af3d 6a54 e8be 6fc5 44be ef95 15be
00000160: 1c00 7cbe e606 bd3e 595a e2be 665b 12be
00000170: 0663 cabd 9696 6abe c4eb 8c3e cc6a 3e3e
00000180: aaec 873e d583 92bc 4d71 b73e be0c 193d
00000190: 6358 373f 98a0 943e 619a 9abe 0818 dabd
000001a0: 8867 943e baf8 56be f76c a33e c2d9 94be
000001b0: a197 b73c 0e1b b0bc 70c4 9e3e 7810 14be
000001c0: cf95 84be bba6 23bd 4e54 403e d632 b63d
000001d0: 5075 23bf ff6b f3bd f5ee 9dbe b516 38be
000001e0: 6f29 c33e 77a2 323e 1861 cebd 9b76 1bbe
000001f0: 7874 613d 1657 a8bd 5964 f93d 2d29 873e
00000200: bc94 5abd b0ed 223f a098 a73d ae21 89be
00000210: edb4 9f3e 7cff ebbd d892 143e 95b5 0a3e
00000220: 0678 2f3e 41f6 30be c4a7 9d3e ef30 f1bd
00000230: 722e ec3d 96fb 0b3f 1343 ed3d 2629 b03e
00000240: 8348 87bd 0586 01bc 2a2e 8abd 5d41 f63d
00000250: f530 2cbd 39dc 463e d9e3 823f 604e 443e
00000260: 39d7 ba3e 2f16 babe b637 583e 5308 583e
00000270: 4327 e5bd 12be 843e 9205 3ebc 8115 2dbd
00000280: cc95 443e 35aa d8be fa58 40be ab00 763b
00000290: ac7d 79be 3d7f 7e3d f54b 653e befd d7be
000002a0: 7772 453e de3b 83be 226a 75be 68b1 183f
000002b0: 63e6 673e dd3a 613d 5f91 41be 2a67 163e
000002c0: a18c 19bf 8231 3cbe da7f 65bd 38f4 a53c
000002d0: e3b1 68be 4845 083f b433 04bf 34f4 a53e
000002e0: 1fef 37bf 7d88 bbbd 062f acbe cfee b0be
000002f0: 8b80 ae3e d342 ee3e 82ef c03e ceb1 4bbe
00000300: fb5d cf3e 7129 8f3f 643e 593e 45c0 06bf
00000310: 6664 183f 6af2 9c3d 17ff a5bd c10c 663e
00000320: b312 d4be fb58 f5be 7c86 8ebe d82e 99be
00000330: 5160 e03e b0e0 4f3f ccb0 e43d cc33 1abe
00000340: 8915 7ebe 2a08 d43e c4d8 953e 63c8 51bd
00000350: c877 563f 9058 863e a07e b33f b583 123f
00000360: 8602 ce3e 8e0f e2be 6917 d13d 3b86 ea3d
00000370: 5376 063f 55d7 573f caf3 d2be 6d87 e2be
00000380: 6668 383e bfab 293e f70a c2be d329 74bd
00000390: 233a 80be 23bd 25bf c2b2 913e 7d3e 8cbe
000003a0: 0437 263f e1f3 b43e d7f5 b2be 0fea 2a3d
000003b0: 1cf5 4ebd 77d6 25be 7e46 06bf bd40 fb3e
000003c0: fd4a 9abd eef7 4a3e 8e63 93be 72f5 94bd
000003d0: bb09 433e 0740 8a3e 51c3 2d3c a75e 363e
000003e0: 0be5 40bf e7b0 91be e40a 19be 20ab 1dbf
000003f0: 0193 6dbc 9faf bc3d 32d3 8b3e 0e4a 2abf
0.5200678 0.17048728 0.42462355 -0.13693945 0.052493863 0.17258245 -0.012956513 0.10979627
-0.09346129 -0.2146956 -0.11125494 -0.26507226 0.7178098 0.15898222 0.31587562 -0.111675665
-0.32735434 0.70493716 0.072331496 -0.106306024 -0.06692414 0.21970765 0.18881136 0.28942952
0.20699945 -0.30423194 0.21910407 0.014607493 0.38078016 0.40309685 -0.439321 0.012558729
-0.051156268 0.32772505 -0.41092306 0.11732435 -0.4523714 -0.60174394 0.4261096 0.0631935
-0.21811634 0.05569468 -0.5342398 0.16760884 -0.05604372 0.020849781 -0.23115395 0.21519494
0.08719082 0.117299385 -0.21653454 -0.3425995 0.5701716 0.16077442 0.36572224 0.06989705
-0.19642729 -0.17445102 0.11129425 0.19471845 -0.007516039 -0.070922926 0.048851166 -0.045550577
-0.3043814 -0.06876664 -0.41840988 -0.123551846 -0.09160575 0.09411746 -0.37503377 -0.19545563
0.123670526 -0.09501377 -0.089382805 0.10433067 -0.7320217 -0.43481338 -0.60097384 0.042664777
0.07699517 -0.57154226 0.13814247 0.024268808 0.08548844 -0.45376903 -0.1921594 -0.14607976
-0.24609417 0.36919326 -0.44209555 -0.14292678 -0.098821685 -0.22909006 0.27523625 0.18595427
0.26547748 -0.017885128 0.3582863 0.037365668 0.7161924 0.29028773 -0.30195907 -0.10649115
0.28985238 -0.20993319 0.3191907 -0.29072386 0.02241117 -0.021497276 0.31009245 -0.14459407
-0.25895545 -0.03995393 0.1878216 0.08896415 -0.6385088 -0.11885833 -0.30846372 -0.17977412
0.3811755 0.17444788 -0.10077113 -0.15181963 0.055042714 -0.08219735 0.12177343 0.26398602
-0.0533645 0.6364393 0.08183408 -0.26783508 0.31192723 -0.11523339 0.14509141 0.1354583
0.17135629 -0.17281438 0.30792058 -0.117769115 0.11532296 0.54680765 0.11585059 0.34406394
-0.066056274 -0.007905488 -0.06747086 0.12024186 -0.042038877 0.19419946 1.0225784 0.19170523
0.36492327 -0.3634505 0.21115002 0.21096925 -0.11189129 0.25926262 -0.011598008 -0.042256836
0.19197768 -0.42317358 -0.18783942 0.003753702 -0.24364346 0.062133063 0.22392257 -0.42185777
0.19281946 -0.25631613 -0.23966268 0.596457 0.2264648 0.054987777 -0.18903111 0.14687791
-0.5998021 -0.1837826 -0.056030132 0.020258054 -0.22724108 0.53230715 -0.5164139 0.32412875
-0.71849245 -0.091568924 -0.33629626 -0.34557196 0.34082446 0.46535358 0.3768273 -0.19892046
0.4050139 1.1184522 0.21215206 -0.5263713 0.59528196 0.07663424 -0.08105295 0.22465803
-0.41420516 -0.4791945 -0.27836978 -0.2991855 0.43823484 0.8120222 0.11166534 -0.15058821
-0.24812903 0.4141248 0.29266942 -0.051216494 0.8377652 0.26239443 1.4023018 0.5723222
0.402363 -0.44152492 0.10209543 0.11451384 0.525243 0.84312946 -0.4120162 -0.44243947
0.18008575 0.16569422 -0.3789899 -0.0596102 -0.25044355 -0.64741725 0.28456694 -0.27391425
0.649277 0.35342315 -0.34953186 0.041727122 -0.050526723 -0.16195093 -0.5245131 0.4907283
-0.07533834 0.1982114 -0.28786892 -0.072733775 0.1904668 0.27001974 0.010605649 0.17809545
-0.7534949 -0.28455278 -0.1494556 -0.6158924 -0.0145003805 0.092131846 0.27309567 -0.6651925

bias f4 [64]
00000000: 1fd1 7fbe d87a b03d bf32 bcbe ca39 72be
00000010: b214 2f3e f987 0ebd 46a7 42be a5a4 8fbd
00000020: ab7e 2abd 3ad2 64be 142d c5bd db43 a3bd
00000030: 89fd d6bc 24aa c73b a5ee b3be 32ba adbc
00000040: ff96 53be a324 f63d d401 ec3d b0b2 803d
00000050: 41ba 6ebe 41ba 16bd 77af 14be 0689 e5bc
00000060: 8796 71bd 489f 9e3c 899b 913d 43da 29be
00000070: 7cd4 943d 3a57 3b3e 1e64 2a3e 38e2 87bd
00000080: 81f6 1d3e 32be 993e 6171 0f3e b0a7 98be
00000090: 559b b9be 92c3 5cbc a6bc 89be c085 42be
000000a0: 91d8 573e e0fc 29bd d853 913c cec2 643e
000000b0: d2a5 603e 4c0d 733e 45da 6f3e 7a78 e3bd
000000c0: c6a8 563e 4ec6 1fbe a95e df3c 9fb0 85bd
000000d0: 5114 62be 0d92 f7bd 9453 02be c08e 053e
000000e0: 4b3b 8d3d fe83 e33d e054 673d 967d a83a
000000f0: a4f8 93bd b0bf 683e 6ea7 913e d446 243e
-0.24982117 0.086171806 -0.36757466 -0.23654857 0.17097738 -0.034797642 -0.19009122 -0.07013825
-0.041624706 -0.2234582 -0.096277386 -0.07971927 -0.026243942 0.0060932804 -0.3514301 -0.021206949
-0.20663069 0.12018707 0.11523786 0.06284082 -0.23313238 -0.03679872 -0.1452006 -0.02801944
-0.058981445 0.01936306 0.07109744 -0.16587166 0.07267091 0.18294993 0.16639754 -0.06634945
0.15426065 0.3002792 0.14008094 -0.29815435 -0.3625132 -0.013474362 -0.2690174 -0.18996334
0.21078707 -0.041500926 0.017740175 0.22339937 0.21938255 0.23735541 0.23423107 -0.111069635
0.2096282 -0.15602991 0.027266817 -0.065278284 -0.22078063 -0.12088404 -0.12727195 0.13042736
0.06896075 0.1110916 0.056477427 0.001285481 -0.07225159 0.22729373 0.2844805 0.16042644

weight f4 [1, 64]
00000000: 4a3d 16bf 2967 1c3f d132 f4be 6500 28bf
00000010: e702 1dbf 963f 4bbf 6f63 20bf c51e 21bf
00000020: 2646 ccbe 0279 dabe 2f8a 0c3f 89ed c3be
00000030: 7f39 3c3f ddf2 ddbe 34c7 f7be af41 d1be
00000040: d0fc 35bf dcab b93e d61b eebe b517 de3e
00000050: ea6d d9be 537f dfbe 659c 37bf cc67 36bf
00000060: 6d6b 11bf ed74 303f 2ee8 083f 2b48 4abf
00000070: 13f0 1c3f e2cd c63e dee2 d73e 392d e13e
00000080: fba3 553f 91e2 c33e 1528 253f 67d2 dcbe
00000090: 4357 85be 71d1 04bf c878 14bf 4e5c c4be
000000a0: ba01 cb3e 02d3 1abf 451b 033f 28ca 9b3e
000000b0: 2c3f e83e 1938 ad3e 7732 5f3f d0d9 f4be
000000c0: daa2 d03e 7628 2abf 93fe 2d3f cf8a d13e
000000d0: bff8 99be fa5c b2be b30b 30bf c71e cc3e
000000e0: 7670 db3e 3f31 283f dfd6 103f c294 ca3e
000000f0: 5110 21bf f7ef d23e b7b7 d63e b5c4 e83e
-0.5868727 0.6109491 -0.4769502 -0.656256 -0.61332554 -0.793939 -0.62651724 -0.62937576
-0.3989727 -0.42670447 0.5489835 -0.38267162 0.7352523 -0.43349352 -0.48394167 -0.40870425
-0.71088886 0.3626393 -0.46505612 0.43377462 -0.4246667 -0.43651828 -0.71723014 -0.7125213
-0.56804544 0.68928415 0.5347928 -0.7901637 0.61303824 0.3882895 0.42165273 0.43979815
0.8345334 0.38258794 0.64514285 -0.43129274 -0.26043138 -0.5188208 -0.579968 -0.38351673
0.39649755 -0.6047822 0.51213485 0.3042767 0.45360696 0.33831862 0.8718638 -0.47822428
0.40749246 -0.6646799 0.67966574 0.40926215 -0.3007259 -0.3483656 -0.6876785 0.3986723
0.42859238 0.65700144 0.5657787 0.39566618 -0.6291552 0.41198704 0.41937038 0.45462576
