2IWIL_Repo/log/Ant-v2_1111_True_mixture_0.2_4000.pt (torch_old, 178037 bytes, 7 tensors)

action_log_std f8 [1, 8]
00000000: 8356 8f0a ca72 ffbf 2772 dcc3 c454 02c0
00000010: 44c3 4463 2524 fbbf 684b 575f ce99 fdbf
00000020: 3a05 c10e 3621 fcbf 42a2 547a 1802 00c0
00000030: 4011 8758 b890 fdbf 93cc b2fd 5673 fdbf
-1.9655247128006585 -2.291390924611068 -1.6963247182540764 -1.850050327707061 -1.7581081940009669 -2.0010232503011887 -1.8478320558652541 -1.840659132966526

affine1.weight f8 [100, 111]
00000000: 4725 dd2b 293a a33f 8ea1 b18d c316 bb3f
00000010: e015 9d1a cf1a a33f 40a3 d84a 01b7 8e3f
00000020: 4867 f60f b08c 913f 63bf c206 6732 a33f
00000030: 2eb5 72bc 98d0 bc3f 4869 3904 3703 bcbf
00000040: 03f9 d927 e0bb a93f c3cf b7d3 bbd5 9b3f
00000050: 1f7c 09b7 37ef 8fbf 8565 0832 24c7 b93f
00000060: 1f40 182f 6b97 9dbf f4de 2aa5 2771 bf3f
00000070: b77d 8be6 d45d b03f 92c3 6cf0 3697 a23f
00000080: 9543 2443 d141 bd3f 147d 92d3 5f6b c1bf
00000090: 7a2c a4ac 687f c23f 430c 56f8 e79b 8fbf
000000a0: 6013 c622 ee5d b73f 1a52 f558 61a3 bcbf
000000b0: f2f1 c6fe d648 d4bf 4bc2 3bbd 78a8 b0bf
000000c0: 6874 8607 4953 d0bf e7fa 5875 522d 963f
000000d0: 80d7 3579 0094 b53f 87a3 e316 acae b43f
000000e0: 3018 336c 4ba4 843f 2726 ff94 2e49 a7bf
000000f0: 1bca 1900 968c b23f 52fb c231 3336 af3f
00000100: 0077 c38e 7f3a 3dbf 2a3c a457 f8d9 b2bf
00000110: 47b7 e623 5abb b3bf dad0 8bee 5307 a4bf
00000120: ca9b 9131 17ea af3f d880 74bc a20f 96bf
00000130: bece 3543 0b62 a7bf 2b2e 1ad4 8626 aabf
00000140: 24e7 402e 1652 b4bf a0fb ae5a 534d 75bf
00000150: e747 0df6 7f28 b83f 3a46 c49d 53ee b5bf
00000160: 31f8 b7c3 4db7 b6bf ad67 76d8 fb2b b73f
00000170: a048 0f99 7f81 683f fa0d de09 2528 a5bf
00000180: 1643 0f24 9164 a33f 6f13 8369 834e a1bf
00000190: 5a7d c8d7 2db4 a73f 641c 4e62 1991 98bf
000001a0: c013 aa55 3cb1 83bf 907b b4f4 ea2c 74bf
000001b0: 4983 90f5 7fe7 abbf 358f b9eb 5a3d b23f
000001c0: 3ea1 6668 695d ab3f 4f29 6492 e812 a7bf
000001d0: 9201 4f5b f15d a83f 60b5 a040 2054 8fbf
000001e0: 3c68 81a7 179c 923f ced7 f78b fedd a33f
000001f0: 4d79 b6ab 5027 a4bf 80ea 7a9a ac63 68bf
00000200: d658 6d7e 1967 b7bf c2d8 a12f 935d ac3f
00000210: 097f ed35 7132 a7bf 81cb 8290 f7e5 b43f
00000220: 7638 64d2 57f6 af3f b2e6 ce27 c5e0 a83f
00000230: b713 bd72 aa70 adbf 41e9 ef02 4ffd b03f
00000240: 3810 7769 23aa 853f e05e 9988 0edc 8c3f
00000250: 4de8 a4d3 10dc a8bf 9ea3 a8c3 c073 a33f
00000260: 2497 26b5 cb10 b6bf 4996 c7b1 2100 b83f
00000270: 54f2 e41c 0789 b2bf 5c49 0a98 b75c 963f
00000280: bb7b bce8 663b b53f 98ec 2426 0107 87bf
00000290: a68f 9b92 0cac a43f 83ba ea0c b30a b73f
000002a0: 00fc 588e 3e43 133f f02f 79fb c6aa 90bf
000002b0: 5c9a ffef 9814 9d3f c0a8 1c88 8ade b1bf
000002c0: 3c3f a1f3 54e9 973f be2b 960f 588d a73f
000002d0: e564 ffbf 6aaf b43f 2a40 ae16 c304 a33f
000002e0: 7c79 c189 99da 90bf 7710 1b62 13f1 b33f
000002f0: 4408 f025 475a 98bf 707f cc0d f063 91bf
00000300: b0ab 5fec 5547 7bbf a8ca 6f49 f1fa 983f
00000310: dd23 0199 ec51 b13f 38bc e754 3f1b 853f
00000320: 5b04 78cd a1a5 b2bf 4721 778e 26df b33f
00000330: 40b1 c5b1 c2c0 813f db1b 0b6e 1000 b03f
00000340: ca66 9e92 1693 aa3f 844f ef59 229f 943f
00000350: 24e5 2250 5973 953f 52dd 1c2b 6300 a43f
00000360: 0c85 e539 7059 96bf 3bfd 58cf 71d4 b33f
00000370: 817e 7959 f392 a9bf e90d e0ad fd9e 95bf
00000380: f47f 5157 4344 c0bf 1a6a 0910 bbf0 b9bf
00000390: 2140 46f6 466f b23f 12a8 a482 4194 a8bf
000003a0: 76b5 2e5a 3725 bb3f 420d 36bf 9c8a aabf
000003b0: 6629 0576 3597 86bf 68d6 3a6b a643 633f
000003c0: b5e3 7009 f738 a63f f2c5 036b 2ab1 a43f
000003d0: 7b3f c3fe 5573 87bf 8307 bf21 7884 b13f
000003e0: 4351 3aef 80cd b0bf f254 db7f e886 83bf
000003f0: 02d5 52c7 4206 973f fc5b 7708 9697 a5bf
00000400: eb86 eb0e a429 b4bf 3abe cd3e 8983 afbf
00000410: d7eb 9ef1 2fa3 913f 25fc 1486 5ba0 9f3f
00000420: 7c44 0da0 cede 5d3f 14a8 d659 6d8b a3bf
00000430: 21a3 bcca 9729 bfbf 76cd 4381 ef0d acbf
00000440: 26bc 7c27 1e36 cc3f 90ff 4933 7a70 c43f
00000450: a5c6 844a e99f b03f 67c0 6b23 834a b23f
00000460: 8de5 5b73 69de b63f bba0 21dc 14ff a5bf
00000470: 95f8 91ae e969 b13f 9385 0292 d20d a9bf
00000480: edc5 f369 f301 a9bf f0f1 df82 4e8c 963f
00000490: 800b 3c96 02c2 43bf dca7 e152 d295 96bf
000004a0: 7851 d56a fce7 82bf b073 8bb3 5524 79bf
000004b0: 240d c0b8 d03a 91bf 30b9 0a99 f9f6 85bf
000004c0: 6f01 a539 9710 b73f e79a 200f 4ede b1bf
000004d0: 23be 4a2d ef94 b73f 10db 216f 1328 973f
000004e0: cb0a 6ea4 5b64 b73f 3d97 0d0d f6b9 b1bf
000004f0: 3c7e c69f 5f28 96bf 0e03 0485 f90f a03f
00000500: 48fa d460 9ff5 853f f4df c2f6 757b 9a3f
00000510: d590 785d b83a a5bf 90ef f6bb 98e7 9a3f
00000520: bbbc 43fe d3f8 b73f b045 4b71 225b 793f
00000530: 4a95 6632 803e b2bf 41f6 1a18 f392 a3bf
00000540: 7b0a ffbd dba7 adbf 9e37 f826 00e7 a03f
00000550: 6878 7d61 f9df 983f f71b 6931 8337 b4bf
00000560: 3d66 2ce4 1590 b2bf 18c3 718e 6aec a3bf
00000570: 32db d65c 0990 b1bf 99dd 266c 006e b2bf
00000580: 403f c805 5a19 5e3f bc9b f56f 9412 983f
00000590: 516e e657 e615 b6bf 788c c6d6 7670 893f
000005a0: 550e c2e9 ee71 b13f 8c71 b3d5 9387 933f
000005b0: 884c 1651 cad3 86bf 9e70 d4d5 52ae b4bf
000005c0: 019f da2c 0166 b4bf a25e b219 0f4e ac3f
000005d0: 60ae 8c1c bf2a 803f a41a 762a 78aa 9e3f
000005e0: 43c0 e691 9178 a3bf d886 ed99 6f2c 933f
000005f0: 2fae 25a1 b994 b53f c4e4 6f4b 68dd adbf
00000600: d0be ccc6 ca90 893f 05c6 0a37 92ec a5bf
00000610: 293c efd5 5016 afbf 5de4 eecb f1b8 b6bf
00000620: 09ba d197 2c26 a2bf f934 2896 9ddd a8bf
00000630: 6b54 0e46 a106 b6bf 78b7 f055 e66d 863f
00000640: 8da7 abf2 e938 abbf e04a 7418 4710 863f
00000650: 00e0 5aa6 69c0 19bf e19d 009e ffce b4bf
00000660: c6b6 ec31 8fcf b6bf e5c1 4818 cfc1 b0bf
00000670: 8333 f063 84bf b23f bc98 5075 b5d9 943f
00000680: b4ae 4938 c27c 9b3f 8497 b5b0 9930 99bf
00000690: c0c5 1426 644e 683f f94f 0094 7f68 b5bf
000006a0: b80a 04b3 76b5 b6bf c3c1 1c3d 0671 b63f
000006b0: 007c 7cd8 3817 363f b25e a2a3 05ee a3bf
000006c0: 507e 174f 8b80 b2bf 03ed d2e0 649f a1bf
000006d0: 1e42 09bc 7212 ae3f 88da c9e5 b66d 9bbf
000006e0: 40b3 c725 d203 553f f1ac a48d e64c b13f
000006f0: 23c4 5438 d2ea c3bf 6607 4c28 32b0 9fbf
00000700: 304e 677f 2ddb aa3f c8e6 4bdc 912a aebf
00000710: 0e0a 4f91 8107 b6bf 2dad 6367 a65d c1bf
00000720: 596d 62e0 6796 a7bf e8d1 55e2 e599 b2bf
00000730: a688 efa3 66c0 b7bf edc5 39b1 dbf4 953f
00000740: ebe3 086f 9083 a9bf 10ec 0b7b 1285 b2bf
00000750: 2cae 71c5 517c 963f e0e1 2aed 7193 bfbf
00000760: b094 5bee 037b a5bf 5043 df0f 0a17 bebf
00000770: 828d e189 e442 b1bf 90be d4a6 abbb a83f
00000780: a0f3 d912 857f b2bf 63c4 e2bf bc38 a0bf
00000790: 0254 0092 a38d 923f a3a0 e088 9292 c4bf
000007a0: 4fc3 e5ac 29b9 b03f b5a6 126e 663c 7fbf
000007b0: 3176 c643 0dbd bd3f 13dd 1878 dbb7 b93f
000007c0: dcfd a16f 1db9 b9bf 9a27 5931 41f1 b3bf
000007d0: 2f28 b420 04ae b13f 10e8 a9ef 0952 973f
000007e0: 6ddb ab45 ae64 b2bf 7e69 c70f 0289 b6bf
000007f0: 4613 f584 b2fb a93f 32d6 acdd 4d23 a03f
0.037553106884454616 0.10581609925578148 0.03731391143677931 0.014997491928697593 0.017138243650698187 0.03749391515282132 0.11255793190749294 -0.10942405560618795
0.050261502136878654 0.02718251685833174 -0.015592990182254294 0.10069490643981822 -0.0288979289526311 0.12282035620125581 0.06393175724541932 0.03630992588876504
0.11428554429245559 -0.13608930426287513 0.14451321058035999 -0.015434086099736294 0.09127701138465971 -0.11186798497994524 -0.31694579010561974 -0.06507067317921515
-0.25508332953342583 0.021657265102699077 0.08428957900272671 0.08079028662508679 0.010078992118348479 -0.04548020905310706 0.0724576711889217 0.06096038801614746
-0.000445991651543895 -0.07363845958410367 -0.07707751633162473 -0.0391184071249044 0.06233284454429329 -0.021544020416627813 -0.045669891313904185 -0.05107518519534112
-0.0793775427745485 -0.005200696566077051 0.09436797864080369 -0.08566782571531287 -0.08873449352538 0.09051488909463386 0.002991437162998059 -0.04132190461589498
0.03787663998776318 -0.033802134160885504 0.04629653224059878 -0.023991009354656603 -0.00961539398600475 -0.004925649448778283 -0.05450057861913266 0.07124870543480884
0.05344705008912108 -0.045066135282541546 0.0475917266808238 -0.015297176334650942 0.018173570250248114 0.0388030572757284 -0.03936245056250929 -0.002977215877618733
-0.09141692482566852 0.05540142017791673 -0.04530671866700515 0.08163401868914201 0.06242632334952784 0.04858986006679568 -0.057500196939634866 0.06636518308360896
0.010578419357337152 0.014091599982904268 -0.04855396827265732 0.03799250019466814 -0.08619378254533366 0.09375200834582488 -0.07240337806155966 0.021838062910839326
0.0829376524165885 -0.011243828751153637 0.04037513055462165 0.0900070101294919 7.348126708793534e-05 -0.016276463602750313 0.02839888539156231 -0.06980195830388691
0.023351027841555835 0.046000244047796 0.08080165088121623 0.0371457066713677 -0.016458891900009473 0.07789727349433116 -0.02378188294461149 -0.016982794611180407
-0.006659827840830454 0.024394769770831687 0.06765631423435488 0.010305876520730547 -0.07283984438255812 0.07762375810773846 0.008668442773988816 0.06250097929579061
0.05190344371585594 0.02013829873960972 0.020947833553440223 0.03906545544890129 -0.02182555535671775 0.07746039688298804 -0.0499492689821155 -0.02111431478262019
-0.1270832229956792 -0.1013295091774257 0.07201045525130258 -0.048006102750449156 0.10603662444801451 -0.05183877786751136 -0.011030595459165137 0.0023515940063941095
0.04340335836645385 0.04041416698772683 -0.011450454556694236 0.06842757057077446 -0.06563573685190698 -0.00953466072261697 0.022484820762390896 -0.04217213490817781
-0.07876038898714526 -0.061550415913071935 0.017224072573053775 0.030885152872766625 0.0018231408905260696 -0.03817311975156215 -0.12172840785627816 -0.05479381993236647
0.2204015438851183 0.15968253616665296 0.06494005269339682 0.07144946684616259 0.08933123651867998 -0.04296174227857948 0.06802235137908703 -0.04893358261439142
-0.048843008693335445 0.022019602525675752 -0.0006029617911454815 -0.022055898960765194 -0.009231540689747617 -0.006138167162785743 -0.016825925136811595 -0.010724973662345677
0.09009690434777949 -0.06979835385628129 0.09211630683670839 0.022613814981435942 0.09137509121323288 -0.06924379175833635 -0.021638387801088607 0.031371877181305505
0.010722394125534454 0.025861590562925543 -0.04146362439158372 0.02627409598584013 0.09364056546813775 0.006190428296308267 -0.07126618605123727 -0.0382305113721313
-0.05792128271379667 0.03301239467337712 0.024291893554043403 -0.07897205311120091 -0.07251107044830803 -0.0389130877382568 -0.0686040736826328 -0.07199099197793259
0.0018370989920448305 0.02350837643953317 -0.08627166410445254 0.01242153971617753 0.0681447334955519 0.019071874540587383 -0.01114614543874938 -0.08078496666388665
-0.07968146653240284 0.05528304279976949 0.007894032534372986 0.029947164146075025 -0.0380292406656513 0.018724197168359463 0.0843006151605372 -0.05832982941496703
0.012483200256240862 -0.04282051965618553 -0.06071713077073355 -0.08875952938878258 -0.035447495968458816 -0.048565792636603385 -0.08603866539336173 0.010951804635705761
-0.05316859328543364 0.010773234781060237 -9.8234604218983e-05 -0.08128354651909532 -0.08910460442413201 -0.06545729010463892 0.07323481979274331 0.020361743245438588
0.026843104062591563 -0.024599458132250188 0.002967067339931545 -0.08362576831160586 -0.08870641584875727 0.08766211502075465 0.0003370775016139915 -0.03892533895958418
-0.07227392846061176 -0.03441920513565757 0.058734498456605375 -0.026785714888740958 0.0012826492521711003 0.06757966001594064 -0.1556036734632765 -0.0309455716224031
0.052453443338574934 -0.05891853155294552 -0.08605203435494266 -0.13567047165211346 -0.046069379940685 -0.07266079688799432 -0.09277955534301671 0.021441872303006027
-0.04983188014416114 -0.07234302047793073 0.021958615947751323 -0.12334358253691091 -0.04195415768280364 -0.11753905189040137 -0.06742695204007101 0.048306812396160415
-0.07225829801787009 -0.03168287126880711 0.01811843470212083 -0.1607230347010545 0.06532536002283716 -0.007625961415365691 0.11616595177334756 0.10046168977793384
-0.10048088050279297 -0.07790000395576016 0.0690615253298865 0.022773890736495217 -0.07184876633605848 -0.08802807698467593 0.05074842331899858 0.03151934939380076

affine1.bias f8 [100]
00000000: f6a3 7768 1fe9 a43f 2613 4191 e4b5 92bf
00000010: 4096 d0bf f55a bd3f 7166 ea4b 31e8 a53f
00000020: fd05 70d3 3b99 8ebf 4acb 4420 95f7 b5bf
00000030: fed3 c076 47d0 a3bf 8498 39ab 4771 a13f
00000040: 1085 c5e7 6060 c8bf bd81 7e02 3716 ad3f
00000050: 469e 15ce 9758 bf3f 965a 9988 f02d 62bf
00000060: 1ef4 da74 56ac a53f 8fe9 ed21 9f43 42bf
00000070: b6c6 d0e0 901b aa3f 326c 09d7 30bc c2bf
00000080: 249c 1746 efd6 c03f 2d46 66ed a7c7 b53f
00000090: b1f4 6d7a 43a5 bebf fc51 4ffd 3f5c 8dbf
000000a0: 4141 3032 610f b7bf d2bf 9f78 af7d ba3f
000000b0: 26b3 cba2 74bb b5bf 8a16 9963 4198 a93f
000000c0: dc64 fe00 91cb b53f db5e c118 4f42 b7bf
000000d0: e2a7 68bc 199b a5bf d14a 44bc befb b8bf
000000e0: 08b9 4fc6 294a a1bf bbdd 7679 7f71 9b3f
000000f0: ba2a 4349 3195 b8bf 760a 30d5 c322 963f
00000100: c3fd 6eaa f203 a5bf 5dd4 11a1 d5cc 923f
00000110: 50e1 e1dc b6ae 93bf 4b51 9575 5ce4 a4bf
00000120: 5ee3 fe56 a3fe a63f 67a5 7fe2 cb47 953f
00000130: 33ce 0837 b30e a6bf 6636 ffd9 5b63 993f
00000140: 8db0 3757 4a36 a63f b45c 9ef6 53da aabf
00000150: 8407 9f7b 8b8e aa3f 9312 2092 2d56 b73f
00000160: e6b3 7a6b 554d c1bf ceb0 f787 59b8 aa3f
00000170: 7efb b23d b286 b1bf 3ecc 4a96 b861 b1bf
00000180: a005 c37c be7e 853f aa8b 6245 c6cb 933f
00000190: d6f4 b73b cc23 b0bf f6b1 9eea f273 c0bf
000001a0: 3b28 507f 6feb ba3f a340 7366 e2cb 8c3f
000001b0: 0f21 bb71 fbfe 90bf 3aaa 73ee 1710 aabf
000001c0: bd50 b764 c17c b0bf 37b0 40d1 4e60 b8bf
000001d0: 4ac7 fe9f dfb9 803f fc88 ef97 f515 8abf
000001e0: d811 94a0 fec7 b2bf c8e1 69b8 ca18 97bf
000001f0: 32ca 34cb ea55 bdbf 3386 0bc5 772e a8bf
00000200: 3a3e 7db8 cf1f adbf 8f8b 5038 f19d b23f
00000210: 4b50 9faa d39d 8f3f d276 b095 59f9 b0bf
00000220: 75b8 5392 3a4e 993f 8918 9cee 81ef 89bf
00000230: 05cd ba9e 7a42 8cbf c1ad 87a2 ecef c23f
00000240: 5282 86a3 8618 873f 556d b603 60f2 a2bf
00000250: 61c7 c78a 61af ba3f c2e1 01c0 38c3 b4bf
00000260: 655a c974 d27c b03f e731 9e05 35bf a4bf
00000270: f499 c546 9d1c a2bf caad 0ec3 b26b b8bf
00000280: c08f 2b6f 33c9 94bf fe5a e9d6 f624 b0bf
00000290: c55c 3b98 d37d bcbf ea8c e782 7232 bfbf
000002a0: f3dd ec72 93da 94bf 6437 7c9d 3047 b43f
000002b0: 4118 b96d 5a8e bbbf 6821 ee89 8127 c2bf
000002c0: 6ac9 ac25 cc17 9ebf 346f daec 4732 bfbf
000002d0: 8a81 fbcb a64d b1bf a6f3 5181 04f0 cbbf
000002e0: 8556 1b20 569f bb3f b9b9 8a07 d402 d03f
000002f0: d917 84d0 996f c63f 84be dcb7 864d 6c3f
00000300: cc8a 9611 079a b03f 7349 511a fc47 a4bf
00000310: 55b5 ec4f ef64 8a3f 02a9 03c1 c5f4 a4bf
0.040841084959374926 -0.01827199112473745 0.1146691888139566 0.04278711368278899 -0.014940707578719343 -0.0858090595036575 -0.03869841885208557 0.03406738248013233
-0.19044123951884062 0.056810111097778095 0.12244557172163537 -0.00221917132584377 0.042330457462846235 -0.0005573775305117034 0.0509915613587401 -0.1463681268677149
0.13155928537818895 0.08507775827299531 -0.11970922221185522 -0.01433610908308313 -0.09007842517190047 0.10348030753061657 -0.0848915955973096 0.04998974171443844
0.08513742708454991 -0.09085554460886718 -0.04219894814407589 -0.09759132477146727 -0.03376894517701784 0.026800147808641244 -0.09602649725563142 0.021616992842619052
-0.04104574518668926 0.018359506565009166 -0.019221169692600626 -0.04080475745527908 0.044911484117114084 0.020781694125536456 -0.04308090254599186 0.024793086224056536
0.04338295283000191 -0.0524469603107546 0.051868780937652154 0.09115872209083369 -0.13517253635418952 0.052187726829147615 -0.06846155172659782 -0.06789735478632594
0.010495651419094199 0.019332025513573527 -0.06304623086903702 -0.12853847938585233 0.10515496118765182 0.01406075358536924 -0.016597679916942328 -0.05090403352535984
-0.06440361698998039 -0.0952195416327307 0.008167025633017428 -0.012737196635445695 -0.07336417599078204 -0.022555511003220535 -0.11459224186982267 -0.04722952156386064
-0.056883326788576175 0.0727225077139748 0.015437749523620556 -0.06630477814220662 0.024712481671422332 -0.012663855642596882 -0.01379867360024046 0.1479469102481357
0.011277248254203762 -0.037005424931715915 0.10423860204880732 -0.08110384643249005 0.06440463401063708 -0.04052129453257063 -0.0353745602504211 -0.09539334547178338
-0.020298770580566616 -0.06306402918685802 -0.11129496065710771 -0.12186351486120697 -0.020365051164132408 0.0792112717137719 -0.10764088801178763 -0.14183062777398026
-0.029387655066963538 -0.12186097652960087 -0.06759111862220926 -0.21826225580653363 0.10790003093583252 0.2501726220752079 0.17528078729100008 0.0034549361434058085
0.06485027484317668 -0.039611700260723824 0.012887830378157142 -0.04092996579295695

affine2.weight f8 [100, 100]
00000000: faf8 3441 b673 79bf e7ce 00fd 2ea5 babf
00000010: e214 7adb b548 ac3f e359 a091 7db9 a4bf
00000020: 1d07 c849 f405 9ebf dbfd ca33 3ac7 a3bf
00000030: d945 236d 68a3 b2bf 040f c6a5 d5ce 81bf
00000040: 3549 b298 0eba afbf 4ede 5972 6d45 ab3f
00000050: 394d b0d3 70bd a1bf 623a a177 ccec a33f
00000060: 1167 a567 ab5c adbf 6e75 b4fa db82 933f
00000070: 4659 d02d ea57 97bf c3a1 0775 d080 a83f
00000080: ea67 9f58 d861 ac3f 9bd3 0603 251b b0bf
00000090: bf50 8442 5cdd b5bf fe80 e985 97d6 b23f
000000a0: 0998 3278 749b 81bf 211d 7876 850e 9c3f
000000b0: e7ce 2ca0 f346 afbf 151c c420 21ff 933f
000000c0: ef53 791d 14bd 60bf 9607 7a72 db87 bdbf
000000d0: 94d2 eaf7 7e6d bdbf 051d b989 c156 bfbf
000000e0: 4919 0655 dcd0 b53f 3bfd c93b 0588 683f
000000f0: 9292 56fe 73c9 89bf 09c4 d6cf a7d9 a8bf
00000100: 3732 329c e7b9 b4bf fac8 f0a8 1fb5 a9bf
00000110: c39c 2796 1bd6 b2bf c72c 32bd cced b1bf
00000120: f211 65a5 bb5c abbf 3549 8bc6 cc1b 553f
00000130: d3b3 0dd8 67b0 a23f 2ca2 48e9 e5cd b23f
00000140: e5df ce2b 0de4 b5bf afd3 be0e c58b a3bf
00000150: c545 f578 ce29 7bbf 4cfb 8a7e 32b8 aabf
00000160: b96c 5a07 f603 9bbf 00bb b9a7 33aa b5bf
00000170: 4ae2 93af 3f74 bebf 0e94 7a0a 2686 8bbf
00000180: 370c a2bd 5249 acbf 39aa f86c 5721 b53f
00000190: 1285 064a c867 7c3f 556d 45e5 b191 743f
000001a0: 7450 1bde 8dd9 bc3f e813 ceb3 abb7 c0bf
000001b0: 2f1f f3a4 0ba6 abbf fa9f a3e4 5158 a93f
000001c0: 185d 17c5 07d6 b7bf be43 6790 3913 b53f
000001d0: d1d7 42d0 e340 bb3f 79ca f46b a171 b23f
000001e0: 8b4b e944 9857 a8bf 661f 218d 0d7a b93f
000001f0: 8434 03bb 8ba1 a7bf a763 f506 90dc a13f
00000200: b6fc f15f 6acb b03f dab1 b866 e0e9 7fbf
00000210: 9a7e 89d6 be74 af3f 31af 8c51 1808 a43f
00000220: e1df 3045 9bfe a8bf 1775 fd94 d139 b1bf
00000230: 1aa6 5cff b3bf 95bf 3766 658f 60d5 c03f
00000240: db2d 64e5 3c3a ad3f 9418 b461 0bde b83f
00000250: 8bc4 04ca 52b8 80bf 0901 9f86 c6c7 a13f
00000260: e524 d974 4d31 b13f 71e6 8387 543d a63f
00000270: 74ce 5815 080d b13f 7b91 64f7 d9ba 74bf
00000280: 5df1 1c85 63e3 b23f 6e65 beb7 880e b73f
00000290: 5a7b b954 c448 a7bf 51b4 2252 9d2b a33f
000002a0: a2e7 c1b5 67e3 96bf e59a f790 12f0 b1bf
000002b0: 047f 6338 44fa b9bf 8918 9a80 b58d a3bf
000002c0: e8ec 0181 7933 a8bf 2dd8 f945 cdfc b9bf
000002d0: 50b2 e7f3 b8d6 afbf 33b0 542d 319e c0bf
000002e0: 436f 3904 18ba a13f 8357 67db 83e1 9dbf
000002f0: 1dd3 8710 7c6c b0bf 4cdc fce7 634d 7cbf
00000300: 48f9 fb1f 124d a5bf 5f13 5b65 5c71 acbf
00000310: dc91 bd38 e9f3 4abf 4736 2190 42b9 9a3f
00000320: 9244 7205 16d9 ad3f adc5 67fc 56af 8ebf
00000330: e700 d84f 9867 b83f 67f1 720f 1d7f 8cbf
00000340: d624 33ea 569c adbf 6e2e 1ac0 d68c 74bf
00000350: ab91 e85f 6be5 88bf 705d 34cd f67b a83f
00000360: 48d5 6744 b96e 7c3f 732d 0a42 ad78 bdbf
00000370: 343f de78 87ac a2bf d1f2 d73d 1fe1 b03f
00000380: 4a09 6c9b f8bc 9b3f 201f 03aa 7f3d 1fbf
00000390: 1e93 257e b632 c23f c4cf c90a c06a b8bf
000003a0: 1586 3962 5a33 b1bf 8c6d 5c23 20cf b2bf
000003b0: e890 0792 2565 aabf d572 e42f adef b73f
000003c0: 6088 7e49 fa67 adbf ff5a c3a0 027e b63f
000003d0: afa0 b060 66e5 b03f 3784 6ba9 98b0 953f
000003e0: 0d8a 74cb 541d a33f 5937 e531 d131 b9bf
000003f0: 3cfc d768 6528 b5bf b1c8 14b6 ba08 bdbf
00000400: 93a5 bada f402 763f f033 ef02 290c a23f
00000410: 6bcc 6b3b 910f 883f a54b 61e5 6990 b0bf
00000420: 3174 619a af98 a7bf a1d5 8fc7 9d78 b53f
00000430: 6044 a9b1 661f b53f 5305 6e41 9867 b93f
00000440: 5cc8 834a cd2e b2bf 9a8b a377 0dac a93f
00000450: 7b07 00c2 4122 bebf b033 97a2 8bf3 6b3f
00000460: 78be 1cc6 ef37 b03f 424a 210b 34d2 703f
00000470: 95b0 7bbe d342 913f db10 46b3 e69c a83f
00000480: 6240 936a 16e7 9fbf faa5 a86d 099b c03f
00000490: 27f6 73ca 28bd b8bf 8706 e883 1789 a9bf
000004a0: 6a07 7dc6 3d03 b03f b76b 40ed 1398 a43f
000004b0: 6d0f 2e46 f832 803f 2cdc f2b1 c301 bb3f
000004c0: 2657 c481 e4d9 a3bf 3814 146d 68f0 9f3f
000004d0: 5fba 0eb9 66e3 b43f ad62 d392 114e b3bf
000004e0: 54a0 be50 65e3 b5bf 29fc 82ef ae30 c13f
000004f0: ead9 322d 3373 b13f 80d1 683c b267 90bf
00000500: 75cc 8ee5 cf99 6f3f 0b23 50e8 4216 adbf
00000510: 0bbd f22c 7f5e abbf 1649 8fb3 cc45 46bf
00000520: 4a65 4f29 2d75 aebf aca9 9e4c 42bc afbf
00000530: d750 393c 3568 b33f b64b 9939 8bd7 ad3f
00000540: a25e 91b0 a6da b3bf 1ee0 2376 6224 c0bf
00000550: da19 09a2 6a21 83bf f732 9e22 4d3f 963f
00000560: fffe 540f 67f1 b83f 2b94 93e5 b260 86bf
00000570: 8705 606a 919b 9ebf 370a 00a8 0ce5 a2bf
00000580: 25ce 68d9 4e63 b3bf 8c37 c50f bdb8 a63f
00000590: 982c 9447 86f8 a6bf 9a40 f62c b805 a43f
000005a0: 7cf8 081b 4e1c b7bf 9dcf 6609 d0f7 73bf
000005b0: 133a d0a7 10ae b13f ebb9 5954 43cb aebf
000005c0: 2c00 bcae bf4c b8bf 370b 6fef ef59 a9bf
000005d0: d83e 8ef7 072f b33f d8d4 a309 9a44 9ebf
000005e0: d6ff 8107 5c57 babf 76f3 5d59 5f7e 913f
000005f0: 3639 d29e 8ca6 b6bf edd5 2d99 fc19 6d3f
00000600: 73e5 4d3f ce58 813f 4607 8992 bf00 85bf
00000610: 24f9 8802 6122 91bf 57b1 bcec bd6e b23f
00000620: 826a a9c4 75b1 983f e0eb 29e3 a7e3 bebf
00000630: 59aa 226f 6186 893f 2d28 6567 fb27 b33f
00000640: 4eaa 662e ec5c b53f cb50 1ec4 ff9e b0bf
00000650: fc16 0c6e f7fd 9abf 0772 ab97 1047 a03f
00000660: b344 fade 0977 b13f 0e6e 1f4f bb8f bcbf
00000670: 6793 3190 3423 ad3f 0467 4824 e8f3 b13f
00000680: c31e 3428 8563 c43f 25e7 1883 faec a7bf
00000690: 0561 0852 7338 b6bf c076 cd9a 9831 923f
000006a0: e260 c0a0 5418 b33f 2f3c ecbf b5d0 7bbf
000006b0: 36f3 9eee bd01 7a3f 580c 433a bdc8 b23f
000006c0: 72b7 9b04 cb82 bbbf 5c40 d11b 1d4b 933f
000006d0: 6116 64aa 0486 bd3f 5af2 ad04 7492 ab3f
000006e0: e79d 6d6d 264d bc3f aeab b678 1353 9d3f
000006f0: 17e3 011f 6364 b6bf c11b 724a df1f 77bf
00000700: fbd3 cdfa 1f50 b3bf d8f4 50f8 e80e 90bf
00000710: 8231 f1ae 2c99 7fbf f436 f8ff bcc7 bf3f
00000720: 2a45 6324 d35e ac3f 3b0b 4f1f 6e1f acbf
00000730: 4132 10a0 42b2 a8bf 7d4f 7b7d 54eb a1bf
00000740: 289b 2cc1 25f5 1abf 24c7 f280 d835 9bbf
00000750: d693 5505 b8f9 b5bf ddc8 9217 4cba b7bf
00000760: 6466 6112 a7bb 973f 0ce1 af87 5c2b b83f
00000770: 1c82 cac3 e897 b53f bc6a 3185 f8d7 b1bf
00000780: 2ba6 ccf9 5cdf 9bbf c7ec ccb5 4795 a6bf
00000790: 80e0 e625 59a1 8bbf 5e46 bc9c 28b0 a23f
000007a0: 7991 fe6e b33a af3f 6295 ae33 a442 c4bf
000007b0: c4a3 13b0 22a7 96bf cb79 2aa9 081d aebf
000007c0: d3d0 bd20 2b61 a8bf 8f96 783c 6096 933f
000007d0: 2f37 d7b0 1aa9 c43f 7d38 5801 e4a0 a3bf
000007e0: 6020 78a5 7bca b1bf 1ffc 4dfe 527e 863f
000007f0: 6d97 0a05 aa2d bcbf 7a3d 421f 1981 b53f
-0.00621386712310667 -0.10408300091586008 0.055242236177073925 -0.040477680231720624 -0.029319588664299723 -0.03862935907590855 -0.07280590691086476 -0.008695286866675207
-0.061966377391529916 0.053264064988010604 -0.034648443070319286 0.03891600570988342 -0.05734763755999784 0.01905387609177949 -0.02279630570054649 0.04785777500711987
0.05543399888820473 -0.06291419338124486 -0.08540894149729449 0.07358691233958223 -0.008597288053646695 0.027399144511972232 -0.06108819322835562 0.019527928948289103
-0.0020432846902544914 -0.11535426659432199 -0.11495202591579307 -0.12241754162197445 0.0852182109430021 0.002994547101763748 -0.012591272544179053 -0.048535579796755775
-0.08096168101673916 -0.050209988949420706 -0.0735795251454077 -0.07003478640597215 -0.05344187158565096 0.0012883662949901402 0.036502118228646595 0.0734542555370658
-0.0855110389665011 -0.038175733613946654 -0.006631666691946096 -0.05218656344140146 -0.026382297705464384 -0.08462832302914691 -0.11896131550373315 -0.013439461893833406
-0.055246911667403635 0.08254000101502691 0.006934912089861871 0.005021757988596794 0.1126946131947209 -0.13060518531361187 -0.054001201520405544 0.049501952323964774
-0.09310959398077434 0.082324598078471 0.10645889124393128 0.07204636464738624 -0.04754329529955389 0.09951862998525271 -0.04615437181346585 0.03488588414138088
0.06560387461103087 -0.007791401450543545 0.06143757218228281 0.039124259905604204 -0.04881749362579036 -0.06728849303677396 -0.021239101849607513 0.13151175500643017
0.05708494472682065 0.09713812957133633 -0.00816406897556223 0.034727291043511306 0.0671585474275563 0.04343666223753651 0.06660509606518322 -0.005061007910886035
0.07378217696981922 0.09006552205973659 -0.0454770425246724 0.037442127491296724 -0.022351856678575317 -0.07006946601141413 -0.101475013510477 -0.03819052882049429
-0.047267720220554754 -0.10151370008847556 -0.062185077451293425 -0.129827639707743 0.03462290813032933 -0.029180584207856974 -0.06415534404352426 -0.006909742601968704
-0.0416036285441686 -0.05555237519505484 -0.0008225334909011633 0.02609733586023413 0.05829685989841339 -0.014982871606636328 0.09533073376951827 -0.013914324792829459
-0.0578334008110432 -0.005017126911876708 -0.012156332840341863 0.04782077078760494 0.006941531848942369 -0.11512263166712504 -0.03647254324380214 0.06593508968212382
0.027088055120665623 -0.00011917201709643306 0.14217263373861838 -0.09537887824427488 -0.06718983552993792 -0.07347298491770554 -0.05155293853366222 0.09350092334029665
-0.057433911773174584 0.08786026406174229 0.06600036488146331 0.021181474056792573 0.03733315452179307 -0.09841639965199302 -0.08264764604244673 -0.11341444917050826
0.005373913252392798 0.035249024971200416 0.01174844229306001 -0.06470357751940854 -0.0460867763474443 0.08387170908084453 0.08251039349967604 0.09923698041349853
-0.07102664059837721 0.05014078221736114 -0.11771021829920685 0.0034120299576216526 0.0633535250351488 0.004106715483504221 0.016856487752122524 0.04807206095122903
-0.03115496659739881 0.12973134855683083 -0.09663634245585993 -0.04987405286011631 0.06254945846469942 0.04022276183260181 0.007909717218133239 0.10549567312669755
-0.03877176364964745 0.03119052091371463 0.08159486787801871 -0.0754099830113641 -0.0855010339861349 0.13429819769768983 0.06816406110269893 -0.01602056974134447
0.0038575230105038446 -0.05681046567776179 -0.053455328213539564 -0.0006797074812488226 -0.05948773507379686 -0.061983177044868526 0.07580883713064011 0.05828509405241482
-0.07755510149706393 -0.12611037033616496 -0.009341080732281282 0.02172585033217708 0.0974335110122375 -0.010926625853651192 -0.029890319936389822 -0.036903758533317114
-0.07573406989904947 0.044378193068595 -0.04486484168781962 0.03910613583423235 -0.09027565155062861 -0.004875004428345789 0.06906227204329012 -0.06014452366513353
-0.09492109313941971 -0.0495142917420907 0.07493638795699142 -0.029558569754006253 -0.10289550002380507 0.017083635167625975 -0.0884788406130824 0.0035524304925569268
0.008470164591687568 -0.010255333575631586 -0.016732707767226476 0.07200228719438449 0.024114456299097593 -0.12066125198354838 0.01246334190758096 0.07482882761283412
0.0834491360935001 -0.06492613351867076 -0.026359430400609604 0.0317921815055549 0.06822263425626111 -0.11156817132671668 0.05690922031570871 0.07012797246752817
0.15928711379114277 -0.046729877951703615 -0.08679886582138259 0.017767319153213945 0.0745900051555313 -0.0067908382032007405 0.006349317476573904 0.07337553665551988
-0.10746449339396039 0.018841223547781602 0.1153262058251925 0.053851724215722555 0.11055221721255003 0.02863722252156336 -0.087469286985549 -0.00564563010187319
-0.07544135926384847 -0.015681877285022988 -0.007714438003926795 0.12414151429421932 0.05541095561205574 -0.05492729313075136 -0.04823501781365681 -0.03499855071791467
-0.00010283511100493399 -0.026572592611677895 -0.08584165697318666 -0.09268642020723257 0.02317677545247533 0.09441164314910483 0.08434920101218107 -0.06970170261176184
-0.027219250437303593 -0.04410766691440809 -0.013491341084645336 0.03650023377680321 0.06099472741996954 -0.15828373454602757 -0.02212194633185384 -0.05881526055349048
-0.047616336581002415 0.019128326121196578 0.1614106524925147 -0.03833687321103783 -0.06949589528824296 0.01098313177658211 -0.11007177947121045 0.0840011311831769

affine2.bias f8 [100]
00000000: 879c bdee 62dc ba3f f153 eeb7 88ba b1bf
00000010: c7e3 dca0 c836 863f 2e8c 64ee 3893 b4bf
00000020: 9d42 ed76 91cf a13f 627b 0b38 4782 a8bf
00000030: 3227 adbc 3145 933f 8395 6110 6788 c0bf
00000040: 9faf 2b4a c625 ac3f 5343 a7fa db19 a03f
00000050: 427b fc02 399d bb3f bd37 4df3 7e39 b13f
00000060: ea23 5960 f535 ae3f 87c3 5d13 de5b 9ebf
00000070: 0f84 1a96 5616 963f 3278 4c45 a081 acbf
00000080: 6441 e3a0 6372 8dbf b1c4 a7ec dee2 853f
00000090: 1b1c 3fb1 a917 a63f 48d1 1c68 e525 713f
000000a0: 19a1 8ebc 6084 b1bf 7938 855f 0d45 b53f
000000b0: 0112 b72c c8a2 94bf ede5 4f9c 3478 a63f
000000c0: 6be3 7dc8 d5eb ac3f de92 032e 8f89 b23f
000000d0: e19d 6c0e 4744 a63f 3894 dc4e 1042 8f3f
000000e0: 93f5 a119 7ffc aebf b392 becf 6a94 913f
000000f0: c75b 747e 611b b53f 094e a1c9 a19e 70bf
00000100: 6efd a0cc 16cc 953f 257f 2020 812f b83f
00000110: 55ee c9b4 b3c9 9c3f aec4 cedd 42a7 78bf
00000120: 93a0 cb79 c8b7 b13f a842 791a d8e6 96bf
00000130: 33d5 1d22 abbd ba3f b03a b006 963b c2bf
00000140: 8bd0 9002 5a71 b23f 7e02 9f16 1798 a53f
00000150: e10c 4fe9 7c16 823f 6d25 8128 76b8 633f
00000160: 18dc 4bce d0d0 823f 7731 9a13 ec03 a6bf
00000170: d1ae cf2d 6c4b b43f b958 1bc1 ca0a a1bf
00000180: 73b6 a4f7 b2c7 bc3f aabc 7db3 c29b 9b3f
00000190: fc89 206f ec3d b03f b62f 9dc4 3833 be3f
000001a0: fe5b c73a 6163 b4bf 4eb0 ab93 7069 b2bf
000001b0: ce36 37fc 2d16 a63f 8861 592f c456 a0bf
000001c0: 46cd dd25 645e b2bf 13d5 2157 fd78 953f
000001d0: faea 9844 c4ff b53f 7909 6099 0f02 983f
000001e0: dd6d 320a 8546 b33f 2d88 bfe9 3dee a8bf
000001f0: 4ab9 1635 826d a2bf 573e b5e7 279a 9d3f
00000200: 3c35 baf0 018f 963f 7228 92c6 467f 88bf
00000210: 7b2a 9381 63c6 b7bf 53f4 4dbe 1e31 b53f
00000220: ef16 454e b19d a3bf 56fe 5d03 1423 be3f
00000230: ca6e e33e c752 94bf 0d53 128e f6a6 b9bf
00000240: 388b 78ca f42a 863f d389 27e2 c383 9c3f
00000250: 7873 851f 3f84 8ebf 662a 9a8e 2146 b3bf
00000260: 9b29 f49e 5107 b53f 6f9a 8ab3 bb81 943f
00000270: 7c89 692d fa50 ba3f 21e3 b447 170b acbf
00000280: ce3e 7e60 ba3a c13f 5373 8677 b66e a9bf
00000290: 9040 a031 0153 913f 03b5 9170 ec22 9fbf
000002a0: 1687 60c3 ddc8 b13f 6cd1 71ca 1992 b63f
000002b0: 0af8 fc15 4c83 833f dfa0 270f 5736 a13f
000002c0: e255 69bb 8d63 9fbf 851a 1c5c 03d8 ac3f
000002d0: 6c40 c64d 4cd5 aa3f d7c2 0727 a523 b53f
000002e0: d311 3ee9 8260 8c3f 888f 9efa acd1 b1bf
000002f0: 11d9 42a9 5a4a 983f 0985 ad1f 5a8b b83f
00000300: 7dbb b04f 5f1e b13f 4203 421b b994 bfbf
00000310: 3aa3 ab49 bb02 acbf e208 8b62 6e26 a6bf
0.10492533043508177 -0.0692525338220802 0.01084667912401639 -0.0803714353574356 0.03478674484961639 -0.04786894377843144 0.018818642750637334 -0.12916267680990864
0.05497569709208893 0.03144729075177701 0.10786777804285655 0.06728356780987972 0.05900542069554844 -0.02964732163622188 0.021569588576884565 -0.055676468333544796
-0.014378336284068545 0.01068662795748518 0.04314928330091324 0.004186531181222648 -0.06842617610403003 0.08308490354576915 -0.020152213792032473 0.043885845261637836
0.05648677894982409 0.07241148827922525 0.043489666472222195 0.015262725264230878 -0.060520145300851834 0.01716772931071615 0.08244904839771926 -0.0040575332478343185
0.02128635047870147 0.09447485956524966 0.02811318198153708 -0.006018887707726224 0.06921055768509836 -0.022364975562882222 0.10445661147044376 -0.14244342161733448
0.0720421081794617 0.04217598105561125 0.00883195483209537 0.0024072940614458444 0.009187346740402488 -0.04299867381368732 0.07927585714758868 -0.03328546149502771
0.11242216630918182 0.026961366849204062 0.06344487870277499 0.11796908188006125 -0.07964141545322431 -0.07192138295403191 0.043137967145964504 -0.03191197469704138
-0.07175279545281396 0.020969351237416122 0.08593393969287524 0.023445361839557564 0.07529479502630161 -0.048692641051971776 -0.03599173448616229 0.028908370511372485
0.022029905622322973 -0.011961510596183642 -0.09287092126320744 0.08278076311212716 -0.03831247406428228 0.11772275049406153 -0.019847024167446027 -0.1002039048056071
0.010824119976921773 0.027846394232151028 -0.014900677823499228 -0.0752888653898168 0.08214292650897052 0.02002614291509491 0.1027981148595582 -0.0547721171410045
0.13460473739222895 -0.04967279633567636 0.016918200162820585 -0.030406660433460974 0.06947122592876229 0.08816682045455132 0.009527773304963478 0.03361770687098597
-0.030653204501808314 0.056335549348706805 0.05240858506579191 0.08257515147102922 0.013855955832476596 -0.06960564726483487 0.023721138554457847 0.09587634347328246
0.06686969466748667 -0.12336308398699905 -0.05470834039971924 -0.043261956719577346

action_mean.weight f8 [8, 100]
00000000: 69cf f3e5 6538 c3bf f601 be40 f41a d0bf
00000010: 6e24 e49a 76de aebf 127f f3c0 47d1 ccbf
00000020: 107b ded2 1bab c03f b309 b1b7 89d5 bdbf
00000030: 8cdf 21c1 4632 a73f f8f3 dddb 257c b53f
00000040: 55a9 5e30 4fd9 c3bf 0cb0 318f 16a8 683f
00000050: 944d 4d25 3485 c13f 26ac b218 dc67 a13f
00000060: 5810 eb7b 8ac8 bfbf 384e d83f 7431 b13f
00000070: 911f 2d81 0538 bc3f ad52 49c0 93d0 8abf
00000080: add2 0439 356f a23f c63e 23f4 2840 88bf
00000090: f9e8 771b 6bb0 b0bf 0174 5f80 83bf bdbf
000000a0: 7b68 e591 6610 973f 74b8 1626 8e4c c13f
000000b0: 06d9 45ac 9779 a4bf 0406 af8e a245 89bf
000000c0: 2acc 559b 8a10 c5bf 1249 548d 4d42 b83f
000000d0: 1071 c87e 92ca b2bf a192 ac6f d9e5 aabf
000000e0: 8e04 f79a 5276 b8bf 75c5 5683 9613 a3bf
000000f0: 4bff 2961 9e9b bdbf 285e 792b 4f5c a93f
00000100: de4e 7a06 03a5 a03f b1a9 b93e 4b94 a1bf
00000110: 4716 5148 61cc a2bf c1b7 d4ec df99 a63f
00000120: d1a1 44e0 03f1 c03f 84ee b994 778e c4bf
00000130: af42 08f4 83c4 b8bf c10f aec9 08d8 b13f
00000140: 058d 3602 fdd4 c0bf 312e f6e2 5940 c13f
00000150: dd59 6594 1c32 aa3f aef0 2457 5f4c a3bf
00000160: f5bc 9ea6 e799 ba3f 465c 0454 4ef8 793f
00000170: 152a b0f0 5a5e b2bf a3af cdec 72ae c63f
00000180: abbf a8f3 85b0 7f3f c5c4 28db 5097 c9bf
00000190: 1fa5 041b 2f81 bebf e3c1 fd9e a4f7 95bf
000001a0: 8e93 bd04 ded6 a83f 93b9 5e75 01d7 98bf
000001b0: 84fc 3157 f3b7 abbf c309 0eb8 68c9 b03f
000001c0: e78e d1b2 8f48 a73f 210e eae3 b16c bbbf
000001d0: df5e 2445 fcb3 b3bf c7d4 bd4d 6cf9 c6bf
000001e0: c9af 2063 6faf bcbf 36bf 2220 caa3 b2bf
000001f0: f1c6 3ebe 289c b23f 45a1 729f 6f21 b83f
00000200: 8e66 7179 c11c 88bf 438d 9480 b4f7 a0bf
00000210: d6ba e3d2 97dd 983f 9657 1d2c 69dc 9bbf
00000220: b6ac b904 551b a1bf a9f5 0a07 4b5b a03f
00000230: d650 38ef ba8a c43f 8d41 de5b efed adbf
00000240: 075d 2e2c 0cb9 9a3f 2cc3 920b b13a babf
00000250: 8708 0abd 7aa9 a63f bb1d 0d54 fc0a c43f
00000260: e88e b420 a5b3 b53f 489c 6ba3 1d0c afbf
00000270: ba6e 7d33 bbbe 9abf 5826 64bd 7b7c 803f
00000280: a940 3402 5ac5 cd3f ded0 ae2b 81a1 a7bf
00000290: d73f 3fb6 b377 ae3f d125 9339 4ef9 b43f
000002a0: 6b46 ffe3 7ca1 b83f 9ac6 e382 990e 9cbf
000002b0: 4bd8 4072 52b8 b0bf 732c f0b9 33bd a9bf
000002c0: 2364 22f5 a986 c6bf 9260 ce90 b2bb a43f
000002d0: c5fd 52d4 cef2 64bf beb5 f891 357d 9f3f
000002e0: 7044 b66d 95de b93f 8c39 202f a0e1 923f
000002f0: 926f 9015 3fb9 bb3f b5a8 600c 9b6a a73f
00000300: 3111 2b71 9593 9ebf 27e6 50ce 3e47 b7bf
00000310: 76c1 481a 7fc8 a83f 559f de1b 7169 c1bf
00000320: 86ac 8ad7 f6a5 95bf e072 00e3 9970 9cbf
00000330: 9784 c77c 8fa6 b93f bb96 436c 8ae3 c63f
00000340: 783a dca6 9835 b73f 260e 07b6 3378 9d3f
00000350: 782b 00f1 8ac4 c23f 72c8 b8f3 5f1b b7bf
00000360: 8e44 616c f164 aa3f dc48 0114 ac4c 9a3f
00000370: c7fe 6d25 3b7a c9bf 8111 d822 be9d abbf
00000380: 7c46 7d97 27dd b63f d58a 173f 3f85 b93f
00000390: 865f f3be d061 bcbf a267 cf30 a8e9 993f
000003a0: ee08 9292 0c80 b1bf cab6 8929 3dbc acbf
000003b0: 1f89 68ea 9ad6 853f 4a9b 79e7 66e9 b53f
000003c0: 66ab 2d63 c0e1 8bbf d01f 5f11 35a9 b7bf
000003d0: 9b0f 39c9 e906 bfbf 36e7 7ba1 8fa8 b23f
000003e0: e601 df09 7796 96bf 84d4 9ff2 0703 b03f
000003f0: 5623 9963 e5dc b6bf 9b10 1fc2 9b22 b53f
00000400: eff8 c285 184b b3bf aec8 416c c567 b73f
00000410: 3a89 61a4 4bc4 b63f 0a1b 7fe6 d982 a3bf
00000420: d0c6 e53f c0d9 7b3f 824d ec71 0698 b13f
00000430: 8396 dd70 1741 853f a621 1422 3fb0 8c3f
00000440: 6672 92b0 65c4 5bbf 6c6e 6d07 bb40 c23f
00000450: 8245 e716 510a ab3f 2e15 8b2f 74b4 61bf
00000460: 16c4 32f3 1d3d bf3f 5f53 a3b3 e2d4 bdbf
00000470: 3469 8363 92ef bf3f b89d 7824 e828 bdbf
00000480: 5052 f136 c519 a93f 44e6 2b9a ec84 513f
00000490: 338e ff1b 4837 af3f 56e6 f772 9020 b33f
000004a0: fc5c fe2b 09a7 c73f 6204 c6ac 3cf1 8b3f
000004b0: 2926 80e0 6be9 b53f 2bf6 79ad a1fb a83f
000004c0: a2a2 e478 76a1 943f 1e83 0bb0 7cde 75bf
000004d0: ba6a dfa2 3824 c13f f9e7 a724 775d 943f
000004e0: bb7d 25b9 00f2 bcbf 5b40 daaf 3cd8 943f
000004f0: 2a46 d0e7 61f8 a63f a3d2 7425 b96d a33f
00000500: e001 6538 e876 a63f 4abb 3f32 96e6 b1bf
00000510: e0c6 7a37 2650 ae3f 9ca1 f7df 2028 b9bf
00000520: a085 ad15 6a17 87bf 72c9 479a b579 6b3f
00000530: fa11 a6ed bc9d 5b3f 4aec f0e6 df3f a93f
00000540: c783 bd29 90bf 923f a907 d9c1 a0cc 903f
00000550: 2c56 aae1 c494 b3bf c7aa 5e45 f3b0 b03f
00000560: 7210 11b9 0bff 9bbf 2dbd b033 3d92 b23f
00000570: cd67 38a8 d40e b0bf 685b 564d f818 c9bf
00000580: 9e78 f1ef a351 c1bf a999 8fd9 b0b1 7dbf
00000590: 8ab6 a96d d224 93bf e5ab 0976 3b41 863f
000005a0: 787e cebc 072b c3bf f4d8 ef5c 6edb ab3f
000005b0: 0959 fc61 a5ba b53f b5f0 ae92 e3af 993f
000005c0: 833e 459e d7cf 7b3f 2f7e 2d74 34db 71bf
000005d0: 6551 abcf 0484 77bf cc0d da96 b7da 56bf
000005e0: 18f8 8c18 5cd9 cf3f 94f9 d51b f2c6 313f
000005f0: 320b cea9 e7c8 a8bf be54 159b 95ee aabf
00000600: a9eb d59c 6087 cabf 7397 a275 b5fd a33f
00000610: 71fb 9ad7 9274 933f a0fa b8d3 1c7c 93bf
00000620: 3608 ec43 febd 9f3f 2761 d89f 1d48 bc3f
00000630: 83cf 706a 7980 a63f 3b2b 1096 ba61 92bf
00000640: 81b6 4893 aff5 a13f 33b1 d268 fba4 bc3f
00000650: b904 5872 b94e c0bf f28a 3e0f 3258 993f
00000660: d03f d54e ce20 c13f ed5d 1770 f0c4 8f3f
00000670: dc7b fd05 a0c7 aabf 3a68 6d83 cb37 b0bf
00000680: 4f8c ba37 bbcb b53f 0981 e97b 55aa c3bf
00000690: abe1 78f1 609b b2bf d8ac a652 3641 ccbf
000006a0: d8fd bfed a5d7 b03f 839f 8d13 214b b93f
000006b0: 8cba 111d fed0 cabf 3ddb bcc0 9018 b63f
000006c0: 9ba5 e885 466b b5bf 068a dedb e1b5 c6bf
000006d0: 8998 ed57 9146 90bf d7e2 e7b4 6b1a b73f
000006e0: a7c7 83a7 98af bebf d4b7 9302 5f42 9fbf
000006f0: a7c7 3cc1 43dc c1bf c8d9 e0a0 401d 833f
00000700: eb72 cb05 9a20 acbf 1abc f1b0 8778 aebf
00000710: 2770 ae15 991b 9bbf 0de4 5f64 85f5 883f
00000720: 6609 c56e 63d6 aa3f a39c acc1 b41c a6bf
00000730: fbc4 6815 a0c5 ad3f cb0f 0792 d024 c9bf
00000740: 1316 ba66 b041 a1bf 8219 22c6 eb09 97bf
00000750: 7acb 4e52 5ad0 a8bf fcaf d90a 07b1 aebf
00000760: dcc4 3980 817f 983f 2649 4a1d 7208 593f
00000770: 9749 28a9 1d6e 863f 64cd 26e0 a605 ab3f
00000780: 2962 b358 0f1f b13f c1ff 7008 423a c1bf
00000790: c8f7 c4f0 b396 a2bf eea5 ca39 fc46 9fbf
000007a0: 3263 806f cff2 953f d7e2 6923 ac87 82bf
000007b0: 8b9e 8374 3697 a83f e86f f7df 9b4b 953f
000007c0: 059d 782e 2743 9b3f 7400 d956 6ca5 a73f
000007d0: e070 2970 1fed 93bf 0355 a1a0 3389 a0bf
000007e0: 6fc0 ac08 2e6d 80bf 9438 df93 776d b83f
000007f0: 61af 8090 98a1 ac3f 96f1 a3da 9e8e c03f
-0.15015863159316759 -0.2516451484916894 -0.06029101029168592 -0.22513672753756758 0.13022182270375326 -0.11653958067566954 0.04530545337269051 0.08392559640738273
-0.15506925451092948 0.003009838162645556 0.13687755414376268 0.03399551202286259 -0.12415376210543749 0.06716085966791574 0.11022982028691632 -0.01309314184724405
0.03600469895392187 -0.011841125441065425 -0.0651919309674759 -0.11620351680853959 0.022523501066963974 0.1351487813930735 -0.039990176944160225 -0.012339849452362557
-0.1645673044655223 0.09476170254155061 -0.07340350718772393 -0.05253486145219211 -0.09555546077082708 -0.03725881913431809 -0.11565580246133071 0.04953238874139415
0.03250894025873462 -0.03433451786698372 -0.036715545728423886 0.04414272085192251 0.13235519838896306 -0.16059775125528486 -0.09674858768290549 0.06970267223192562
-0.13149988754330635 0.13477634031402055 0.0511635714671461 -0.03769205034993327 0.10391090219376393 0.006340318650720772 -0.07175224662947984 0.1771987587229634
0.007736705064004849 -0.1999302930940187 -0.11915869149801893 -0.021452495769553336 0.048514307097128215 -0.024257681645104844 -0.05413780631442314 0.06557325833822518
0.04547547395557477 -0.10712730230630331 -0.07696510971106417 -0.17948678775761648 -0.11205192728146963 -0.07281173023761486 0.07269529957445876 0.09426019327896025
-0.011773597258229598 -0.03313983983596327 0.024282810446431956 -0.027207988088171563 -0.03341165239984305 0.031946510896413934 0.1604837101045919 -0.05845592495382155
0.026096525379753845 -0.10245806248236694 0.044261775566170995 0.15658525566162304 0.08477241562337279 -0.06063931102635728 -0.02611820699472276 0.00804993316389184
0.23258519275305403 -0.04615405710447516 0.059507003781277205 0.08192910104403174 0.09621410909974208 -0.027399443258167545 -0.06531253137004105 -0.05027162213090088
-0.17598461598825663 0.0404945184483846 -0.0025571860920476663 0.030751072916407322 0.10105260780825787 0.018438818813643773 0.10829538608999048 0.045735211621221884
-0.02985986235832278 -0.09093086754810341 0.04840466686107707 -0.13603032933064677 -0.021140915780659707 -0.027773289184653716 0.1001977615010382 0.17881899153069533
0.09066156457650176 0.028778846726494355 0.1466230084191371 -0.09026145649184672 0.05155138442990746 0.025683106156358146 -0.19904269530888127 -0.053937856439037375
0.08931205223532318 0.09968943872767551 -0.11086754476434466 0.02530539319909731 -0.06836012438182923 -0.05612364894919393 0.010663233069014453 0.08559268141980883
-0.013614180590328661 -0.09242564844237156 -0.12119923746746368 0.07288453762512578 -0.022058353402600782 0.06254625009008136 -0.08930810624691551 0.08255933274546338
-0.07536462083496408 0.09142717259399788 0.08893273127754223 -0.038107690226345595 0.0067994603872294085 0.0687259700901475 0.010378058559307185 0.014008038737771521
-0.0016947739661993476 0.14260042059582945 0.05281308559973309 -0.00216124241373685 0.12202632129152877 -0.11652962575619828 0.12474932603382599 -0.11390543833169076
0.04902473731695933 0.0010692892616916009 0.060968640725857524 0.07471564108700454 0.1847850289166003 0.013643716833714407 0.08559297781916854 0.04879479639656056
0.020147181633691454 -0.0053391333210306684 0.13391788437623636 0.019887792217538423 -0.11306767006089206 0.02035612891501191 0.044863757655673034 0.03794649679403974
0.04387593925867228 -0.06992472388058704 0.05920524050942588 -0.09826856105758569 -0.011275128161005565 0.003353933994952368 0.00168555688887395 0.049315449658444324
0.018308880374551053 0.016405593711403963 -0.07648878583344104 0.06520004695509406 -0.027340109987804735 0.07254393112156228 -0.062726298398416 -0.19607452179181029
-0.13530396667460293 -0.007249537296024768 -0.018695152228636526 0.010866608180739543 -0.1497506782443343 0.05440850147708601 0.08487924234609436 0.025085025623170682
0.0067900106990489454 -0.0043594407059966275 -0.005741137307911569 -0.0013949196685708485 0.2488207931400559 0.00027125750406034013 -0.04840778301060879 -0.052601504498548377
-0.2072563901709519 0.039045019731289175 0.01899938050223277 -0.019028139517326736 0.030998204131727124 0.11047539856406684 0.04394893097233334 -0.017950930985573193
0.03507755921269241 0.11189242657809899 -0.12740247805780827 0.024750501804770182 0.13381365632312603 0.015512350483660032 -0.05230426858064849 -0.06335136374164643
0.08513994322361039 -0.15363567877194154 -0.07268339057271216 -0.22074011836716667 0.06579052977030331 0.09880263068555277 -0.20950294894597155 0.08631233888159513
-0.0836681439328885 -0.1774256061153922 -0.015894194595056397 0.090246898333031 -0.11986688699451396 -0.03052662327984719 -0.13953444419308633 0.009333138379685205
-0.05493623085724216 -0.05951332125629723 -0.026472465465858044 0.012187044263543024 0.052416903754891206 -0.043187760011556685 0.05814838658660367 -0.19643599634411965
-0.03370429281225653 -0.0224987830811414 -0.04846460585340302 -0.05994436271143397 0.023923896266244124 0.0015278925322133679 0.010952216839574187 0.05277749525284994
0.06688018718285406 -0.1345903912751947 -0.036306021824642765 -0.03054422476512813 0.02143406026889067 -0.00904783709596428 0.04802866146365855 0.020796237511475996
0.02662335606706014 0.04618395385887278 -0.01945923921663073 -0.03229676566903985 -0.008020743980154258 0.09542033538966371 0.05592037929485972 0.1293524329738715

action_mean.bias f8 [8]
00000000: 9362 8898 4410 c7bf b080 0ea7 54c1 c1bf
00000010: 9df2 aebb c4a3 b9bf 3bbb e791 aa64 aebf
00000020: 1575 b2ca 813c 97bf f651 63a0 cbc2 cd3f
00000030: 9b2a 3054 4db6 94bf b7e1 e051 5bcf c93f
-0.1801839585102881 -0.13871248395026248 -0.10015515882600785 -0.0593617728335318 -0.022691753384255515 0.2325071843284971 -0.02022667719215097 0.20164052484484582
